model_components/FGSM_SVHN_parallel_E31_multiheaded_pgd_2.pth (torch, 69094 bytes, 26 tensors)

encoder.0.weight f4 [16, 3, 3, 3]
000000 de bc c8 bc 42 1d ab 3d d3 e9 12 bd 77 2b 32 3e
       -0.024504121 0.0835519 -0.035867523 0.17399393
000010 93 02 0c 3e f9 d8 6a 3d ef 24 7c 3d 21 79 b2 3b
       0.13672857 0.057335827 0.06155866 0.0054465686
000020 eb 83 0f bd 5f e3 08 bd 59 1a 15 3e e4 68 17 be
       -0.035037916 -0.033419963 0.14560832 -0.14786106
000030 15 0c d1 3e a9 61 8c 3e 76 b1 19 3e 1b 0d 80 bd
       0.4082953 0.2741826 0.15009102 -0.062525
000040 70 17 06 3e bb d1 61 bd b0 3c 17 bd 11 e9 be 3d
       0.13094878 -0.055131655 -0.03692311 0.09321798
000050 a1 fb 24 3d ac 49 e8 3e 41 5c f2 bd 21 1a 00 bd
       0.040279035 0.45368707 -0.11834002 -0.03127492
000060 63 88 ca 3d fb f3 a4 bd d5 1b 33 bd 87 e9 40 3c
       0.09889295 -0.08054348 -0.043727715 0.011774427
000070 58 05 27 be c3 c9 0f bb b8 62 73 be 7a 33 86 be
       -0.16310632 -0.0021940328 -0.23768127 -0.26211149
000080 f6 66 2b 3d 0a c7 5f 3d de a7 9d 3c 6d 39 8f 37
       0.041846238 0.054633178 0.019245084 1.707367e-05
000090 b6 f4 e5 3d 4d 44 58 be 07 c5 3e bd 39 03 32 bd
       0.112283155 -0.21119805 -0.04657462 -0.043460105
0000a0 89 e2 96 be bc 60 d9 3b 71 a7 c7 3c 50 d3 18 3d
       -0.29469708 0.006633846 0.024371834 0.0373109
0000b0 1c ce 36 bd ea 04 ac 3d 96 f4 01 bf 59 ca c7 bd
       -0.044630155 0.08399375 -0.50763834 -0.09755392
0000c0 ab 4f 09 bd 4d 44 14 bf 42 34 96 3d 58 b3 8b 3d
       -0.033523243 -0.5791672 0.07334186 0.068213165
0000d0 e4 9e 10 bb 6c 72 ce bc 41 8b 1a 3d b5 d7 d0 bd
       -0.0022067362 -0.025201045 0.03773046 -0.10197393
0000e0 31 62 32 bd d4 24 09 be 23 41 8a 3b 2c c5 3b bc
       -0.043550674 -0.13392955 0.0042191907 -0.011460584
0000f0 c7 14 09 3e 49 72 98 bd fc 76 a0 3c b0 9f 59 3d
       0.13386832 -0.07443673 0.019587986 0.053130805
000100 51 f9 b4 3d b4 84 b6 bc d4 c7 58 3d cf 04 78 3d
       0.08836616 -0.022280075 0.052924946 0.06055146
000110 a7 93 e8 3d 8c 5d 73 3e 8d 8c b6 3b 75 9d de 3c
       0.113562874 0.23766154 0.005570954 0.02717469
000120 7e a7 c0 3d 9f 4c fa bd 29 4a 12 3b fb 5a 2c bf
       0.094069466 -0.122216456 0.0022322035 -0.67326325
000130 2b 09 38 be db 80 e0 3c fa 67 40 be 2f 96 81 be
       -0.17972247 0.027405193 -0.18789664 -0.25309893
000140 80 56 a4 3d ed ca a8 3b 31 8a 48 be 96 cc 83 bd
       0.08024311 0.0051511438 -0.19583966 -0.06435506
000150 07 5a fb bc 7d 0d 29 bf a1 50 3d 3d 29 d1 bb 3d
       -0.030682577 -0.66036206 0.04621947 0.091707535
000160 83 f0 22 bc 6a 6b a4 3d ff 5f 1e bd ad 5d c3 3d
       -0.009945038 0.080283 -0.038665768 0.095393516
000170 54 fa d8 3d 93 6c 49 be 59 cb e4 be 0b e3 26 3d
       0.10594621 -0.19670324 -0.44686392 0.04074387
000180 80 6d 1d 3d af 03 82 bd f4 b3 d8 3c d2 9d ed 3d
       0.038434505 -0.06348359 0.026452996 0.116023675
000190 60 e7 95 bb fd 28 7f 3e 4f 3b 88 be 3c dd 83 be
       -0.004574701 0.2491798 -0.2660775 -0.25754726
0001a0 9a 46 7a be 6b ee 07 3e a6 9c fc 3c 02 9e 93 3d
       -0.24440995 0.13274543 0.030836415 0.07207872
0001b0 3a 93 40 3d 97 93 6d be 4d db d3 3d 71 b3 60 bb
       0.047015406 -0.23200832 0.10344563 -0.0034286643
0001c0 75 f6 18 bf 7a e5 95 bd ff ab a4 bc 72 de a0 be
       -0.59751064 -0.0731916 -0.020101545 -0.31419712
0001d0 33 28 22 bd 3d 17 6e 3c 92 26 57 3d b2 41 28 bd
       -0.03958912 0.014531908 0.052527018 -0.041078277
0001e0 27 4a f4 3c 07 c6 19 be 81 90 9e bd cd 76 37 bd
       0.029820515 -0.15016948 -0.07742406 -0.04479103
0001f0 9e f2 00 3d 70 78 d6 bd d6 ef 88 3d 6a 38 d5 3c
       0.031481378 -0.104721904 0.0668637 0.026027877
000200 7f d5 da 3c 69 16 8c 3e 7e 4b f9 3e 97 de 61 bd
       0.026713131 0.27360848 0.48690408 -0.05514392
000210 ab ac b0 bd df e0 45 be 63 e8 a3 3d da e6 07 3e
       -0.08626684 -0.19324063 0.080033086 0.13271657
000220 f8 b3 f7 3d 88 2e 5c 3d 3a ee d6 3d 8b 05 92 be
       0.12094873 0.053755313 0.10494657 -0.28519854
000230 8a d0 6f bd 88 d2 11 3d 8b a5 95 bd 35 1e 8d bc
       -0.058548488 0.03560117 -0.073069654 -0.017226318
000240 e7 13 f8 bd 69 15 71 bc 88 4f cf bd 26 7a e4 bd
       -0.12113171 -0.014714577 -0.10122591 -0.111561105
000250 8d 87 76 be d1 15 c7 bd 21 83 9a 3c 59 da 2a be
       -0.24075146 -0.09720958 0.018861355 -0.16684856
000260 c6 17 71 bb af 40 79 3d 37 93 ad 3c 07 f0 5b 3d
       -0.0036787852 0.060852703 0.021188362 0.053695705
000270 06 d7 71 be 22 24 37 bf a1 a6 cd 3b cf f5 66 3d
       -0.23617181 -0.7153951 0.006275967 0.056386765
000280 16 d8 6a be 35 ef 11 3d a5 59 04 bd 7b 7f 89 bd
       -0.22933993 0.035628516 -0.032312054 -0.06713768
000290 ee 5a 58 3a 9c 37 be 3c 21 1c ab 3e 52 54 26 be
       0.00082532957 0.023219876 0.33419898 -0.16243103
0002a0 87 0f c7 bd cc 64 1e 3d 0a 25 8c bd 6d c4 f2 bb
       -0.097197585 0.038670346 -0.06843002 -0.0074086697
0002b0 fd 8c 8f 3d a1 84 4c 3d d4 e3 d1 3d 6f f9 f9 3e
       0.07009313 0.049931172 0.10248533 0.48823115
0002c0 0e f3 d9 bc 5f 50 65 bd 1d 6a 32 3e 0f ff f4 bc
       -0.026605155 -0.05598485 0.17423292 -0.029906778
0002d0 7b 3d b7 bd 53 ef 72 3d ad 10 39 bc aa ea 51 3e
       -0.08947273 0.05931027 -0.01129548 0.20499673
0002e0 36 3b 16 3f 72 ac 62 3d fa 53 97 bd 01 65 17 3e
       0.586841 0.055340238 -0.07389064 0.14784624
0002f0 45 c9 b5 3d d3 9b a8 3c 2b b6 aa 3e 9e b1 4b 3e
       0.0887628 0.020582115 0.33342108 0.19891974
000300 bb d5 f4 bd db 91 de be 36 f7 1f be 91 a1 06 3e
       -0.11954828 -0.43470654 -0.15621647 0.1314757
000310 f4 e5 ab be a7 25 69 3e ac 58 9f 3d e9 d3 9d 3e
       -0.33573878 0.2276827 0.07780585 0.30825737
000320 f7 3d 9a bb 0d e5 03 3e 6c fb ec be ee bc ad 3d
       -0.004707094 0.12880345 -0.4628557 0.08483301
000330 5a dd 24 3c 17 2a 8a be b0 e7 1f 3e 4c af db 3d
       0.01006254 -0.26985237 0.15615726 0.107267946
000340 96 91 5d 3e f5 b1 fc 3b 3c 55 40 bd 38 81 b3 be
       0.21637568 0.007711644 -0.046956286 -0.35059524
000350 ef 2e e5 3d 3a dd cc 3d c4 88 8f be ae f0 75 3d
       0.111905925 0.10003133 -0.2803403 0.060043983
000360 2e ec 40 bd a3 6b bc 3d 8c 2b c0 3c e9 e8 e3 ba
       -0.04710024 0.092002176 0.023458265 -0.0017388138
000370 b0 7c b0 bc eb 47 fc 3d 9b e3 90 3c 1a 7d 21 3d
       -0.02154383 0.12318405 0.017686656 0.039425947
000380 ed cf a3 bc 6f 03 62 3b 64 d4 bc bc 6c db 2b 3c
       -0.019996608 0.003448691 -0.023050494 0.010489326
000390 0c 0e dc 3c da 22 80 bd d5 84 a1 bd 35 45 26 bc
       0.026862167 -0.062566474 -0.07886664 -0.010148336
0003a0 f1 bb 85 bd ec 57 02 3d aa 33 99 bb f9 76 83 3b
       -0.065299876 0.03182213 -0.0046753483 0.0040119854
0003b0 7a af 6c bd 9c f4 09 3e 32 20 8f 3f ca e3 6b 3d
       -0.057784535 0.13472217 1.11817 0.057590283
0003c0 78 0b ad 3c 04 56 92 3d 9d 89 da bc dd 44 99 bb
       0.021123633 0.071453124 -0.026676947 -0.0046773986
0003d0 b0 bd 51 3e 71 0e 80 3d bf af 11 3e 19 83 20 3f
       0.20482516 0.062527545 0.14227198 0.6270004
0003e0 df 7e 63 3e 5c 46 39 3b 92 63 9b 3e 65 d7 5a 3d
       0.22216366 0.0028270697 0.30349404 0.053428072
0003f0 6c 8b 18 3b 1b f2 28 bd 88 52 c5 3d 03 8a a1 3d
       0.0023276461 -0.041246515 0.09634882 0.07887652

encoder.0.bias f4 [16]
000000 40 87 e3 3e bc ce a7 be a8 59 e3 bd 9c 6d 56 bd
       0.44439125 -0.32774913 -0.11101085 -0.052350625
000010 e8 e0 a1 be 72 29 2f be ef 2a a3 3e 20 07 0a 3f
       -0.31616902 -0.17105654 0.31868693 0.5391712
000020 50 8a 04 3f a7 95 a4 3e 36 2a b5 3f 67 2f a5 3f
       0.5177355 0.32145426 1.4153507 1.2905091
000030 4a c5 46 3f cc 1b 50 3f 42 04 16 bf 45 8e 45 3f
       0.7764479 0.81292415 -0.58600247 0.7717021

encoder.2.weight f4 [32, 16, 3, 3]
000000 c9 c0 d8 39 43 24 c0 bc 7d 43 2e 3c 95 f0 d7 bc
       0.00041342367 -0.023454791 0.010636208 -0.026359836
000010 89 2a 0f bd 79 81 44 be f8 5c b5 3d cb d5 85 bc
       -0.034952674 -0.19190015 0.08855623 -0.016337296
000020 fc 97 5b 3d d8 c8 67 3d 66 c1 ad 3b 2e 10 82 3c
       0.05361174 0.056588024 0.005302596 0.015876856
000030 7f 71 fe 3b 04 98 60 3d 3c a4 83 3c 23 d3 10 3d
       0.0077649946 0.054832473 0.016069524 0.035357606
000040 c3 81 94 3d 2c ee f1 ba 52 18 c0 ba b4 f3 1c 3c
       0.072513126 -0.0018457822 -0.0014655686 0.009579588
000050 38 0d dc bc ba 68 1d bd 7b 13 c1 3c ff cc 0e 3b
       -0.026861772 -0.038429953 0.02356886 0.0021789668
000060 80 38 d4 bc f7 c7 82 bd eb 9a 1b bd 42 7b ec 3c
       -0.025905848 -0.063857965 -0.03798954 0.028867368
000070 77 66 11 3d 77 6f 05 bc 22 de c4 bd f7 90 92 3d
       0.03549811 -0.008144251 -0.09612681 0.07156556
000080 36 ba ef 3c d8 41 0f 3d 2b 9c a2 bc ab 8b bb 3c
       0.029263597 0.034974903 -0.019849857 0.022893747
000090 b8 a2 34 3d 9b 95 1e bd c9 0d 5e b8 4a 01 64 3b
       0.044100493 -0.038716894 -5.2941763e-05 0.0034790807
0000a0 31 ed ee 3d 00 fb fc 3b 5c e3 04 bd 81 40 ab 3c
       0.116663344 0.007720351 -0.03244339 0.020904781
0000b0 fc 88 d5 bc a9 95 d6 ba 05 fb 54 3d af 50 e0 bc
       -0.026066296 -0.0016371506 0.051997203 -0.027382223
0000c0 b5 d5 a8 bc 6a 0b a0 bb ba 50 4e 3d 54 48 b2 3b
       -0.020609716 -0.004884173 0.050369956 0.005440751
0000d0 51 6f 0f bd e4 58 f7 3c 69 93 ad 3d 25 64 4e bd
       -0.03501827 0.030193754 0.08475382 -0.050388474
0000e0 2c 4b ee 3d ac 13 fc 3d 5f 09 45 be 7d d0 87 bc
       0.11635432 0.123084396 -0.19241856 -0.016578907
0000f0 50 db 31 3d ff cd 38 3d d6 3e b0 3d 7b c7 57 3c
       0.043422043 0.04511833 0.08605735 0.013170118
000100 b3 a3 34 3e c3 c7 69 3d 77 88 91 3d cd 2e 86 3e
       0.17640571 0.057075273 0.07106107 0.2620758
000110 bc 42 61 bb 19 bc f0 3d ee 26 de 3c ed d0 6c 3d
       -0.0034372052 0.11754627 0.027118172 0.057816435
000120 87 a1 fc bc 90 05 ff 3b f5 6c 83 3b 7a 73 43 3d
       -0.030838741 0.0077826455 0.0040107914 0.04771755
000130 86 9b 47 bc ce d3 bf bc 8e 98 46 3c 09 93 0e bb
       -0.012183076 -0.023416426 0.012121333 -0.002175512
000140 d2 ce a0 3b 3d 63 36 bd cf 2e 5f 3c 1d 74 b3 bd
       0.0049074674 -0.044528235 0.013622 -0.08762381
000150 fe 9c 74 bc 9c 17 0b bd 92 6e 17 3d b7 0b 5b bc
       -0.014930008 -0.033958063 0.036970682 -0.013369492
000160 73 1c 88 3d 18 f1 6c 3d b0 14 ec bc ef f4 1a 3a
       0.06646051 0.057847112 -0.028818458 0.0005911132
000170 11 b4 07 bd c7 a7 68 bd 5a f6 b9 3d f1 e5 f1 3c
       -0.03313071 -0.05680063 0.09080191 0.02952859
000180 8c 55 3a bd 2f f5 b3 3d 21 0a 8a 3c 9a b5 0e bd
       -0.04549174 0.087869994 0.016850533 -0.034841157
000190 98 26 53 bc b5 e8 32 3d 46 8a 4f 3d 4e d0 c4 bd
       -0.012887619 0.043678958 0.050668977 -0.096100435
0001a0 cc ee 37 3b 3f ba 38 bd 44 6c 09 be aa 4d ac 3d
       0.0028065918 -0.045099493 -0.13420206 0.08413251
0001b0 3d 25 27 bd a5 55 bd bc 57 8d 4e 3d dd 90 11 be
       -0.040806998 -0.023112128 0.05042776 -0.14215417
0001c0 2b 18 21 bd 48 e4 20 bd 5f 01 ce bd 07 26 35 bd
       -0.03932969 -0.039280206 -0.10058855 -0.04422572
0001d0 fa c4 9b bd a3 8d 39 bd 27 59 e5 bc f6 9f f7 bc
       -0.0760593 -0.04530109 -0.027996613 -0.030227643
0001e0 ec da 86 bc 25 41 15 bf 27 13 7b be fb 27 86 bb
       -0.016461812 -0.5830253 -0.24519025 -0.0040941215
0001f0 7d b5 d7 bc 6d a5 46 3d 99 9a 8b bd 94 67 82 bc
       -0.026331658 0.048497606 -0.068165965 -0.01591853
000200 95 96 28 bd c2 ec 23 bd c7 fb 0b 3f e1 ea 12 bc
       -0.04115923 -0.04002071 0.54681057 -0.008967132
000210 ff bd 54 bd 85 40 b9 3c b6 25 34 bd 20 0f 5f bd
       -0.051939007 0.022613773 -0.043981276 -0.054457784
000220 84 47 a7 3d c0 40 ca bc d2 f9 ff 3b 31 be 0b 3e
       0.081679374 -0.024689078 0.0078117633 0.13646771
000230 df 55 48 3d 32 54 a3 bc 96 0e e0 bb 00 42 97 bb
       0.048910018 -0.019937608 -0.0068376763 -0.004616022
000240 21 6e 50 bd c2 6d 8c bd fc d8 2c bc 8f 7e 37 bd
       -0.050886277 -0.06856872 -0.01054978 -0.04479843
000250 09 f3 2d bd 23 a4 0c 3e c8 2e bd 3c 58 7c f9 3c
       -0.042468105 0.13734488 0.023093596 0.0304548
000260 46 4c 5f 3d c2 05 ed 3c 1a 22 a9 bd 60 eb 95 bc
       0.0545161 0.02893341 -0.082584575 -0.018300712
000270 c0 7f f1 3c 1c ff 0d be 14 af a7 bc 12 93 b4 bb
       0.029479861 -0.13866848 -0.020469226 -0.005510696
000280 91 46 9b bd ed 8a c6 bb 11 7a 31 3c a4 d0 b9 bd
       -0.07581819 -0.0060590417 0.010832326 -0.09072998
000290 bd 61 ec bd 24 2b 58 3c d6 6b c7 bd 44 15 28 be
       -0.115420796 0.013193879 -0.09737365 -0.16414362
0002a0 46 29 3d 3b b2 de e4 bc 34 95 b6 bc 44 91 1d 3d
       0.0028863712 -0.02793822 -0.022287942 0.038468614
0002b0 c3 84 95 bc 74 9e 63 bc 47 bb a6 bd 52 d9 49 bd
       -0.018251782 -0.013892759 -0.08141189 -0.04927952
0002c0 84 31 10 be 51 b8 6a 3d 69 30 fa bc 5e f2 c4 bc
       -0.14081389 0.057304684 -0.030540662 -0.02404135
0002d0 ac ba 0f 3d cb 72 16 bc 50 0d 0a 3d 82 26 10 bd
       0.035090134 -0.009182642 0.033704102 -0.035192974
0002e0 c1 db 3b 3e 35 f4 9c 3d fc da af bb 44 1e 95 3c
       0.18345548 0.07663766 -0.005366681 0.018202908
0002f0 57 bf 02 3d 4c fe c2 3d 1c fa 22 bd c1 68 53 3c
       0.031920757 0.095211595 -0.039789304 0.012903393
000300 1c ed 30 3d 7a ed 0c be 96 59 89 bd 39 ff d8 3c
       0.043194875 -0.13762465 -0.0670654 0.026488887
000310 21 97 c6 bc fe fe ab 3b be 35 4c bd ef 8a 0e bd
       -0.024241986 0.0052489033 -0.04985594 -0.034800466
000320 27 8c 35 bd e2 b1 69 bc e0 61 1c 3b 82 a3 d8 3c
       -0.044323113 -0.014263602 0.002386205 0.026445154
000330 cc ae 29 bd d3 af 3f bb ee c2 45 bc 06 31 ae bc
       -0.041426465 -0.0029249087 -0.012070401 -0.02126361
000340 40 e0 3f be 77 b3 86 3c 40 02 1d bd 4d 8c 70 be
       -0.18737888 0.016442997 -0.038332224 -0.2349102
000350 4d 1f 95 bd 63 f9 c2 bc ae 3e d0 3c 0f 1a e7 3c
       -0.07281361 -0.023800557 0.025420513 0.028210668
000360 af fc bd bc 3f b0 19 bb da f7 88 3d d1 da b2 bc
       -0.023191778 -0.0023450998 0.06687899 -0.021832855
000370 b7 8c 37 3e eb 9f d7 3d d2 01 74 bd 5b 96 05 bd
       0.17924772 0.10528549 -0.05957205 -0.032614093
000380 4e f6 95 3d 2b 96 1d 3d dd 6c c5 bc 3f 14 56 bd
       0.073223695 0.03847329 -0.024099762 -0.052265402
000390 37 d1 25 3d 2c 43 96 bc e1 c5 68 3d da a7 1c bd
       0.040482726 -0.018342577 0.056829337 -0.038246013
0003a0 8d 4c 84 bb 18 62 ee 3c ed 8a 00 3d 19 cd e6 3d
       -0.004037446 0.02909951 0.03138249 0.11269588
0003b0 42 23 4a 3e 5c 14 e4 3d 02 52 cc be e1 33 7c bc
       0.19740012 0.11136696 -0.39906317 -0.015393228
0003c0 89 9a 94 bd 47 20 c0 3d 06 7f e7 3d 70 e3 18 bc
       -0.07256038 0.093811564 0.11303525 -0.009331569
0003d0 a3 b9 95 bd 19 61 a6 bd d0 16 14 3e 82 f0 0a 3d
       -0.07310798 -0.08123989 0.14461827 0.033920772
0003e0 6e 4d 00 bd 5e 60 9c 3d 28 ad 74 3d c7 a9 99 bc
       -0.031323843 0.07635568 0.059735447 -0.018757714
0003f0 25 eb 03 3d bf 75 a6 3d 20 2c 8b 3d d3 a1 33 3d
       0.032206673 0.08127927 0.067955256 0.0438555

encoder.2.bias f4 [32]
000000 b8 2b 42 be 4f 3b 32 3d 06 a5 cc 3d b5 53 dd 3d
       -0.1896199 0.043513592 0.09992413 0.108069815
000010 e7 14 3a 3e 73 1e f8 3c 24 1b 79 3e 2f 19 b8 3e
       0.18172036 0.030287957 0.2432676 0.35956714
000020 b8 02 11 bd dc 11 09 3e a2 7e 4f be f5 63 49 3e
       -0.035402983 0.13385719 -0.2026315 0.19667037
000030 e1 6f 93 3d 22 3f 16 3d 89 b0 cc 3d e0 92 4a bd
       0.071990736 0.036681302 0.09994609 -0.049456477
000040 d5 0a 9f 3d 0f a4 75 ba 83 9f ba bd 7e 17 3c 3e
       0.07765738 -0.0009370455 -0.09112456 0.18368337
000050 39 d4 1b 3e 80 d0 13 3e dc bb 31 be 51 1d a0 3d
       0.15217675 0.14435005 -0.17356819 0.07818092
000060 8a 37 9d be 83 7f 8a 3d f3 3e 8d 3e 33 48 fa 3d
       -0.30706435 0.06762602 0.2758709 0.12220802
000070 8b 90 02 3e 02 b5 d0 bd b6 72 17 be 1b 43 3d 3d
       0.12750451 -0.101907745 -0.14789852 0.046206575

conv_skip.weight f4 [16, 16, 1, 1]
000000 ca ed 27 3d ca f2 c4 bd 3b d4 df 3b 54 1d 13 3e
       0.040998258 -0.09616621 0.0068307198 0.14366657
000010 88 fc ce bc 61 25 8d 3e c8 47 7f be 35 2a fa 3d
       -0.0252669 0.2756758 -0.24929726 0.122150816
000020 2e 9e b9 be 76 4c 6e 3d ac ca 86 b8 f4 26 bd bd
       -0.36253494 0.058178388 -6.4273685e-05 -0.09235945
000030 39 c6 57 3d 55 88 4e 3d 32 d5 6b 3e 48 4b 11 bb
       0.052679274 0.050422985 0.23030546 -0.0022170115
000040 34 07 04 3e 63 c1 44 bd 9b 5b a0 bd 0a 07 e0 3c
       0.12893373 -0.04803599 -0.07829972 0.027347106
000050 c0 77 f6 bc 42 51 4c be 11 cd 48 bd 24 89 26 3e
       -0.030086398 -0.19952872 -0.04902369 0.16263252
000060 42 d2 c1 3d 05 57 8b 3d 65 cf 0d 3e f7 a1 55 3c
       0.094639316 0.06803707 0.13848646 0.013039104
000070 fd f4 39 be 37 8d 4c 3c 8b 99 32 3d 2a f3 2b be
       -0.18159862 0.01248484 0.04360346 -0.16791978
000080 d2 42 27 be 65 23 08 be 1c e8 dd bd 0c d3 01 3e
       -0.16334084 -0.13294752 -0.10835287 0.12678164
000090 2a 5c 3b 3e 58 4e 3a bd 78 67 3e 3e 9d 99 f2 bd
       0.18296877 -0.04548487 0.18594158 -0.11845706
0000a0 9c 18 fd bd 0d b0 2c be e7 6a 94 3d c6 52 51 bc
       -0.123582095 -0.16864033 0.072469525 -0.012776082
0000b0 df 8a ff 3d a5 1b 74 3d 6b 76 8f 3d e0 69 48 3e
       0.124776594 0.059596676 0.07005008 0.19571638
0000c0 a8 76 ff 3c ca 07 55 bd bf 61 3b bb 90 17 b9 3d
       0.03118451 -0.05200938 -0.0028592197 0.09037697
0000d0 6e 15 1b bd 71 24 f1 3d a2 d5 63 3d ed 84 b3 3c
       -0.037862234 0.11774529 0.055623658 0.02191397
0000e0 8d 2e 52 3e 4f b2 30 be a4 7d 94 bd 16 b4 31 be
       0.2052557 -0.1725552 -0.072505265 -0.17353854
0000f0 4e 1f 32 3e 4b a2 39 bc b1 30 04 be 30 16 83 3d
       0.17394754 -0.011330198 -0.129092 0.06400716
000100 ff 4a ed bd b8 79 02 3e 4c be c5 3d 2a cb 26 3e
       -0.1158657 0.12741745 0.09655437 0.16288438
000110 9b 78 3d bc f0 bb 91 3d 5c 10 30 be 74 1d d3 3b
       -0.011564399 0.07115924 -0.1719374 0.00644272
000120 e8 31 e6 bd 53 9a 31 bd a7 ce 54 bd 03 9c ba bd
       -0.112399876 -0.043360066 -0.05195489 -0.09111788
000130 8b 02 15 3e a6 3d a1 3d d1 e4 7e 3d e8 d0 12 bd
       0.14551751 0.07873087 0.062229935 -0.03584376
000140 bd bd 53 bd a5 59 83 be 8a 02 28 bb f3 07 0f 3e
       -0.05169462 -0.2565433 -0.002563628 0.13967876
000150 e5 69 e0 3d 57 e4 cd bc 06 89 55 3e d5 dd 17 3e
       0.10957698 -0.025133295 0.20853052 0.14830716
000160 6e 37 62 3e 23 36 1c bd 00 86 8e bd 6a ba 96 3d
       0.22091457 -0.038137566 -0.06959152 0.073597744
000170 dc 11 a4 3b 6a 84 e6 bd d2 f2 95 bd 7d f8 d6 bc
       0.005007012 -0.11255725 -0.07321705 -0.026241535
000180 1a 74 e8 bc 02 a2 8d 3c 7b 68 07 3e 9b 6b df 3b
       -0.028375674 0.017289165 0.1322345 0.0068182475
000190 89 52 c9 bd 07 d4 17 3e 81 63 f2 bd 97 07 5f 3d
       -0.098301955 0.14826976 -0.11835385 0.054450598
0001a0 21 1a a2 be 10 50 1a 3d 4f c1 24 3e 99 e5 8f 3d
       -0.3166056 0.03767401 0.16089366 0.07026214
0001b0 06 84 a9 bd fd be 20 bd e1 66 93 3d 0f 66 c8 3c
       -0.082771346 -0.03924464 0.07197357 0.024462728
0001c0 7d d8 40 3e 94 87 36 be 86 30 01 be de 93 cb bd
       0.18832584 -0.17825156 -0.12616166 -0.09940313
0001d0 b5 2b 3d be 2a 55 24 be 68 32 90 3c 46 64 0d be
       -0.18473704 -0.16048113 0.01760216 -0.13807783
0001e0 17 c3 29 3e 5b 59 e6 3d 98 84 61 bc 29 80 27 3d
       0.16578327 0.11247512 -0.013764523 0.040893707
0001f0 e2 8f e9 bc 53 1a 41 bd d7 9f b5 bd b5 2b 12 3c
       -0.028510991 -0.047144245 -0.08868378 0.008921553
000200 fc 58 2c 3d 15 8d 97 3c 21 f3 7a bc 9c e8 9a be
       0.04207705 0.01849989 -0.0153167555 -0.30255592
000210 97 94 77 be 7c 97 49 bd 07 93 c8 3c f7 5c 3e bd
       -0.24177776 -0.049216732 0.02448417 -0.046475377
000220 86 d4 01 bd 82 ab 4c bd 7c 57 47 bc b2 0d 66 be
       -0.03169682 -0.04996825 -0.012166854 -0.22466162
000230 01 41 5e be 7c 8f fc 3c dd 3f 92 be a9 69 f6 3b
       -0.21704485 0.030830137 -0.2856435 0.00751992
000240 07 80 26 bb 6c 84 03 bc 86 b7 d2 bd d9 f8 c7 3d
       -0.00254059 -0.008027177 -0.102889106 0.09764261
000250 ca 2e a2 3d 65 b9 3f 3d d6 85 4b bc 45 7d 06 3d
       0.079190806 0.046807665 -0.012422046 0.03283431
000260 34 3e 90 3d 77 a6 ad be 71 1d 81 ba 25 fe fc bd
       0.07043114 -0.33916065 -0.0009850693 -0.12353162
000270 4b 9c b9 3d e1 c2 9c bc ef 0a 2e 3e e2 ab c3 3c
       0.09063014 -0.019135894 0.16996358 0.023885671
000280 1c 0e 80 3c 49 43 f7 bd 39 7f f4 bc fc b0 b8 ba
       0.015631728 -0.120733805 -0.02984582 -0.0014090831
000290 94 34 dd 3d d4 6a 3d 3d 31 da 3a be f8 04 53 3d
       0.10801044 0.046244457 -0.18247296 0.05151841
0002a0 4c 60 2a be 0c 83 59 be b1 0b 42 3c a2 a8 f7 bd
       -0.16638297 -0.21241397 0.011843608 -0.12092711
0002b0 00 e8 23 3e ae 9f a4 bd 85 02 3f 3e f6 35 f0 bd
       0.1600647 -0.08038269 0.18653305 -0.11729042
0002c0 11 34 57 be 40 0c f1 3d 24 12 80 3d ef f6 37 3d
       -0.21015956 0.117699146 0.0625346 0.04491323
0002d0 7b 6f b2 3d fc 36 13 3e 43 52 55 be 81 e9 41 3d
       0.087126695 0.14376444 -0.20832162 0.047341827
0002e0 9e 88 93 bd fa 20 42 be f1 36 47 3e da 63 c9 3d
       -0.07203792 -0.18957892 0.19454552 0.09833498
0002f0 19 90 6d 3d dc 5b 8b 3d 62 55 7a 3e 86 86 c9 3d
       0.05799875 0.0680463 0.24446633 0.098401114
000300 be f5 84 bd 96 b0 33 3e 9f 0b a9 bc da d5 91 bc
       -0.06492184 0.17547831 -0.020635424 -0.017802168
000310 56 1a 26 3e 4f 22 6f 3e 96 22 15 be b0 5e 91 3d
       0.16220984 0.23352931 -0.14563975 0.07098138
000320 03 d4 05 3e 17 ac c0 bd 99 5c 94 bd d1 06 48 be
       0.13069157 -0.094078235 -0.07244224 -0.1953385
000330 69 48 fb 3d 8e 70 3b 3e 80 83 46 3e ab 31 30 3e
       0.122696705 0.18304655 0.19386101 0.17206447
000340 68 45 1d bc a7 b9 3a be 31 4b 5a bd 89 cb 93 bd
       -0.009599067 -0.18234883 -0.053294364 -0.072165556
000350 f2 fb 24 be e5 3a 9e ba 91 9c 66 3d f4 93 b5 bd
       -0.16111735 -0.0012071995 0.056301657 -0.088661104
000360 a0 20 86 3e a9 08 05 3e a6 3b 21 be 30 66 df bd
       0.26196766 0.12991585 -0.1574541 -0.109081626
000370 d2 f8 20 3d 7d 3b 96 3c a7 44 82 bd 1d 0f 9b 3d
       0.039299794 0.018338913 -0.06360751 0.07571242
000380 b0 d8 25 3e 7b a5 b3 3d 8f 1f 6f bc 3d 5d 8b bd
       0.16195941 0.08771797 -0.0145949265 -0.06804893
000390 66 78 05 3e 8b 5d 31 3e ba a6 88 3d f5 43 fd 3c
       0.1303421 0.1732084 0.066724256 0.030916194
0003a0 00 d0 e4 bd 54 0b 02 be 93 c4 45 3e c9 c2 b8 3d
       -0.11172485 -0.12699634 0.19313268 0.09021527
0003b0 b4 71 a8 bd 8b 20 3f 3c 92 c9 11 be 49 9f 5c bd
       -0.08224812 0.011665474 -0.14237049 -0.053862844
0003c0 56 06 97 bc 05 22 87 bd 69 7b 19 3d 04 9d aa 3d
       -0.018435638 -0.065982856 0.03747121 0.083307296
0003d0 5b f2 25 bd 39 9c 02 3e 0d c1 de bb 14 16 92 bb
       -0.04051433 0.12754907 -0.006797916 -0.0044581983
0003e0 12 ff d4 3d 20 ed d4 3d c5 20 28 be 03 fb 3b be
       0.10400213 0.103967905 -0.1641875 -0.18357472
0003f0 a2 fc 91 3e 1c 92 4f ba 6d 16 49 be 22 d7 31 be
       0.28513056 -0.00079181953 -0.19637461 -0.17367223

conv_skip.bias f4 [16]
000000 ad 79 15 3e f4 f2 06 3d e5 ad 05 3c 80 87 22 be
       0.14597197 0.032946542 0.0081591355 -0.15872002
000010 d1 52 9c 3d 38 77 fb bd c1 25 b7 3d 10 84 ee 3d
       0.076329835 -0.122785985 0.08942748 0.11646283
000020 c2 fa 56 bc d2 b9 b4 3b 2a 8c b8 bd ef 59 f9 bd
       -0.013121309 0.0055153156 -0.09011109 -0.121753566
000030 30 5b a0 bd 03 4b 25 3e 0e c5 2e bd 94 70 e6 bd
       -0.07829893 0.16141896 -0.042668395 -0.11251941

attention.query_conv.weight f4 [32, 32, 1, 1]
000000 e9 98 d6 bc 41 17 55 bd e8 01 f8 3d 93 94 77 be
       -0.02619596 -0.05202413 0.121097386 -0.2417777
000010 76 62 8e 3b 3c 2d cf ba c9 f1 63 bd fe 89 0a bc
       0.0043452336 -0.0015806328 -0.055650506 -0.008455751
000020 ef c0 57 bd ab 8e e5 3d 72 18 93 bc b3 ac 1b bd
       -0.05267423 0.112088524 -0.017955992 -0.038006496
000030 de 9b 5f bd 99 07 b4 3d d3 e7 ce bc 14 f3 d7 bb
       -0.054592006 0.08790512 -0.025257027 -0.0065902565
000040 f5 ca 2e be 9d 6b 64 3e 8c c3 99 bc f8 c9 94 3d
       -0.1706961 0.22306676 -0.018770002 0.07265085
000050 8c 0f 4c be 7c 78 31 bb 67 21 d2 3c 0d da f9 bd
       -0.19927806 -0.002707987 0.025650693 -0.12199793
000060 5e cf 1b be 4c 8a f2 bd 21 24 25 3e 2b 59 cf 3b
       -0.15215823 -0.11842784 0.16127063 0.0063277683
000070 fb 81 ee bd 74 52 73 bd f0 df d1 bd 0c 80 a7 bd
       -0.116458856 -0.059404805 -0.10247791 -0.0817872
000080 00 8e 19 be 80 00 6b bd e9 76 cc 3c 1f 81 8a bd
       -0.14995575 -0.057373524 0.024959045 -0.06762909
000090 4b c8 59 be 23 af 2d 3d 4f bb 09 be fc 7e 2e be
       -0.21267812 0.04240335 -0.13450359 -0.17040628
0000a0 71 c4 44 bd 87 80 3a bd ec 58 89 be 79 49 30 bd
       -0.048038904 -0.04553273 -0.26825655 -0.04303882
0000b0 2d 89 46 be a4 66 42 be d2 bf 40 be e0 63 9c 3c
       -0.19388266 -0.18984467 -0.18823174 0.019090593
0000c0 17 53 83 bd 6c 6e a4 bd 8f 1f a6 bd a4 c1 22 be
       -0.064123325 -0.08028874 -0.08111488 -0.1589418
0000d0 15 2c b7 bd e7 ee 36 be 72 f4 92 3b e5 51 84 3c
       -0.08943955 -0.17864572 0.0044847066 0.016152332
0000e0 13 91 af bc 01 37 b7 3c f0 22 35 be b1 00 13 3c
       -0.021431481 0.022365095 -0.17689109 0.008972333
0000f0 3e 74 f8 bd 89 b6 1b bd 8a 0e b4 3d 06 5c 9c bd
       -0.121315464 -0.038015876 0.087918356 -0.076347396
000100 f3 2d 91 3d c6 f8 7a 3d 9e e7 c1 3d b6 28 6a 3d
       0.07088842 0.061272405 0.094680056 0.05716773
000110 b4 ab f9 3c 8f bd 1f 3d 73 5c e5 3d ab 2e bb 3d
       0.030477382 0.038999137 0.11199274 0.091397606
000120 a5 4b a1 3d 96 36 90 bd b7 0e 71 3b b0 13 89 3d
       0.07875756 -0.070416614 0.0036782452 0.06693208
000130 e2 6a 07 3e 97 f3 a8 bd 20 bf 41 3d 87 a8 f3 bc
       0.13224366 -0.08249586 0.04730141 -0.029743446
000140 43 95 63 3d ee a5 12 be 5a 22 5b 3c 25 9c ba 3c
       0.05556227 -0.1432111 0.013374889 0.022779534
000150 e5 e8 b3 3d 31 8e 33 3e 77 0e a6 bd 2b 67 06 3e
       0.087846555 0.1753471 -0.08108228 0.13125293
000160 21 98 a9 3d 5a 64 f5 3c 10 a1 67 be fc a9 1d bc
       0.082809694 0.029955078 -0.22620034 -0.009623047
000170 98 c9 24 3d c8 71 e2 bc 2e 33 66 3e 66 f1 23 3e
       0.040231317 -0.027642146 0.22480461 0.16010055
000180 17 6a 88 3d 47 12 a2 3d 12 89 56 bd 3d 49 bb 3d
       0.0666086 0.079136424 -0.052376814 0.091448285
000190 92 30 10 3e 35 d1 70 3c 3a db 0a 3e a7 e8 95 bd
       0.14081028 0.014698316 0.13560191 -0.073197655
0001a0 55 3f ce bd dc e5 5a be 41 e4 bb 3c 0d 64 84 3d
       -0.100706734 -0.21376747 0.022935988 0.06464396
0001b0 82 c9 38 3d 7c 9c d0 bd 7d ad da bd 71 d2 4f bd
       0.045114048 -0.10186097 -0.106776215 -0.050737802
0001c0 52 74 a9 3b 1b 10 5e be 00 19 f4 bd 61 7e ca bd
       0.005171337 -0.21685831 -0.11918831 -0.09887386
0001d0 bb 2c cc 3d f0 30 34 bd 82 43 bb bd f6 1a bc 3d
       0.09969469 -0.043991983 -0.091437355 0.0918483
0001e0 b1 35 79 3e 9c ab 5e 3d 1f 2d 23 be 99 63 22 be
       0.24336888 0.05436288 -0.15935181 -0.15858306
0001f0 38 3f ad 3d 22 f3 64 bc e8 67 cb 3d c2 2a 57 3d
       0.08459324 -0.013973983 0.09931928 0.05253101
000200 bf af 27 be 85 cb 00 be 4f ca f4 3d 45 55 00 bd
       -0.16375636 -0.12577637 0.1195265 -0.03133132
000210 f4 a2 f0 bc 12 c7 d4 3d de 9a 19 be 18 a9 b6 3c
       -0.029374577 0.10389532 -0.15000483 0.022297427
000220 fb 33 98 3d 93 b0 3d 3e 17 19 b9 ba 52 b3 08 3c
       0.074317895 0.18524389 -0.0014121857 0.008343535
000230 d7 d3 04 3c f4 74 2d 3e fd d9 8f 3d 0b a3 71 3c
       0.008107147 0.16939145 0.07024 0.014748345
000240 80 d1 b6 3d fb 14 8a 3e d8 ef a1 bd 94 0b 03 3e
       0.08926678 0.26969132 -0.07907075 0.12797385
000250 ce fa 57 bc 53 e1 bb 3c a9 ad b4 3d 78 d2 75 bc
       -0.013182355 0.022934591 0.088221855 -0.015003793
000260 3d a6 b3 be a1 23 04 bd 42 d2 1c 3e a6 45 de 3d
       -0.35087767 -0.03226054 0.15314582 0.10853128
000270 59 b5 0a 3e c3 a1 0f bd c2 a9 df bd e5 22 1f bd
       0.13545741 -0.035066377 -0.109210506 -0.038851637
000280 fe 18 a2 3d 3b 16 d2 3a b2 bc ac 3c f1 5f df bd
       0.07914923 0.0016028354 0.02108607 -0.10906971
000290 20 02 3a 3c 7f 40 cc bd 7d 3e a4 3d ed 85 7f bd
       0.011353046 -0.09973239 0.08019731 -0.06238358
0002a0 8d 74 db 3d c1 aa 85 be 46 ca 8e bd 22 0c 73 bd
       0.1071559 -0.26106837 -0.06972174 -0.059337743
0002b0 4e 0e 70 bd ac 6f 38 be 2f f6 2d bd ab f7 e3 bc
       -0.058607392 -0.1801135 -0.042471107 -0.027828058
0002c0 a0 23 17 be ea 33 86 be 95 d8 f0 3d 0d cc 18 be
       -0.14759684 -0.26211482 0.1176006 -0.14921589
0002d0 2d 04 9c 3b 7a cc 98 bd c0 96 55 bd 55 2a 54 3d
       0.00476124 -0.07460876 -0.05214572 0.051798183
0002e0 51 82 73 3e 78 c0 1e bd 9b 5c 48 be 32 3a 05 3d
       0.2378018 -0.03875777 -0.19566576 0.032526202
0002f0 f6 a9 8c bd ae 1a 2c 3d a1 ac b5 3d 06 05 58 bd
       -0.06868355 0.04201763 0.08870817 -0.052739166
000300 ad 5b 48 3e ca e5 c4 3d 07 d5 d6 bd 7e 8d bc 3d
       0.19566222 0.09614141 -0.104898505 0.09206675
000310 e8 d5 43 3d cc 49 80 bd 1a 8c e4 3d eb e4 b8 3c
       0.04781142 -0.06264076 0.11159535 0.022570094
000320 7e d8 09 3e 43 02 23 be 2d 4f 1b 3d fd e8 8d bc
       0.13461491 -0.15918832 0.037917305 -0.017323012
000330 81 5d 53 3b 2c f9 17 be fc d4 e6 3b d9 8a 4c bd
       0.0032251778 -0.14841145 0.0070444327 -0.049937103
000340 9c c4 cb bd 1a 2a a8 be 2b 4b a5 bd 19 c9 6d be
       -0.0994961 -0.3284462 -0.08070978 -0.23221244
000350 78 4e 80 3d 1b ee e4 bd 3e 63 b4 bd e9 e7 fe 3d
       0.06264967 -0.111782275 -0.088079914 0.12446577
000360 81 92 b9 3e 77 f4 c1 3c f3 e0 67 be c4 23 d4 bd
       0.36244586 0.02367614 -0.22644405 -0.10358384
000370 05 bf b0 3d 7e da 28 3d 57 4b 2e 3e c8 36 2c 3e
       0.08630184 0.041223995 0.17020927 0.16817772
000380 96 49 0a be bf 55 5d bc 55 a1 c0 3d 8c 24 96 3d
       -0.13504633 -0.013509213 0.09405772 0.073311895
000390 78 46 3b bc f4 80 84 3c 98 73 ba bd 5a e7 13 be
       -0.011430375 0.01617477 -0.09104079 -0.14443722
0003a0 53 0b 4a bd 3d 7a ff bd 81 45 70 bc 4d 89 40 3e
       -0.049327206 -0.12474487 -0.0146650085 0.18802376
0003b0 dc 2f b6 3d ee 7e dd bd 19 e3 08 be 84 f7 86 bd
       0.08895847 -0.108152255 -0.13367881 -0.065901786
0003c0 e4 27 c5 3d d4 e7 c7 bd eb b2 3d be 07 19 03 3e
       0.09626749 -0.097610146 -0.18525283 0.12802516
0003d0 33 0c 25 3e cc 94 1a 3e a8 cb e2 bd d2 a0 d2 3d
       0.16117935 0.15095824 -0.110740006 0.1028458
0003e0 43 f9 6e bd d6 e3 99 3d ce bf 12 be 36 27 34 bd
       -0.058343183 0.075141594 -0.1433098 -0.043982707
0003f0 ed 54 5d bc 7c 91 29 be 7f bd a6 3d 92 0c f3 3d
       -0.013509017 -0.16559404 0.08141612 0.11867632

attention.query_conv.bias f4 [32]
000000 49 cd d3 bd 28 55 1d bc 77 e4 1d 3e 5f e1 8c bd
       -0.103418894 -0.009602822 0.15419184 -0.068789236
000010 ff 54 7f 3e fe 5d 3b be c8 d1 48 be 56 6b 7c 3e
       0.24934767 -0.18297574 -0.19611275 0.2465032
000020 ca d8 b2 bd 11 e9 30 3e 45 35 9b bd e9 f9 81 bd
       -0.087327555 0.17276408 -0.0757852 -0.06346495
000030 5a a5 df bd cb 71 c6 3d 46 32 9b 3c 53 26 cd bc
       -0.1092021 0.09689673 0.01894487 -0.025042688
000040 f1 60 68 3d 29 98 6e 3d ab 62 14 3d 82 29 1a 3e
       0.056733076 0.05825058 0.03622691 0.15054896
000050 ec a2 ef bc 7c 8c f6 3c bf 56 76 3e c1 87 49 3e
       -0.029252492 0.030096285 0.24056529 0.19680692
000060 08 a5 79 3d 66 fa 5d 3d 36 73 f9 bc 6e 28 05 3d
       0.0609484 0.054193877 -0.030450445 0.03250926
000070 6a 66 be bd 3e 21 84 3d be 28 31 bd 91 10 60 bc
       -0.09296878 0.06451653 -0.043251745 -0.013675825

attention.key_conv.weight f4 [32, 32, 1, 1]
000000 ef ec c1 bd 01 a1 1d 3d 6f 6b c2 bd 0a 82 fd 3d
       -0.094690196 0.038483623 -0.094931476 0.123783186
000010 be 3e fc 3d 69 58 96 3d 30 26 3c bd 68 a9 93 3c
       0.123166546 0.07341082 -0.045934856 0.018025115
000020 94 12 f4 bd a8 b4 20 3e 23 3c c1 3d 43 6e 22 3e
       -0.11917606 0.15693915 0.09435298 0.15862374
000030 89 dc 89 bd f9 1b 0e 3e 62 18 23 be cd 31 3b 3d
       -0.06731517 0.13877858 -0.1592727 0.04570179
000040 af b8 1b 3e 9c 92 12 bd c5 1d 07 bd 01 b8 01 be
       0.1520717 -0.03578435 -0.032987375 -0.12667848
000050 95 af 32 bd 88 c0 e8 bd c0 ef df 3d db 89 17 bc
       -0.04362448 -0.113648474 0.109344006 -0.009249176
000060 71 e0 96 bd bc 85 15 3e 28 55 85 bd a4 d6 af 3c
       -0.073670276 0.14601797 -0.06510383 0.021464653
000070 c2 e8 04 be d9 ca eb 3c f6 03 da bd ac e6 06 be
       -0.12979415 0.028783249 -0.10645287 -0.13173932
000080 35 a7 75 bd 4d f4 33 be 1f c4 7b 3d 93 68 b4 3d
       -0.059973914 -0.17573662 0.061466333 0.088090084
000090 3b 7b b2 3e c0 7b 30 be 5b 3a fa bd f3 ee 88 bd
       0.34859642 -0.17234707 -0.12218162 -0.06686201
0000a0 2a 08 ac bd 3b 01 55 be 6d d6 15 3d 0f 9a aa bd
       -0.08399995 -0.2080125 0.036581445 -0.083301656
0000b0 33 b6 b4 3b bf 72 70 3d 24 91 19 3c 6f 3d a3 bc
       0.005514884 0.05870318 0.009372983 -0.019926755
0000c0 9d d6 12 be 0d 2a f7 3c f3 b8 40 bd 45 56 e9 bd
       -0.14339681 0.030171419 -0.04705138 -0.11393408
0000d0 51 1f 85 3d 96 b7 89 3d b0 d2 93 3d f5 f7 22 bb
       0.06500114 0.06724469 0.0721792 -0.0024867032
0000e0 00 03 97 3c 51 07 72 3e 84 27 f9 3d e2 b5 0d 3e
       0.018434048 0.23635603 0.1216574 0.13838914
0000f0 32 f9 b6 bd 55 8b 9b bb bc ec 13 be aa f0 25 be
       -0.08934249 -0.0047468343 -0.14445776 -0.16205087
000100 40 60 99 bb de 67 e3 bd 0c 9a 82 3b 79 1a 55 be
       -0.0046806633 -0.111037955 0.003985649 -0.2081088
000110 ed 78 4c be 03 cd dd bc d5 95 47 3d 1c 33 40 bc
       -0.19968005 -0.027075296 0.048726875 -0.011730935
000120 6d d8 01 bd 0c c7 fb bd 71 a4 d8 bd a9 08 2c be
       -0.03170054 -0.122938246 -0.1057824 -0.16800179
000130 63 3c 75 3d cf 35 7e be 8b 88 0b 3e 04 90 b1 3c
       0.059872042 -0.24825214 0.13626306 0.021675117
000140 61 f9 32 be 6a 5c 89 bd b9 db 9a 3d 14 ba 0b 3e
       -0.17477943 -0.0670708 0.0756144 0.13645202
000150 6c 6f af bc b7 c1 e2 ba ec fa d7 bd 2c 11 92 bd
       -0.021415435 -0.0017300163 -0.105459064 -0.071321815
000160 1f c1 93 bd 17 ce 31 be 9c ca 91 bd fc f4 d0 bd
       -0.07214569 -0.17363773 -0.07118723 -0.10202977
000170 37 38 89 3d 45 0e 82 bd d6 ba 5b bc ec e4 97 3d
       0.06700175 -0.06350378 -0.013411244 0.0741671
000180 4e 51 28 3d 95 36 19 be cb 84 21 3e 38 0a 01 bd
       0.041093163 -0.14962228 0.15773313 -0.031503886
000190 f4 d3 58 3d f1 34 36 bd 47 15 b0 3c 09 02 40 bd
       0.05293651 -0.044484083 0.02149452 -0.04687694
0001a0 8f 60 1c 3e e2 38 cd bd 4f c6 de 3c 65 b3 90 bd
       0.15271209 -0.10020615 0.02719417 -0.07065467
0001b0 a7 a7 fd bb b7 84 0a be 11 aa 38 3e b1 41 79 3d
       -0.007740933 -0.13527189 0.18033625 0.060853664
0001c0 8b 8b fe bd b6 9c be bd 88 74 72 3d fd db da 3c
       -0.124289595 -0.09307234 0.059193164 0.026716227
0001d0 08 35 3d be 98 0c 54 3e ec f9 8b bc e5 52 2e bd
       -0.18477261 0.20707929 -0.017086945 -0.042559523
0001e0 4c 96 73 3d 3f 91 69 bb 9f 08 c4 3c 19 99 9e bd
       0.059469506 -0.0035639552 0.023929892 -0.07744045
0001f0 42 de 13 3d c6 b0 8a 3d 49 52 6c 3e 32 6f 00 3e
       0.036100633 0.06771998 0.23078264 0.12542418
000200 71 da 74 3d fc 71 77 3e ad 63 8f be 0e 33 25 3d
       0.059778634 0.24164575 -0.28005734 0.040331893
000210 24 5d 1b be 99 b3 1e 3d d0 c7 77 3d 40 c9 b1 3d
       -0.15172249 0.038745496 0.06049329 0.086809635
000220 64 cb 84 bd 84 1e 1d 3b 6a c5 e3 3b 0d e5 08 3c
       -0.06484106 0.0023974488 0.006951024 0.008355391
000230 b1 de 73 3d 11 f1 b5 3d 5c 78 60 be 46 3f c9 bd
       0.059538547 0.088838704 -0.21920913 -0.098265216
000240 3d 81 10 3e 92 5f c3 3d ed c0 31 be b4 ab 3b bb
       0.141118 0.09539713 -0.17358752 -0.0028636279
000250 26 4d 5c 3e 29 66 43 be 21 e1 ee bc 28 f9 d4 3c
       0.21513805 -0.1908194 -0.029160084 0.025997713
000260 bb 86 51 bc 3a 87 5a bd f3 05 a4 3b 5d 8a bb 3c
       -0.01278847 -0.05335162 0.005005592 0.022893125
000270 92 1a 04 be c1 fe f0 bc 96 f5 9e be 1b 60 a3 3c
       -0.12900761 -0.029418351 -0.31046742 0.019943288
000280 1b 60 e5 bd b4 6a 7a be de 47 83 3e 1a 19 a3 3d
       -0.11199971 -0.24454767 0.25640768 0.07963772
000290 26 6d e1 3d 8a 42 d4 bd b6 8d 1c be 37 e8 1b be
       0.110071465 -0.10364254 -0.15288433 -0.15225302
0002a0 a9 80 04 3e 40 61 84 3c 9a 30 94 bc 33 ab 1a bc
       0.12939705 0.016159654 -0.018089581 -0.009440231
0002b0 73 d2 8d bc 18 43 ea bd 56 90 56 3e 71 48 34 3e
       -0.017312264 -0.11438578 0.20953497 0.17605759
0002c0 29 69 d0 bd b2 96 ef bc 19 2f 3b 3e 86 89 8b 3d
       -0.10176308 -0.029246662 0.18279685 0.0681334
0002d0 0c ce 01 be 36 67 3e 3d ff cc fb 3c fa eb 16 bd
       -0.12676257 0.04648515 0.030737398 -0.03684614
0002e0 e5 80 0a bd 72 f8 e4 3d 4d 9f 1d bb 08 52 da 3d
       -0.03381433 0.111802 -0.002405125 0.106601775
0002f0 8e eb a2 bc 7e 99 6b 3b e9 d8 b4 3d ec cb f6 bd
       -0.019887712 0.0035949643 0.08830435 -0.12050614
000300 fe 5b 19 bd 7f 1a 3d be 57 1c 91 3e 31 ee fc 3c
       -0.037441246 -0.18467139 0.28341934 0.030875297
000310 22 5a 67 3d 0c 8a b7 bc f9 d0 66 bd d8 5a e8 bd
       0.05648244 -0.022404693 -0.056351636 -0.11345452
000320 d7 87 f1 3d 07 7d 3a bd 97 27 48 bd 1f 71 1a bd
       0.117934875 -0.04552939 -0.04886588 -0.037705537
000330 8c db d9 bc 7e 13 20 be 4f 4f 9a 3e 69 46 11 3e
       -0.026593946 -0.15632436 0.30138633 0.14187016
000340 64 83 26 be a8 90 a8 bb 5d 93 2d 3e c8 24 a6 3d
       -0.16261059 -0.0051441975 0.16950746 0.08112484
000350 50 87 3c be 2f 0e f2 3d 6c 3a 5c bd 80 e8 89 bd
       -0.18410993 0.118191116 -0.053766653 -0.06733799
000360 27 34 ec bb 37 f8 a6 bb 64 ca 9e 3b 5c b9 90 bc
       -0.0072083655 -0.0050955075 0.004845904 -0.017666511
000370 0a 68 02 3e 25 f5 db 3c 6a c3 91 3e 24 a4 88 3d
       0.12735 0.026850292 0.28469402 0.06671932
000380 d2 a0 b7 3d a9 d6 aa bd 3c b1 20 be 00 6c 1d be
       0.08966221 -0.083417244 -0.1569261 -0.1537323
000390 0e 87 ee bd 5e ba c8 bd ab 4c 56 3d 41 a5 2b bd
       -0.116468534 -0.09801172 0.05231921 -0.041905645
0003a0 b5 e6 bb 3d d8 53 5a be 42 86 c4 bb 48 1f 46 be
       0.09174863 -0.21321046 -0.00599745 -0.1934787
0003b0 e1 48 95 3d 0e ef 32 be b5 a3 9b 3d 20 88 ad bd
       0.07289291 -0.17474005 0.07599584 -0.084732294
0003c0 51 e1 15 be 0c 33 3a be 9d a3 35 bd 18 5f c3 3d
       -0.14636733 -0.18183535 -0.044345487 0.09539622
0003d0 55 45 3c bd d6 6e 53 3e 59 25 82 bd f5 a8 17 3d
       -0.045964558 0.2064775 -0.0635478 0.037026364
0003e0 37 a5 81 3c 9a d5 8a bd 16 85 6c 3d 4c 65 d3 bd
       0.01582585 -0.067790225 0.05774411 -0.10322055
0003f0 7c 29 0d be 25 3b bc bd 4e 8e f7 bd 5b 39 2c 3e
       -0.13785356 -0.091909684 -0.12087689 0.16818754

attention.key_conv.bias f4 [32]
000000 e1 f0 1c 35 ce 15 38 35 cb 16 0b 34 28 f1 0f 34
       5.8465054e-07 6.857707e-07 1.2953676e-07 1.3405645e-07
000010 55 bf 2e b5 49 d5 9c 35 88 c7 cb 34 4f f9 26 34
       -6.5098476e-07 1.168498e-06 3.7956875e-07 1.5550653e-07
000020 0b e2 ae b4 58 49 65 b3 7e 83 35 b4 2a 6c 97 34
       -3.2574494e-07 -5.3384923e-08 -1.6904775e-07 2.8204641e-07
000030 52 2f a5 34 54 4f d0 b4 0e a9 52 33 4a 9a 9f b4
       3.0768075e-07 -3.8800738e-07 4.904819e-08 -2.9728318e-07
000040 8a f4 96 34 38 2a c8 33 e1 65 f6 33 7f b3 38 35
       2.8117603e-07 9.320905e-08 1.1473799e-07 6.880654e-07
000050 a8 9f 0c b5 02 e4 cc b4 ac eb fe b2 0e 7e ef 34
       -5.2386395e-07 -3.8163859e-07 -2.9676663e-08 4.4608936e-07
000060 a6 fd 57 b4 fd e2 df b3 32 de a6 b4 37 ca 99 33
       -2.0115712e-07 -1.04255356e-07 -3.1081578e-07 7.1614004e-08
000070 3a 86 fd b4 92 b1 03 34 de c6 10 b2 34 f2 b0 34
       -4.7222585e-07 1.2264925e-07 -8.42712e-09 3.295878e-07

attention.value_conv.weight f4 [32, 32, 1, 1]
000000 41 e1 02 3e 0d 1e e5 bc 45 66 98 3d 4d 12 07 3e
       0.1278124 -0.02796843 0.07441381 0.13190575
000010 6c 0b b2 bd 9b b9 91 bd 58 99 c2 bd aa b6 3d be
       -0.08693585 -0.071154796 -0.09501904 -0.18526712
000020 86 80 5a bd f3 1f a1 3d ac 8c 0f be 54 3d ae bb
       -0.053345226 0.07867422 -0.14018506 -0.0053173695
000030 ff 62 2a 3b 04 1e 2a bd 70 ae 72 bd a0 0c c8 3d
       0.0025998948 -0.04153253 -0.059248388 0.09768033
000040 ea f1 b6 3d cd 25 98 3d e3 91 2c 3d e5 44 62 3d
       0.0893286 0.07429085 0.042131316 0.055241484
000050 50 f3 94 3d ff 51 de 3d 4f 43 bf 3d 73 f2 b2 bd
       0.07272971 0.10855483 0.0933901 -0.0873765
000060 f9 75 e7 3c 12 d8 23 bc 15 5a 7c be c9 58 cb bd
       0.028254496 -0.010000246 -0.24643739 -0.09929044
000070 6d 8f 4d bc 51 bd 8d bd d7 51 ae bb b9 e4 74 3d
       -0.012546402 -0.06920875 -0.0053198147 0.05978844
000080 5f d2 9c bd 8b b3 8b bd d6 5f 8b 3e a4 f2 46 be
       -0.076573126 -0.068213545 0.27221555 -0.19428498
000090 fd 74 a0 3c ab 74 72 3d 10 25 e4 3d 07 10 5e 3d
       0.019587034 0.059193294 0.111398816 0.054214504
0000a0 8d ea 86 3d e4 58 ca 3d 84 ca 3f 3e 77 e4 26 be
       0.06587706 0.09880236 0.18729597 -0.1629809
0000b0 75 30 a1 3c 94 ba 90 bb 82 de 28 3e 59 05 77 3d
       0.019676426 -0.004416773 0.1649113 0.060307834
0000c0 28 f8 97 3d 64 50 f0 bc 6a 84 31 bc 09 0c 2f 3e
       0.07420379 -0.029335208 -0.010834793 0.17094435
0000d0 d7 af 2c be 14 aa ee 3d 9a a8 22 be 01 b0 01 bd
       -0.16863953 0.116535336 -0.15884629 -0.03166199
0000e0 52 c8 8b bd ac e3 01 be aa 2b 4d 3e 08 5d 0d be
       -0.068253174 -0.12684506 0.20036188 -0.1380502
0000f0 e0 75 08 3e 5a 21 4e bd 85 03 2e 3e 71 c7 fe 3d
       0.13326216 -0.050324775 0.1699353 0.12440384
000100 38 e7 7d 3d 54 00 53 3e 96 9d 84 bb 77 2e d9 3d
       0.061988086 0.20605594 -0.004047106 0.106045656
000110 09 99 62 be b1 ae 80 3d 68 a7 bf bd 57 46 df bd
       -0.22128691 0.0628332 -0.09358102 -0.10902088
000120 90 e9 02 be a6 f4 a9 3d 7f 30 e7 bd 89 f0 d8 3d
       -0.1278441 0.08298616 -0.11288547 0.105927534
000130 bf f6 ae bd 01 ff 64 bd 9d 17 03 be 49 a9 92 3d
       -0.08543157 -0.055907253 -0.12801977 0.07161195
000140 58 18 cc 3d 5c bb 3a 3e e3 c9 2e 3d 62 46 a2 bd
       0.09965581 0.18235534 0.042673003 -0.07923581
000150 9d d1 d8 bb de 4e 00 be 68 44 3d 3e 8d 27 58 bd
       -0.0066167847 -0.12530085 0.18483126 -0.052772094
000160 5e 5f 36 3e 12 ab 5e 3d bc e4 a3 be 0c 30 bd 3d
       0.17809817 0.054362364 -0.32010448 0.0923768
000170 95 21 f3 bd 19 ba 61 3d 90 ae db 3d bd 9d 34 bd
       -0.1187164 0.055109117 0.107266545 -0.044095743
000180 d4 bb 43 3e c7 b8 46 bd de 72 2f 3d dd 50 20 3d
       0.1911462 -0.04851606 0.042834155 0.039139617
000190 f5 32 0a be 1a 7f ac 3d 57 7b 81 3d 11 1e b8 bd
       -0.13496001 0.0842268 0.06322353 -0.0899011
0001a0 84 76 8e 3d c9 0b 5f bd 13 a7 71 be b8 44 be bd
       0.06956199 -0.0544546 -0.2359889 -0.09290451
0001b0 1e ae 72 3e 2f 7c 04 3b 09 6a c4 bc b3 81 2e 3e
       0.23699233 0.002021562 -0.023976343 0.17041664
0001c0 8e 25 02 be ef 72 b3 3d ff b3 92 bb 5f 58 d0 3d
       -0.12709638 0.08762156 -0.0044770236 0.101731054
0001d0 96 a0 2c 3e 92 bd cc 3d 74 05 1a 3e 75 a1 0e bd
       0.16858134 0.09997095 0.15041143 -0.034821946
0001e0 a9 f0 af 3d 0b fb 3b bc a8 0f a9 be 5c 40 e7 3d
       0.08590824 -0.0114734275 -0.33019757 0.112915725
0001f0 3e cb c9 bd e2 ed f0 3d d8 89 d6 bd db 17 ad 3b
       -0.098532185 0.117641225 -0.1047551 0.005282385
000200 0a 5c a4 bc 6f 6d 23 3d fd 2a 39 bd c7 23 7f 3b
       -0.020063419 0.039899286 -0.045207012 0.0038931237
000210 f6 ef 58 3d 3e 71 a8 bd 91 0d 15 3c d0 55 4a 3d
       0.05296322 -0.08224724 0.009097473 0.049398243
000220 8a 08 c2 3d 3f 0a 0c 3c fa f4 98 3e cc 32 f5 3d
       0.09474285 0.008547365 0.29874402 0.11972579
000230 24 db 64 3d 34 0a df bd 59 d8 e0 bd 6c 27 66 be
       0.05587305 -0.10890618 -0.10978765 -0.22475976
000240 30 03 d1 3d 8b 73 f0 bd f3 bb 52 bd a2 24 0a bd
       0.10205686 -0.11740788 -0.051448774 -0.033726342
000250 fa c6 9d bd bc 68 c1 3c cc be ae 3d 1b 39 b3 3d
       -0.077039674 0.023609512 0.08532485 0.087511264
000260 30 45 e2 3d 38 33 85 3d ec 74 4a 3e a9 d1 30 be
       0.11048353 0.0650391 0.19771165 -0.17267479
000270 6a 26 5f bb c8 6f 50 bd 19 e0 04 bd 51 ca c5 3d
       -0.0034049996 -0.050887853 -0.03244028 0.096577294
000280 ca 2f fb bd 51 68 46 3c 1c 2d 38 be b2 21 90 bd
       -0.122649744 0.012109832 -0.17985958 -0.07037677
000290 d4 d0 f8 bc 9a cd cf 3d 44 f6 de 3d 36 35 6c 3e
       -0.030373015 0.10146637 0.10886815 0.23067173
0002a0 29 ff 81 3d ec 07 10 be 46 d7 17 3b bf aa fd bd
       0.06347496 -0.14065522 0.0023169084 -0.12386083
0002b0 40 b8 88 3c 54 d0 07 3e 5c 0a e4 bd b9 4f 51 be
       0.01668942 0.13263065 -0.111347884 -0.20440568
0002c0 4c 9c 12 3e f3 99 c7 bb 78 c5 4f bc b5 6b 43 be
       0.14317435 -0.00609135 -0.012681358 -0.19084056
0002d0 23 64 85 3d 3c 51 1d be 48 13 c2 be 10 c2 7c bc
       0.0651324 -0.1536302 -0.37905335 -0.0154271275
0002e0 cf f8 43 3c 31 9c 8c 3d e0 8c 5e 3e 36 34 13 3d
       0.011961176 0.06865729 0.21733427 0.035938464
0002f0 86 e0 23 bd 2f b8 25 be 0b 0f e1 bd 9c e2 0e be
       -0.040009044 -0.16183542 -0.10989197 -0.13953632
000300 f7 26 a6 bd d8 96 49 3d d9 f7 03 be d9 1c 88 3d
       -0.08112901 0.04921612 -0.12887515 0.06646127
000310 15 a2 63 be 72 09 84 3d 0f eb 8c 3d dc 03 d7 3d
       -0.22229798 0.06447114 0.06880771 0.10498783
000320 0c 50 95 3d 9e 40 2f bd 5d c1 9a 3d 66 14 63 bd
       0.07290658 -0.042786233 0.07556412 -0.055439375
000330 0f 3f c9 bd 78 1d d0 bc 25 50 97 3b 14 a5 3d 3d
       -0.098264806 -0.025404677 0.0046177083 0.04630001
000340 5c ce 71 bc 13 fe c8 3c e2 df 5f 3d 8f 01 39 bd
       -0.014758673 0.024535215 0.05465687 -0.045167502
000350 3c 58 8f bc 03 3d bf bc 3b 40 06 be a8 ed 1c be
       -0.017498128 -0.023344522 -0.1311044 -0.15325034
000360 10 77 54 bd 55 d8 a4 bb 08 1b c4 3d 92 01 3e 3d
       -0.05187136 -0.0050306716 0.09575468 0.046388216
000370 07 6a 32 3e 92 39 7a 3c 98 92 78 3e 19 e4 c2 bc
       0.17423259 0.015272515 0.24274671 -0.023790406
000380 f7 74 85 3d 98 32 25 be d2 c6 8e 3d 90 12 ad 3d
       0.0651645 -0.16132581 0.06971516 0.08450806
000390 c0 68 5c 3e bc 54 d7 bd a7 90 04 be 34 c0 cc bd
       0.21524334 -0.10514209 -0.12945805 -0.09997597
0003a0 fb 14 f9 3d a8 29 ff bd f0 51 d2 bd 6f 2d 1c bd
       0.12162205 -0.12459117 -0.102695346 -0.038129266
0003b0 9f 09 03 3e 27 3a 5b bd 0c ec e1 3d 45 ba a0 bd
       0.12796639 -0.053522255 0.110313505 -0.07848028
0003c0 7d 4d 06 bd 5a d3 f9 bd 8e bf 9f 3d ff 8c f2 3d
       -0.032788742 -0.12198515 0.07800208 0.11843299
0003d0 b3 d3 16 3e 74 be 0c 3e f9 52 15 3e ca cc ca 3d
       0.14729194 0.13744527 0.14582433 0.09902342
0003e0 59 ec b2 bd e4 5d 25 3d 90 aa ca bb ec 5e df 3d
       -0.08736486 0.040372744 -0.0061848834 0.10906777
0003f0 da 6a 98 bd f1 d2 12 bd e4 f2 43 be cd ff 73 3c
       -0.07442255 -0.0358457 -0.19135624 0.014892531

attention.value_conv.bias f4 [32]
000000 72 be 79 3c 7d c5 4b bd e0 c0 08 be 91 ce 98 3c
       0.01524316 -0.049748886 -0.13354826 0.018653186
000010 01 f6 0d be 59 17 32 3e 1a 1e a6 bd 9e ea c0 3d
       -0.13863374 0.17391719 -0.0811121 0.0941975
000020 d8 df 21 be ba f4 5e bd a7 5f dd 3b c1 58 47 bc
       -0.15808046 -0.05443261 0.0067557874 -0.012167157
000030 94 b8 d0 3d 3e 82 e6 3d 2f c9 a2 3d c1 21 87 bd
       0.101914555 0.112553105 0.07948529 -0.06598235
000040 0c da 26 bd 72 8c 63 3d 48 d9 9d bd 63 ba 16 3e
       -0.04073529 0.05555386 -0.07707459 0.14719538
000050 13 93 16 bd f1 50 69 3d 82 77 ae bd 99 e8 d5 bd
       -0.036761355 0.056961957 -0.08518888 -0.10444755
000060 c3 53 88 3b 5d a9 63 3c 99 bf ee bb 15 51 2a be
       0.004160376 0.01389536 -0.007286024 -0.16632493
000070 2d aa fa bd 5d a8 8e bd d8 ad 28 be 1f e7 1b 3a
       -0.1223949 -0.069657065 -0.16472566 0.00059472205
