model_components/FGSM+PGD_Trained_Model.pth (torch, 68020 bytes, 26 tensors)

encoder.0.weight f4 [16, 3, 3, 3]
000000 0e 2a 32 3e d9 66 7f bd 45 74 41 bd 0d 44 63 3e
       0.17398855 -0.062353943 -0.047230024 0.22193928
000010 20 71 d2 bc 10 b6 26 3e 13 63 c9 3d 8b 04 90 bd
       -0.025688708 0.16280389 0.0983335 -0.070321165
000020 be 88 97 3d ec 21 0c 3c 73 6a 3f 3e 37 1e 06 bc
       0.073991284 0.0085530095 0.18692951 -0.008185915
000030 da bc 88 3e 9c d1 2c 3e d2 1f 38 3e b7 4a 12 be
       0.26706582 0.16876835 0.17980888 -0.14286314
000040 84 74 52 3e 56 3f 0d be e4 81 3b 3e f4 21 1b 3e
       0.2055226 -0.13793692 0.18311268 0.15149671
000050 65 10 28 3d 1e 7e 9b 3e a4 37 81 3d 2a 77 c0 3c
       0.04103126 0.30369657 0.06309441 0.023494322
000060 58 26 ab 3d 97 38 cb 3c 7e 16 07 be c3 bc 3b be
       0.08356923 0.024807258 -0.13192174 -0.18333726
000070 5a 2d ea be 90 db b3 bc 30 35 ff bd 35 20 a4 bd
       -0.45737725 -0.021955281 -0.124613166 -0.080139555
000080 79 c8 0b 3e c9 0d b2 3c 07 f8 8e bd c3 7a 39 bd
       0.13650693 0.021735089 -0.06980901 -0.04528309
000090 86 46 bb 3d cf e5 a6 be 80 5d f0 bd a5 05 2c 3e
       0.09144311 -0.32597205 -0.11736584 0.16799028
0000a0 cf 37 61 be 7c d8 e7 3d e3 d9 63 3e fe 57 80 be
       -0.21993946 0.11320588 0.22251086 -0.25067133
0000b0 1e e9 19 be a1 95 d9 3d 46 6e de be 51 ec d5 bd
       -0.15030333 0.106242426 -0.43443507 -0.104454644
0000c0 eb bc 0b 3e d7 40 11 be a1 76 67 3e 45 40 ed 3d
       0.13646285 -0.1418489 0.22603847 0.11584524
0000d0 2f d4 88 bd bb b7 35 bd db 06 38 bb 11 57 ac be
       -0.06681096 -0.044364672 -0.0028080258 -0.33660176
0000e0 2f 37 0b bb a2 37 a6 be 77 1e 50 be 2c 78 87 bd
       -0.0021242609 -0.3246432 -0.20324121 -0.06614718
0000f0 64 ae 15 3e c4 0b 0d be c3 71 31 3e 0b f7 00 be
       0.14617306 -0.1377402 0.17328553 -0.1259424
000100 da 1a d7 bd 2c 21 ab 3d 23 30 3e bb 2e a6 fe bd
       -0.105031684 0.083559364 -0.002902039 -0.1243404
000110 05 fa 2e bb 9a 87 98 bd bc 17 4c be 16 da 35 3d
       -0.0026699316 -0.07447739 -0.19930929 0.044397436
000120 bf 92 1a 3d 52 f3 8c be d3 1c 6c 3c 7a e7 ba be
       0.037737604 -0.2752939 0.014411169 -0.36504728
000130 de 0e 9c bd b3 ab ed 3d ba a0 1b be 7e 61 17 be
       -0.07620023 0.11605015 -0.15198031 -0.14783284
000140 c8 9c 44 3d 35 61 8a 3c 0c 19 7e be 0a da 2c 3d
       0.04800108 0.016892055 -0.24814242 0.042200126
000150 f3 e5 a1 be 28 07 f7 be b8 7f e4 bd 67 6a 63 be
       -0.3162075 -0.48247647 -0.11157173 -0.22208558
000160 3e fd 69 be 40 d4 68 3d 63 55 1d bd 12 a7 03 bd
       -0.2285051 0.056843042 -0.03841151 -0.032141753
000170 6c f7 82 3e 51 99 b3 be c4 43 b8 be bb 9a 1a be
       0.25579393 -0.3507791 -0.359892 -0.15098087
000180 3e f0 38 be 7e 78 07 be 7f 48 77 3e 04 a7 a3 3c
       -0.18060395 -0.13229558 0.24148749 0.0199771
000190 df 71 40 be 08 6a 9a 3e 54 59 d9 be b9 88 2c be
       -0.18793438 0.3015902 -0.42450964 -0.1684903
0001a0 9a e0 83 be 0d 63 2b be f8 eb 36 3d e6 c6 06 3e
       -0.25757295 -0.16737004 0.04465863 0.13161811
0001b0 c5 61 9a bd b1 9d a3 bd 09 06 16 3c 9e 46 0e 3e
       -0.07538179 -0.079890616 0.009156712 0.13894126
0001c0 11 00 8e 3d 29 d6 f6 3d 01 a2 35 be 4f 57 4f be
       0.069336064 0.120525666 -0.17737581 -0.2024815
0001d0 29 03 36 be cb c5 a6 bc d8 c9 cf 3d 9b 4a 71 bc
       -0.17774643 -0.020357987 0.101459205 -0.01472726
0001e0 33 25 0b 3d 11 b7 98 bd 9a 0e 88 bd da 0b 53 3b
       0.033971023 -0.07456792 -0.0664341 0.003220311
0001f0 20 4d 01 3d 8a ac 23 be c5 9f 49 3e 92 67 fa 3d
       0.031567693 -0.15983787 0.19689853 0.12226786
000200 ce f6 d8 3d 37 aa 87 3e 4c 16 66 3e b7 ae ef 3d
       0.10593949 0.2649705 0.22469443 0.11703246
000210 5e 90 52 3c 52 9a 6d bd 4d 07 e1 3d cf 1c 6d 3e
       0.012851803 -0.0580085 0.10987721 0.23155521
000220 07 6a fb ba f9 df 98 3d 9d 17 fc 3d 49 6c 60 be
       -0.0019181379 0.074645944 0.123091914 -0.21916308
000230 67 e6 d4 bd 89 a1 58 bd 1b 1c 8c be f9 1f bf bc
       -0.10395508 -0.052888427 -0.27365193 -0.023330675
000240 1d 25 cf bd 2e 4c ce 3c 7f 09 e2 bd 7e 59 06 be
       -0.10114501 0.02518281 -0.110369675 -0.13120076
000250 a4 6c a6 bd 45 4d 13 bd 93 fc 38 bd 1a 16 a3 be
       -0.0812619 -0.03596236 -0.04516275 -0.318528
000260 35 23 ee 3d 3d 3f 66 3e 20 b3 9c bd cf f9 3c bc
       0.11627809 0.22485061 -0.07651353 -0.011534168
000270 96 ba b1 bd 83 01 91 be 44 cb 91 3c 6e af a1 3d
       -0.086781666 -0.28321466 0.01779712 0.07894789
000280 f3 9a 5a be 18 02 e2 bd 92 b8 4a 3e a4 d9 92 3e
       -0.21348171 -0.110355556 0.1979697 0.28681672
000290 2f 10 a6 3d 5c 8c ff 3d 8a 0e b9 3e ca 7f b3 bd
       0.081085555 0.12477943 0.36143905 -0.08764608
0002a0 69 5c c6 bd a0 98 6c 3e d2 4f 54 bd 3f 73 e6 bc
       -0.096855946 0.23105097 -0.051833935 -0.028131125
0002b0 83 55 ce 3e ad 3c bd bc bc 73 35 3e 19 16 78 3e
       0.40299615 -0.023100222 0.1771993 0.2422718
0002c0 90 9d 86 3d 16 db 10 3c f7 1a 93 3e 33 24 9e bd
       0.065730214 0.008841297 0.2873151 -0.07721748
0002d0 ff b7 c7 3c ec 9e a2 3e d6 09 47 bd ec 4a 2b 3e
       0.024379728 0.31761873 -0.048593365 0.16727799
0002e0 8f 19 45 3e 7c 74 b7 bd 25 cd a4 bd 7e fb 84 3d
       0.19248031 -0.089577645 -0.08046941 0.06493281
0002f0 d9 b4 4f 3d d7 ee bb bd 0e 38 45 3e ed 42 81 3e
       0.05070958 -0.091764145 0.19259664 0.25246373
000300 af 07 67 be a3 20 21 be d8 e6 27 be 81 f6 45 3e
       -0.22561525 -0.15735106 -0.16396654 0.19332315
000310 b1 f2 d3 bd 0a 73 44 3e 7e f1 f7 3d d5 1c 5b bc
       -0.10349024 0.19184509 0.12106608 -0.013373573
000320 0c 24 01 3d 92 38 29 3d 25 d7 ef bd 26 d5 9c bd
       0.031528518 0.041313715 -0.117109574 -0.07657842
000330 9e 67 35 3d a3 34 21 be 97 dc 4c 3d a4 fa c0 3d
       0.04428827 -0.15742736 0.05001506 0.09422806
000340 62 bb 59 bd f6 d9 46 3d 75 6b 41 be 75 3e ec bd
       -0.053157218 0.048547707 -0.18888648 -0.1153535
000350 40 67 f1 3c 06 9c 66 bb 46 f7 0f be 51 6f a4 3d
       0.029468179 -0.0035188212 -0.14059171 0.080290444
000360 0c 11 55 be 2c 1a b4 3d 75 68 86 3c 00 73 c5 3d
       -0.20807284 0.087940544 0.01640723 0.09641075
000370 a3 ab 62 ba 02 91 b0 3e 24 c8 3c be b9 fd 59 3d
       -0.00086467917 0.34485632 -0.18435723 0.053220484
000380 be ab 0c be a6 a4 20 be e6 1c 3a 3c 1b 4c 91 3d
       -0.1373739 -0.15687808 0.011359429 0.07094594
000390 57 bf 4b 3e 0f f3 b0 3e f3 74 14 3e 8c d1 fa bd
       0.19897209 0.3456044 0.14497738 -0.12246999
0003a0 48 b6 c0 3d 9c df e6 bc ae e6 02 3e f5 d0 ba 3d
       0.094097674 -0.028182797 0.1278331 0.09121887
0003b0 63 bb 49 bd 54 01 22 3e b8 66 ea 3e a9 b6 c3 3e
       -0.04925097 0.15820819 0.45781493 0.38225296
0003c0 78 c6 70 3e f8 f7 48 3e eb 08 75 3e f8 b3 4e 3c
       0.2351321 0.19625843 0.23929183 0.01261615
0003d0 c5 73 23 3d 13 97 e7 3b 5a 4f be 3c 68 a9 8d 3e
       0.03990533 0.00706757 0.023231197 0.2766831
0003e0 5d ba 0e bd 05 2c 03 bd 24 26 72 3e 2f 29 ef 3d
       -0.0348457 -0.032024402 0.23647362 0.11677777
0003f0 d9 dc be bd 44 11 3a bc 04 e0 81 3d 99 a8 5a 3d
       -0.09319467 -0.0113566555 0.06341556 0.053383444

encoder.0.bias f4 [16]
000000 02 5b 30 3d fd 83 8e 3c c7 c7 f9 3d 0b 68 24 3e
       0.04305554 0.017396921 0.12196308 0.16055314
000010 10 6c 2c bd 6d 5a 07 3b 2b 6d 2e 3e 25 da 59 3e
       -0.042095244 0.0020653263 0.17033832 0.21274622
000020 bd 3a e8 3b 19 df ac 39 7e 63 f8 3c d9 e3 72 3d
       0.0070870803 0.00032972617 0.03032088 0.059299324
000030 94 82 8e 3e 88 f2 88 3e 56 93 1a 3d 92 0e 6e 3e
       0.27833998 0.26747537 0.037738167 0.23247746

encoder.2.weight f4 [32, 16, 3, 3]
000000 63 06 5a bd 75 fc a6 bd 2c 61 92 bd 01 fa b9 bc
       -0.053228747 -0.08153621 -0.0714744 -0.022702219
000010 d3 9a 20 bd a6 20 51 bd 7d 1d 05 bc 01 b1 8c bd
       -0.039210152 -0.051056527 -0.008124706 -0.06869698
000020 51 6e 6f bd f2 d7 85 bd 67 45 0b bd 33 f3 5e bd
       -0.058454815 -0.06535329 -0.034001734 -0.05443115
000030 2c ea d1 bd 9d b8 dd bd d3 12 b0 bd 2a 1c e5 bd
       -0.10249743 -0.10826228 -0.085973404 -0.111870125
000040 20 a2 70 bd d9 78 b2 bd 46 23 5b bb 2c 4b 4d 3c
       -0.058748364 -0.08714456 -0.0033437773 0.012530129
000050 c5 e3 9b bc 7a 8b d2 bc 9b b7 5f 3d 07 a9 37 bc
       -0.019029507 -0.025701273 0.05461846 -0.011209733
000060 60 86 25 bd 48 75 b8 bb f4 a5 3a 3c a6 4f b4 3c
       -0.040411353 -0.0056292154 0.011392105 0.022010636
000070 d9 14 f3 3c 2d 40 f1 bb ff 3a 7a bd 10 4b 94 3d
       0.029673027 -0.0073623867 -0.06109142 0.072408795
000080 63 c4 2f 3d 5d a2 db 3c 88 13 05 bc 2f 00 53 3d
       0.0429119 0.02681082 -0.008122332 0.051513847
000090 77 d5 d0 3d bb d2 76 3d 3f 96 98 3d a6 41 c2 3d
       0.10196965 0.060259562 0.07450532 0.09485178
0000a0 13 96 5d 3d 57 40 ab 3d ef 4b af 3d 6a 40 44 3d
       0.0540982 0.08361881 0.08559405 0.047912993
0000b0 6a 43 94 3d 93 07 d1 bd ae cc b6 bd 6e 8c d3 bd
       0.07239421 -0.10206523 -0.08925758 -0.10329519
0000c0 ce d1 21 be e5 e0 1c be fb 27 d9 bd 52 10 87 bd
       -0.1580269 -0.15320165 -0.10603329 -0.0659491
0000d0 63 da 6a bd 67 da 86 bd c3 df 63 3c 4f 6a 09 3d
       -0.057337176 -0.06584626 0.013908329 0.03354865
0000e0 37 e4 a2 3c ed 4e 7f 3d ef e4 b4 3d 3c 7a 1d 3d
       0.019884212 0.06233113 0.08832728 0.03844665
0000f0 d5 8f bb bc 48 1a a5 3c a8 95 b9 bb b8 b2 94 bc
       -0.022895733 0.020154133 -0.0056635924 -0.018151626
000100 71 7b 51 3d 91 4c 76 bb d6 ed cb 3c d4 04 74 3d
       0.051143114 -0.0037582258 0.024893682 0.059574917
000110 e0 c3 b4 3d 29 af 74 3d cf d7 bf 3d 28 b3 52 3d
       0.08826423 0.05973736 0.09367334 0.051440388
000120 c6 28 9f bd 96 d6 c3 bd 70 94 90 bd 1d 42 ef bd
       -0.07771449 -0.095624134 -0.07059562 -0.11682532
000130 ab 51 ea bd e1 ef 6f bd 41 c3 10 bb b4 01 94 bd
       -0.11441358 -0.058578376 -0.0022089037 -0.07226887
000140 26 c6 25 38 a9 65 21 be f4 d1 02 be 94 05 d4 bd
       3.9523606e-05 -0.15761437 -0.12775403 -0.103526264
000150 58 43 49 be 93 4c 27 be fa 72 13 be ae ca 03 bd
       -0.19654596 -0.16337804 -0.14399329 -0.032175712
000160 14 38 0a bb 9c e0 50 bd 39 a7 91 bd b7 a5 62 bd
       -0.0021090554 -0.050995454 -0.07111973 -0.05533382
000170 22 77 81 bd ee 5b 49 bd ef 0d a8 bd 3e 04 ab bd
       -0.06321551 -0.049159937 -0.082057826 -0.083504185
000180 17 a6 2b bd ea 34 84 bc 07 77 c6 bc e2 dc 92 bd
       -0.041906442 -0.016138513 -0.024226679 -0.07171036
000190 02 29 b2 bd 93 25 a9 bd ff 78 7c bd d2 9f 80 bd
       -0.08699228 -0.0825912 -0.06163883 -0.06280483
0001a0 6c b6 fa bc b3 4d 18 bd ee f6 b3 bd 42 fe 66 bd
       -0.030604564 -0.037183475 -0.087873325 -0.056394823
0001b0 03 b7 0f 3b 7c 12 f3 3c 60 5d 9a 3d 0c 4c 97 3c
       0.0021929152 0.0296719 0.07537341 0.01846888
0001c0 f0 30 0f 3e 82 11 28 3d a4 d3 71 3c cf bf 13 3e
       0.13983512 0.04103232 0.014759932 0.14428638
0001d0 99 47 36 3c 93 9b 71 bc 72 9b 3b 3d 57 76 7a bc
       0.011125469 -0.014746564 0.04580254 -0.0152870035
0001e0 40 de b8 3d 9b 39 eb 3d b9 48 a7 3a ca 81 73 3d
       0.09026766 0.11485597 0.0012762762 0.05944995
0001f0 79 ef 9c 3c 9e 4d 49 3c be 09 4f bd a7 26 42 bd
       0.019157158 0.012286572 -0.0505464 -0.047400143
000200 9f 30 83 bd 0e 2a fc bc 43 e1 5a bd d1 c0 21 bd
       -0.06405758 -0.030781772 -0.053437483 -0.039490525
000210 23 54 30 bd c3 fc 1f bd 73 6a c5 bc 4b 85 90 3d
       -0.04304899 -0.03905941 -0.02409861 0.070566736
000220 2c 2c ba 3d bc c0 8a 3d e0 4a d8 3d 5f d7 07 3e
       0.09090456 0.067750424 0.10561156 0.13265751
000230 b5 30 e7 3d 0b 22 69 3d 10 05 d1 3d f2 f7 5c 3d
       0.11288587 0.05691723 0.10206044 0.053947397
000240 a2 53 91 bc 76 04 6c 3d 7f 0f 83 3c f4 5e 29 3d
       -0.017740075 0.05762144 0.0159986 0.04135032
000250 d8 b8 b5 3d 0f d6 06 3e 52 9a 87 3c 75 ee ff 3c
       0.08873147 0.13167594 0.016553078 0.031241635
000260 c6 84 ac 3c 8e 49 60 be f8 b7 0c bd ef 09 f8 bd
       0.021059405 -0.21903059 -0.034355134 -0.1211127
000270 3c c3 40 be 6d e4 43 bc 13 6e 12 be ec 04 b9 bd
       -0.18824476 -0.011956316 -0.14299802 -0.09034142
000280 be 5d 98 bc a5 39 f1 bd a1 dd a4 bd 6c f9 b3 bd
       -0.018599387 -0.11778573 -0.08050085 -0.08787808
000290 93 e2 1a be eb 6d 20 be e3 d4 04 be c3 3d f4 bd
       -0.15125494 -0.1566693 -0.12971835 -0.119258426
0002a0 31 57 9e bd 37 0c 02 be de 63 0e be 3d 2d 0c be
       -0.07731474 -0.12699972 -0.13905284 -0.13689132
0002b0 3d d1 5a be 0e d7 ec bd e2 0a f1 bd 22 9a 09 be
       -0.2136888 -0.11564456 -0.11769654 -0.13437703
0002c0 95 2d 42 be 3e eb 33 be 85 ec da bd 13 fb 19 be
       -0.189627 -0.17570207 -0.10689644 -0.15037183
0002d0 38 f3 bf bc 82 28 ab 3d 42 fb b4 3c 40 a2 cf 3d
       -0.023431405 0.083573356 0.022092465 0.101383686
0002e0 b9 8c 58 3d 0d cc dd 3c ba 14 ae 3d ae 30 5e 3d
       0.05286858 0.027074838 0.08500047 0.054245643
0002f0 e8 ce a8 3d ad 19 20 be 3a 6e 18 be 84 01 15 be
       0.08242589 -0.15634795 -0.14885798 -0.1455136
000300 57 24 49 be f3 5e ea b9 e9 c1 80 bc 83 49 40 be
       -0.19642769 -0.000447027 -0.015717464 -0.18778042
000310 11 7c 28 bc bd 52 3f bc 42 16 91 3d bd 64 50 3d
       -0.010283486 -0.011677441 0.070843235 0.05087732
000320 e5 49 96 3d 75 2a d9 3d d5 f7 08 3c 81 4f 11 3e
       0.07338313 0.10603801 0.008359869 0.14190485
000330 65 c0 fa 3d 2e 39 e3 3d 9a 69 84 3d d5 c6 a8 3d
       0.122437276 0.110948905 0.064654544 0.08241049
000340 72 68 85 3d 9a 28 17 3d 7d 99 9a bd 6d 44 82 bc
       0.06514062 0.036903955 -0.07548807 -0.015901769
000350 cf 95 02 bd ee aa bb 3d d8 ce 95 3c 07 80 55 bc
       -0.03188115 0.091634616 0.018287107 -0.013031012
000360 05 7c 05 3e 01 f7 56 3d d1 4a cd 3d 24 29 d6 3d
       0.13035591 0.052481655 0.10024036 0.10457066
000370 9b 11 49 3d 16 bb 98 3d 61 9c ad 3b 70 28 37 3d
       0.049089056 0.07457559 0.005298183 0.0447163
000380 d0 26 85 3d e6 02 2a 3c 21 70 d8 3a fa 53 08 bc
       0.065015435 0.010376668 0.0016512909 -0.008320803
000390 12 32 5e 3d 42 74 dd 3d e5 7c c5 3d 0a 82 3f bd
       0.05424697 0.1081319 0.09642962 -0.046754874
0003a0 49 fc 9c 3d 37 5b 95 3c 04 6d 9b bd 6b 10 dc bd
       0.07665307 0.018231971 -0.075891525 -0.10745319
0003b0 94 51 dd bc 32 d9 26 be a6 88 25 bd 58 43 02 bc
       -0.027016439 -0.16293791 -0.04041352 -0.007950626
0003c0 f8 ab 32 bd 6b 58 3b be ac 05 bc bd e6 a4 e0 3d
       -0.043621033 -0.18295448 -0.09180769 0.10968952
0003d0 e4 35 8f 3d de 12 cc 3d 6f b5 d9 3d d5 db 08 3e
       0.06992701 0.09964536 0.10630309 0.1336511
0003e0 29 ca 18 3d 76 6c 88 3d 63 0a 81 3c c7 78 29 bc
       0.03730217 0.06661312 0.015752023 -0.010343737
0003f0 0c b7 4c bd fa 14 99 bb 9b f4 2f bd 63 6d 82 bc
       -0.049979255 -0.00467169 -0.042957883 -0.0159213

encoder.2.bias f4 [32]
000000 33 a9 3b 3e fa 7b 18 3d 74 8a c5 3b 7c fa 02 3e
       0.18326263 0.03722761 0.006028468 0.12790865
000010 1a a9 ae ba b1 07 d7 bc c1 27 d8 3d 49 05 2b bb
       -0.0013325543 -0.026248785 0.105544575 -0.002609568
000020 a0 02 b2 3c 57 1e a2 bc 2e be 58 bc 28 31 03 3d
       0.021729767 -0.019789858 -0.013228936 0.0320293
000030 6f de 95 bd 14 54 ef ba 21 b4 8b bd 2b d1 c7 3c
       -0.073178165 -0.001825931 -0.06821466 0.024391731
000040 61 c8 ab bd b0 cf af 3d 6c 25 c6 3d 90 29 84 3c
       -0.083878286 0.08584535 0.096751064 0.0161331
000050 fb ee 29 3e 50 f8 6d bb 17 5c 02 be b4 97 df 3d
       0.1659507 -0.0036311336 -0.12730442 0.10917607
000060 4c 98 21 3e b0 8c 56 3d 92 1e f5 3d 62 f2 d2 3d
       0.15780753 0.052380264 0.119687214 0.10300137
000070 c2 da ec 3c a1 f5 c1 3c 91 a0 9d be 91 d4 52 bc
       0.028912906 0.023676695 -0.30786565 -0.012868063

conv_skip.weight f4 [16, 16, 1, 1]
000000 0d 55 05 bd 4b 37 2d be 42 db ae 3d c9 22 85 3e
       -0.032551814 -0.16915624 0.08537914 0.260031
000010 59 a7 82 be b3 23 86 3e b7 f3 29 be 8f 73 87 3e
       -0.255183 0.2619911 -0.16596876 0.26455352
000020 b4 b2 2a be ff e6 1f 3e a8 88 66 3e b0 6a df bd
       -0.16669732 0.15615462 0.22513068 -0.10909021
000030 d5 2b 83 3d c5 d1 20 3e 16 25 3d 3e 74 6c 83 bc
       0.06404845 0.1570502 0.18471178 -0.016042925
000040 5c 57 89 3e 31 36 35 be e2 be 67 be b1 08 36 3d
       0.26824462 -0.17696454 -0.2263141 0.044441883
000050 45 ea 89 bd 0f 8f 86 be 41 f7 20 bd dc 35 9d bd
       -0.067341365 -0.2628102 -0.0392983 -0.076762885
000060 00 30 4e 3e 6f e5 01 bd a5 2c 78 3e ac 6d e6 bd
       0.20135498 -0.031712946 0.2423578 -0.11251387
000070 9b 7e 95 be f1 cf eb bc 14 d5 06 3c 49 5e 40 be
       -0.29198155 -0.028785678 0.008229513 -0.18785967
000080 92 41 48 be 9e a6 75 be 11 c1 1a be 58 e5 02 3e
       -0.19556263 -0.2398934 -0.15112711 0.127828
000090 4a 2a 4e 3e 0e b9 2f be 7d bf 58 3e 3e 1f 11 3e
       0.2013332 -0.17160437 0.21166797 0.14172074
0000a0 df 5c 97 be 35 ed 03 be 19 d2 90 3e 01 fd 9c bd
       -0.29563043 -0.12883456 0.28285292 -0.07665444
0000b0 d8 8c 5e 3e 30 e1 50 3e 7f 07 aa be de 76 c0 3e
       0.21733415 0.20398402 -0.33208844 0.37590688
0000c0 cf ce 9a 3d 2c c6 74 3d fd 2b 3e 3e cd 21 1f bd
       0.07558977 0.059759304 0.18571468 -0.038850594
0000d0 cf 8b 69 bd 41 77 a5 3d 54 8f 41 3d 08 56 3d 3e
       -0.057018097 0.080793865 0.04725583 0.1848985
0000e0 5d 98 15 3e 6f f0 93 be de 9b a1 3d 76 21 51 be
       0.14608903 -0.28894374 0.078910574 -0.2042292
0000f0 6d b9 2c 3e 0f 96 5f 3e 75 20 3b be d0 51 84 3e
       0.1686761 0.21834587 -0.182741 0.25843668
000100 be e7 60 be 6d 84 27 3e c4 e0 4a 3e cd 18 85 3e
       -0.21963403 0.1635911 0.19812304 0.25995484
000110 7d 35 19 be f8 d8 04 3d ba 5f 36 be 07 ae aa bd
       -0.1496181 0.03243348 -0.17809954 -0.08333974
000120 a7 cc c4 3c 52 46 39 3d 4d f8 df 3d 47 f6 be bd
       0.024023367 0.04523308 0.109360315 -0.093243174
000130 03 05 22 3e da 3b 11 3e ca d8 9a 3d 61 50 73 bb
       0.15822224 0.14182988 0.075608805 -0.0037126767
000140 b0 50 72 bd cd 2e b6 be 17 c5 c2 3d 91 26 53 3e
       -0.05915898 -0.3558258 0.09510248 0.2062018
000150 2d ad b4 3d b5 78 a6 ba 2f 03 99 3d ba 4e cb 3d
       0.08822093 -0.0012700768 0.0747131 0.09927125
000160 2b 68 08 be 79 f9 1c 3e 67 54 98 3d 6c 00 4c be
       -0.13320987 0.15329541 0.074379735 -0.19922036
000170 93 8b ad 3d 00 95 e4 bd 96 b2 fc bc 2b 41 85 be
       0.08473887 -0.11161232 -0.030846875 -0.26026282
000180 54 db 61 bd 9e f4 d4 3b ff 9a 57 3e e7 0a 62 3e
       -0.05514081 0.006498887 0.2105522 0.22074471
000190 92 d9 bc be 14 7f 7b 3e 4d 1c f6 3d 4f df 01 3f
       -0.36884743 0.24560195 0.12017117 0.50731367
0001a0 23 19 b2 be 32 d8 a1 3c 18 15 f3 3e a9 06 74 3d
       -0.34784803 0.01975641 0.4747703 0.059576664
0001b0 1a 24 bc bd a2 11 26 be 87 99 d5 3e f9 16 cc bd
       -0.09186573 -0.16217664 0.41718695 -0.09965319
0001c0 cd 36 51 3e db c2 3e be 63 7c 83 be 2f 73 c1 bd
       0.20431061 -0.18629019 -0.25680837 -0.09445798
0001d0 9d 78 31 be 4e ad 00 be 61 a7 bd 3c 6b 0b 87 be
       -0.17331167 -0.1256611 0.023151102 -0.263759
0001e0 84 81 85 3e 62 16 a2 3d 71 5e 54 bc 2a 2b 3e 3d
       0.26075375 0.079144254 -0.01296197 0.046427883
0001f0 59 6a 4f bd 9a 69 9e bd 5e 5b 32 3e 4a 5b ee bb
       -0.05063853 -0.07734986 0.17417666 -0.007274066
000200 80 83 ad 3d df 71 32 bd 36 77 fc bd 7f 67 96 be
       0.08472347 -0.043565627 -0.12327425 -0.29375836
000210 b3 bb da be bc 26 2e bc 34 7e 87 3a 5c c4 c4 bd
       -0.42721328 -0.010629352 0.0010337294 -0.09607765
000220 94 f9 65 be 4f 31 86 be 3a c1 79 3e 4e ed a0 be
       -0.22458488 -0.26209494 0.24390116 -0.3143105
000230 61 1c 5b be 88 9d 0e 3e 13 95 e7 3d 23 5e ab 3c
       -0.21397544 0.13927281 0.113077305 0.020918911
000240 95 49 e4 3c 6a d1 8e bc f8 d2 2c bd 31 03 30 3c
       0.027867118 -0.01743384 -0.042193383 0.010742948
000250 cb d2 df 3b 66 59 42 3d 30 6f 71 bd 3e 01 1b 3e
       0.0068305484 0.04744854 -0.058943927 0.15137193
000260 bc e9 ca bd 66 12 a4 be 09 aa 2a be 51 18 40 be
       -0.099078625 -0.32045287 -0.16666426 -0.18759276
000270 4d 01 62 3e 58 11 44 3d 26 ff a6 bb 50 3c 81 bd
       0.22070809 0.047868103 -0.005096334 -0.06310332
000280 0e 6f 27 bc 4b 7b 81 be 50 e5 c9 bd 9a b6 a0 bb
       -0.010219349 -0.25289378 -0.09858191 -0.0049045803
000290 61 f8 a1 bd 6e 76 b8 3c 92 40 5c be 3b c9 95 bc
       -0.07908703 0.02251741 -0.21509007 -0.01828443
0002a0 58 94 17 be 77 01 a2 be 4c 60 61 3d 2f 47 0d be
       -0.14802682 -0.31641743 0.055023476 -0.13796686
0002b0 be 54 64 3e be 81 ed bd fe 9d 78 3e 2e 03 8a be
       0.22297952 -0.11597012 0.24279019 -0.2695555
0002c0 6c ef 3c be f1 4a d3 3d f3 cc fb 3d 3d 2d d9 3c
       -0.18450707 0.10317028 0.1229495 0.02651083
0002d0 d8 71 bf 3d 83 8d b3 3d 7a 38 a7 be f3 2a 91 3e
       0.09347886 0.087672256 -0.32660276 0.2835308
0002e0 ac 64 56 be bd a9 81 be df 99 b5 3e f2 71 bb 3d
       -0.20936841 -0.25324813 0.35468957 0.09152593
0002f0 ca 50 e0 3d 30 cc 49 3e cc 8c 43 3e e5 79 05 3b
       0.10952909 0.19706798 0.19096678 0.0020366844
000300 80 e3 f7 bd 05 4e 98 3e da 72 e1 3d 63 05 eb bd
       -0.12103939 0.29747024 0.11008234 -0.11475637
000310 f2 e3 0d 3d 21 1a 82 3e db c0 83 be df 8d 27 3e
       0.034641214 0.2541056 -0.25733075 0.16362713
000320 d5 bc 3e 3d e3 4c ea 3b bf cf 27 be f4 72 81 be
       0.046566803 0.007150279 -0.16387843 -0.25283015
000330 26 de 23 3e 0e b1 71 3e f7 00 e8 3b 37 c8 44 3e
       0.16002712 0.23602697 0.007080193 0.19217001
000340 7c 05 a3 b7 52 c1 5c be 05 ad 8e bd 1f 01 9e bd
       -1.9433668e-05 -0.21558121 -0.069665946 -0.077150576
000350 4d 5c 2c 3d 1e 63 36 bc 99 b2 09 bd fa a1 cc bc
       0.042080212 -0.01113203 -0.03361759 -0.02497958
000360 9d d6 69 3e d7 78 6a 3d 35 5c ac be ef ed 0e be
       0.22835775 0.057244148 -0.33664098 -0.13957952
000370 33 c3 7c 3d cd 56 13 3d 6c 0c 80 bd e3 f7 9d 3e
       0.061709594 0.03597145 -0.06252369 0.30853185
000380 08 23 88 bb c0 dd 1d 3e 57 ed 04 be 2f 9f 21 be
       -0.0041545667 0.15416622 -0.12981163 -0.1578338
000390 c9 ed 1a 3e cd aa 37 3e 65 b7 1c 3e e3 05 89 be
       0.1512977 0.17936249 0.15304334 -0.26762304
0003a0 d5 95 56 be 90 63 7b be 13 62 8c bd 98 5e b4 3d
       -0.20955594 -0.24549699 -0.06854644 0.08807105
0003b0 90 59 be bd 69 7b e2 bd 97 21 a2 be 21 9c 82 3e
       -0.092944264 -0.11058695 -0.31666252 0.25509742
0003c0 b0 3d 02 3d a2 4a 1e bd 5a 9b 3d bb 7e 1d 76 3e
       0.03179711 -0.038645394 -0.0028931708 0.24034688
0003d0 71 81 1b 3e 24 f1 cc 3e 9a f1 cc 3d 39 00 9c 3e
       0.15186097 0.40027726 0.10007019 0.3046892
0003e0 43 2b 90 3e aa 9f 76 3e 0e cb 82 be 61 ce 53 bd
       0.28158006 0.24084345 -0.25545543 -0.05171049
0003f0 09 5a 92 3e 61 cc 79 be 2d fe a7 be ee eb 31 bd
       0.28584316 -0.2439437 -0.32811108 -0.04343789

conv_skip.bias f4 [16]
000000 83 14 25 3e c0 c7 06 bd d0 49 77 3d 3a 9d b1 bd
       0.16121106 -0.03290534 0.060373127 -0.08672567
000010 3b 28 00 3e 33 c7 04 be 2e 6a 5c 3e 85 d7 13 3e
       0.12515347 -0.12966613 0.2152488 0.14437683
000020 1a b9 0a 3e 7e e8 06 bd fa 7e 5a bd 92 ae 0f be
       0.13547173 -0.032936566 -0.05334375 -0.14031437
000030 b0 b4 c6 bd f9 f4 58 3e e9 b5 fa 39 7d b6 12 be
       -0.09702432 0.211872 0.0004781925 -0.14327426

attention.query_conv.weight f4 [32, 32, 1, 1]
000000 cf 1b e0 3b f6 9e 93 3e c5 36 71 b5 c3 5b 1c bd
       0.0068392525 0.28832215 -8.9859196e-07 -0.03817345
000010 b7 f6 02 b4 f5 08 12 3e 29 27 4d bc 81 e2 bc 3c
       -1.2196948e-07 0.1426123 -0.012521544 0.023057224
000020 42 b2 f7 bc 01 69 80 3d ae a8 bd 3b 36 80 24 3e
       -0.030236367 0.06270028 0.0057879305 0.16064534
000030 6f 78 aa bd 8b 89 00 00 29 ed 8f bd 98 0b 2a 3e
       -0.08323752 4.9341e-41 -0.070276566 0.16605985
000040 60 1a 54 bc ef 37 8d 3e dd 39 0f bc 7e ab 2a 37
       -0.012945741 0.27581736 -0.008741823 1.0172718e-05
000050 01 b2 79 bd c0 15 27 3d 18 a7 a2 3b 54 c6 89 3e
       -0.060960773 0.040792227 0.004963767 0.26909125
000060 88 82 1f be 93 a4 00 3c c4 ac ca 3b 3b cd 68 3e
       -0.15577137 0.007851738 0.006185146 0.22734539
000070 22 fa 05 be 18 6c 77 3c 84 8b db 3c d1 57 14 b7
       -0.130837 0.015101455 0.026799925 -8.841934e-06
000080 ab b1 7b 3d e0 24 6c be fc b6 8b 38 24 2c 05 bd
       0.061448734 -0.23060942 6.66212e-05 -0.0325128
000090 b2 fb 8d b6 67 00 6c bd e9 87 50 bd 18 90 b6 3c
       -4.2314286e-06 -0.05761757 -0.050910864 0.022285506
0000a0 55 17 b9 3d fc 5e 03 3e f4 8d 83 bc 84 c9 4c be
       0.09037653 0.12829202 -0.0160589 -0.19998747
0000b0 e0 83 27 bd df 51 3c ad 4a f2 b5 3d 04 90 95 be
       -0.04089725 -1.0704742e-11 0.088841036 -0.29211438
0000c0 26 85 1e be 50 c5 b6 be 1e ff 8c 3d 6c 78 0e bc
       -0.1548048 -0.35697412 0.06884597 -0.008695703
0000d0 0a 77 51 3d ea ed 17 3d e8 b2 92 bc d4 ee c9 be
       0.051138915 0.037092127 -0.017907575 -0.39440024
0000e0 a9 37 0d 3e 45 48 ae 3d ad a4 e7 3d ab 10 66 be
       0.13790764 0.08509878 0.11310706 -0.22467296
0000f0 f3 28 d5 3c e0 20 35 3e 25 e5 4d be c3 70 c3 38
       0.026020503 0.17688322 -0.20106943 9.319328e-05
000100 09 9b 2e 3d eb 75 73 be 39 47 17 38 9d bf 6c 3c
       0.04262832 -0.23775451 3.6067537e-05 0.014449981
000110 8a e7 14 b5 98 7f 55 bd 47 6b fd 3c f5 85 63 bc
       -5.547123e-07 -0.052123636 0.030934943 -0.013886918
000120 44 e0 11 3e c6 be 7c 3d a9 fa 23 bc 85 8f 2b be
       0.14245707 0.061705373 -0.0100084925 -0.16753967
000130 dc fa c5 3d 52 8f b9 9b eb cd 2d 3e 35 22 87 be
       0.09666988 -3.06983e-22 0.16973083 -0.26393285
000140 3b ea b5 bd 0c 85 8c be 00 e0 9a 3d be e4 4c ba
       -0.088825665 -0.27445257 0.07562256 -0.00078160677
000150 97 29 08 bb 6b fd 34 bc e7 95 11 3e ef 1c 67 be
       -0.0020776743 -0.011046748 0.1421734 -0.22569631
000160 cb 89 42 3e 20 e7 b2 b8 c5 87 81 3c 99 a2 32 be
       0.18997876 -8.530752e-05 0.01581181 -0.17444839
000170 11 9a 36 3d 4e 99 64 3d 3b 62 e8 bd 57 10 ee 37
       0.044580523 0.055810265 -0.11346861 2.837942e-05
000180 83 3c 90 3d 7a ea c0 be 28 73 40 38 90 f7 ba 3c
       0.07042792 -0.3767889 4.5883615e-05 0.022823125
000190 df 7e 24 b5 62 5e 02 be bb f8 f7 3c 62 9a ec bb
       -6.127938e-07 -0.12731317 0.030269971 -0.0072205523
0001a0 f8 24 43 bc 04 2a 6d 3d 1c a2 43 bc 94 eb 36 be
       -0.0119106695 0.057901397 -0.011940505 -0.17863303
0001b0 6b 04 f9 3c 8f 05 dd 9c bb da d3 bb 69 5c d3 be
       0.030397614 -1.462599e-21 -0.0064652837 -0.4128144
0001c0 a3 68 2b be 63 96 9e be 04 c8 03 3c 01 37 15 ba
       -0.16739134 -0.3097411 0.008043293 -0.0005692095
0001d0 6a f5 8c 3d 72 b1 91 bc c5 9e ca 3d 19 e8 8f be
       0.068827465 -0.017784808 0.09893564 -0.28106764
0001e0 db 19 24 3e 3c 6f 9c bb 00 df 93 3d 15 32 c6 be
       0.16025488 -0.0047740024 0.07220268 -0.38710085
0001f0 25 3a fc 3d 23 c9 4c 3c 23 20 9f bd 8f 25 16 38
       0.12315778 0.012499127 -0.077698015 3.5797766e-05
000200 0b e5 ff 3c 17 e9 93 be c5 02 13 38 6f 46 a4 3c
       0.031237146 -0.2888877 3.505011e-05 0.020053117
000210 14 21 4a b5 bc b0 d3 bd c8 7c 2b 3d 44 8f a3 bc
       -7.5299e-07 -0.10336444 0.041867048 -0.019965775
000220 a3 a6 f1 3d da 06 80 3d 76 6d 3f bc 90 43 0d be
       0.117993616 0.06251307 -0.011683812 -0.13795304
000230 f1 c3 56 3d a4 89 ca a0 2a 2e 48 3d 79 79 56 be
       0.052432958 -3.4311214e-19 0.04887215 -0.20944776
000240 c6 ec 95 bd fe 68 95 be 40 cb a2 3b ca db 71 bb
       -0.073205516 -0.29181665 0.004968077 -0.0036904686
000250 76 a5 e1 3d 60 3b 47 bd 2e 4b fc 3d 43 0a 9b be
       0.11017887 -0.04864061 0.12319027 -0.30281267
000260 f3 95 0f 3e 02 ee 11 3c f0 23 22 3d b5 cf 44 be
       0.14022045 0.008906843 0.039585054 -0.19219859
000270 1c e5 11 3e 3a 6f 58 3d fb 91 0f be a6 f4 0c 38
       0.14247555 0.05284045 -0.14020531 3.3606448e-05
000280 2e 94 4b 3d 04 0d 93 be 6f 94 41 38 87 94 8e 3c
       0.049701862 -0.28720868 4.6153025e-05 0.017404808
000290 ed 2d 9a 36 33 d9 25 be b6 f5 2f 3e 33 70 c3 bc
       4.594904e-06 -0.16196136 0.17183575 -0.023857212
0002a0 e9 e9 44 3e 17 1c 64 3c 94 79 ca 38 f3 b3 58 be
       0.19229855 0.013922713 9.654756e-05 -0.21162395
0002b0 2c cd 91 bd f8 09 69 a0 58 61 b6 3d 76 e8 56 be
       -0.071192116 -1.9739166e-19 0.089052856 -0.20987114
0002c0 a6 fb 73 be 52 e0 be be 52 f6 f4 3d 98 79 e7 ba
       -0.23826465 -0.37280518 0.11961044 -0.0017660139
0002d0 9c bd 88 3d 68 31 43 3c f5 40 22 3e 3a ff 9e be
       0.0667679 0.011913635 0.15845092 -0.31054097
0002e0 04 33 81 3e b1 19 d8 bd e7 fc 05 3d 65 25 51 be
       0.25234234 -0.10551775 0.03271189 -0.20424421
0002f0 f0 3d 80 bd 68 9c c0 3c e9 23 af 3d 67 7e 8d b8
       -0.06261814 0.02351208 0.08551771 -6.746948e-05
000300 48 a8 87 3d ed 51 9d be 93 94 ba 38 a8 12 f2 3c
       0.06623894 -0.30726567 8.896845e-05 0.029549912
000310 c9 ff d0 35 aa f7 cf bd c9 fd 34 bd 2a df 47 3d
       1.5571651e-06 -0.1015466 -0.04418734 0.04879681
000320 89 59 52 3e 19 48 73 3d f9 ad f1 bb 51 49 35 be
       0.20541967 0.05939493 -0.0073754755 -0.17703749
000330 2d 7c cd 3d 46 40 09 aa a0 a1 c6 3d a1 7d ba be
       0.1003345 -1.2190344e-13 0.09698796 -0.36423972
000340 b8 98 4a be d8 86 96 be 32 a4 2e 3d 5a a7 95 bb
       -0.1978482 -0.29399753 0.042637058 -0.004567069
000350 67 c4 c6 3c df 48 5e bd 78 f3 91 bc 9a a9 63 be
       0.024263574 -0.054268714 -0.01781629 -0.22232667
000360 e2 e7 4b 3e 1a 1f 83 bd 35 d9 90 3d 67 b5 83 be
       0.19912675 -0.064024165 0.07072679 -0.25724337
000370 b3 7a 04 3e c7 58 8e 3a 3b 10 e5 3d 22 40 da 36
       0.12937431 0.0010860198 0.11184736 6.5043723e-06
000380 8d bf 8f bc 12 cb 9a 3e b5 cf 95 b7 26 9f a4 bc
       -0.017547393 0.30233055 -1.7858905e-05 -0.02009542
000390 19 a0 6d 36 e6 61 52 bb b6 1e d6 bd ba 6c 25 bd
       3.540894e-06 -0.003210181 -0.104550764 -0.040386893
0003a0 e5 00 8b 3c a4 6c 9e bd e9 80 2b 3c 89 9c 3f 3e
       0.0169682 -0.07735565 0.010467746 0.18712057
0003b0 e4 27 cc bd 79 e3 56 09 9f d4 57 bd b1 a7 27 3e
       -0.09968546 2.586627e-33 -0.052693006 0.16372563
0003c0 00 dc f8 3a 84 e2 4e 3e 61 50 2c bd 0a 10 5f 3a
       0.0018986464 0.20203596 -0.042068843 0.0008509165
0003d0 72 34 13 bb 59 d2 38 3c 9f 30 08 be 74 33 98 3e
       -0.002246168 0.01128062 -0.13299797 0.29726756
0003e0 7f cc b2 bd a1 5c a5 bd 05 fb ae bd f2 eb 01 3e
       -0.08730411 -0.08074308 -0.08543972 0.12687662
0003f0 11 9d 6d 3b 01 35 81 bd 1a ec 27 3e 88 25 a2 b8
       0.003625695 -0.06308938 0.1639866 -7.731753e-05

attention.query_conv.bias f4 [32]
000000 08 60 84 bd 6d 14 80 3d d2 49 8e 3d 1d f9 f9 3d
       -0.06463629 0.06253896 0.06947674 0.12205718
000010 6c c6 b2 3d 1d a2 24 be 11 c2 9f 3c 12 20 27 be
       0.08729252 -0.16077466 0.019501718 -0.16320828
000020 a0 ae a8 bc 60 de 3a 3d c3 ec 7e bc a3 ef 05 3d
       -0.02059108 0.04562223 -0.015559378 0.03269924
000030 40 e4 cb bc 0d 95 b6 3c 18 85 ea 3d 75 03 35 3d
       -0.024889112 0.02228787 0.11451167 0.04419275
000040 5b 1a 82 be ed 49 33 be e8 14 b4 3d 55 98 91 3e
       -0.25410733 -0.17508669 0.0879305 0.28436533
000050 68 03 10 3e dc 55 37 be df f1 6b 3e 68 89 aa bd
       0.140638 -0.17903847 0.23041485 -0.083269894
000060 a6 8b 2e 3e 62 39 00 3e b6 2b b6 bd f1 35 49 3e
       0.17045459 0.1252189 -0.08895056 0.19649483
000070 c4 91 eb bd 98 2c 08 3d d3 48 80 3d 9d fd ba bd
       -0.11502412 0.033245653 0.0626389 -0.09130404

attention.key_conv.weight f4 [32, 32, 1, 1]
000000 a6 a1 b9 bd a7 46 9c 3d 09 bb 23 31 0e d5 77 3d
       -0.09064035 0.07630663 2.382594e-09 0.06050592
000010 3e 6e 12 b2 f0 26 ca bc 0b db 11 bd b9 ee 2c 3d
       -8.523385e-09 -0.02467677 -0.035609286 0.04221985
000020 81 fb 39 bd 95 03 44 3b ec c4 cc 38 90 77 c7 3d
       -0.04540587 0.0029909362 9.7641576e-05 0.097396016
000030 24 48 26 3c 9f f7 75 33 1e e8 59 3c 83 bd 62 3e
       0.010149036 5.7268718e-08 0.01329997 0.22142605
000040 41 18 d1 3d 97 c6 09 3e 60 29 c7 bc 0f e9 ce 31
       0.10209704 0.13454662 -0.024311721 6.0218848e-09
000050 63 71 e2 bb b3 50 1a bd e4 03 f3 3d 4b c9 93 3d
       -0.0069104894 -0.037674617 0.118659765 0.07216128
000060 97 a7 5b bc 2f 64 81 3d e9 6d 2a bd 6e 8c c9 3d
       -0.013406656 0.06317937 -0.041608725 0.09841238
000070 26 45 7d bd ae f1 c9 ba 1e 31 0f 3c 18 c3 fc b7
       -0.061833523 -0.0015407109 0.008739738 -3.0131589e-05
000080 53 67 0c 3e f5 dd 5a be 6e 89 2b b0 b3 28 05 be
       0.1371129 -0.21373732 -6.2404737e-10 -0.13003807
000090 c6 d7 3c 32 45 df 7a be f0 58 d1 3d 57 77 fc bd
       1.09921015e-08 -0.24499233 0.102220416 -0.1232745
0000a0 6e 15 c0 bd 7c cb f4 3c a1 fc b9 b9 08 15 92 be
       -0.093790874 0.029882185 -0.00035474173 -0.2853167
0000b0 85 ce c8 bd a4 67 28 b5 7a a4 14 3d d2 87 b0 be
       -0.098050155 -6.2735694e-07 0.03628967 -0.34478623
0000c0 e8 ce a0 be 1a c2 8a be 79 fa 37 3d bb 3e 34 b3
       -0.31407857 -0.27101213 0.044916604 -4.196657e-08
0000d0 c0 4e 78 3c 69 dc 90 3d 47 0e ca bd 7a 00 8d be
       0.015155494 0.0707329 -0.098660044 -0.27539426
0000e0 bf 21 06 3d 1d 00 84 bd e0 56 a3 3d 2d af 11 be
       0.032747027 -0.06445334 0.079755545 -0.1422698
0000f0 26 ef 04 be 91 d3 f6 39 eb 3c 04 be f1 d7 03 38
       -0.12981853 0.00047078406 -0.12913863 3.1433945e-05
000100 09 34 d2 3d e0 f2 7c be a9 b7 a6 31 19 44 86 bd
       0.10263831 -0.24702024 4.8521156e-09 -0.06555957
000110 b5 d9 4f 34 13 c4 03 bd ae e0 24 3d 18 0e 6f bd
       1.9357579e-07 -0.032169413 0.040253334 -0.05836305
000120 d1 86 d1 bd 9c 2e 9a 3c 03 3a 9d bb da 1b 66 be
       -0.10230792 0.018821053 -0.0047981753 -0.22471562
000130 98 f9 05 3c 22 12 c5 b7 9a 21 21 3e e4 76 f4 bd
       0.008177184 -2.3492674e-05 0.15735474 -0.11936739
000140 7d 22 2c be 3f 5b 0f be 96 80 35 3d ef 9c b9 33
       -0.16810031 -0.13999651 0.044312082 8.64328e-08
000150 b0 95 8a 3c f3 3a 2f 3d f8 3c 5c 3d 58 b1 19 be
       0.01691708 0.042780828 0.05376908 -0.15009058
000160 6c 2d f2 3c 3d c1 a5 bd 50 1e 9f 3c 04 f6 4b be
       0.029562674 -0.08093498 0.019423634 -0.19918066
000170 89 ac c1 3c 30 b5 09 3c d4 af 67 bd 52 b0 b1 39
       0.023641841 0.008405015 -0.056564167 0.0003389144
000180 c3 c8 2e 3e db 85 51 be 38 a4 63 b1 58 ef 0f be
       0.17068772 -0.20461218 -3.3126195e-09 -0.14056146
000190 7a 4f 28 b7 98 8f 89 be 08 de 01 3e a7 93 f4 bd
       -1.0032085e-05 -0.26867366 0.12682354 -0.11942225
0001a0 39 cb 09 3e ea 7c a3 3d 5a 32 d4 ba d5 29 49 be
       0.1345643 0.0798281 -0.0016189322 -0.19644864
0001b0 40 0f d7 bd dc e3 fb b7 eb 85 94 3d a2 41 eb bd
       -0.105009556 -3.0027637e-05 0.07252105 -0.11487128
0001c0 6c c5 8b be 06 82 0a be 6d 42 a7 3d 6d 20 f9 b2
       -0.27299058 -0.13526163 0.081669666 -2.900216e-08
0001d0 19 58 87 3c ad f4 9b 3d ac 94 1d 3d cf 7e 0f be
       0.0165215 0.076150276 0.038471863 -0.14013217
0001e0 14 13 fe 3c ad 45 9e bd 16 b3 ba 3d b6 ff a6 be
       0.031014957 -0.07728133 0.09116189 -0.32616967
0001f0 73 44 dc bd 2a 7f ec ba 1f 81 68 bd da d3 91 38
       -0.10755243 -0.0018043269 -0.056763764 6.953599e-05
000200 17 b1 de 3d b1 ba 35 be 85 2d 37 b1 1e 9f 8a bd
       0.10873621 -0.17746998 -2.665588e-09 -0.067686304
000210 fd 82 5c 34 30 80 32 be e3 b8 1f 3d fa ff a0 bd
       2.053675e-07 -0.17431712 0.03899468 -0.07861324
000220 d0 a0 13 3e a6 e2 aa bc fc 38 95 bb 37 fe 53 be
       0.14416814 -0.020860028 -0.004553912 -0.20702444
000230 9f 47 d0 bc 44 ac 82 b7 72 d9 ca bc db 80 4d be
       -0.025424777 -1.5577425e-05 -0.02476189 -0.20068686
000240 c9 8e 70 bd af 66 1c be b2 85 11 3d ae 27 f2 32
       -0.05872992 -0.15273546 0.035527892 2.8190552e-08
000250 e4 26 2a 3c 8b 97 3e 3d e3 eb 7a bd 4d 0d 7c be
       0.010385249 0.04653124 -0.061260115 -0.24614449
000260 75 d1 f8 3c 15 b1 a5 bd ff db e0 3c 07 5f da bd
       0.030373314 -0.08090416 0.027448652 -0.10662656
000270 4c 4a 64 bd fa ca b2 3c 35 c1 f7 bd b8 85 67 39
       -0.055734918 0.021825302 -0.12097398 0.00022079691
000280 84 dd 00 3e 9d ea 88 be 95 8b 80 b0 fc 4d 63 bd
       0.12584502 -0.26741496 -9.352897e-10 -0.055494294
000290 c1 f6 21 b4 53 0e 12 be b5 86 cf 3d 94 15 ac bd
       -1.5084062e-07 -0.14263277 0.10133115 -0.08402553
0002a0 db 05 5a 3e 81 cb 5f 3e 61 b3 e2 3b da bb 3b be
       0.21291296 0.21854974 0.0069183563 -0.18333378
0002b0 d3 98 fd 3d c3 57 39 af 1d 23 52 3e e9 67 6e be
       0.123826645 -1.6856831e-10 0.20521207 -0.23281826
0002c0 fd 74 48 bd 8e f2 2e be f1 47 86 3d 85 f9 18 b3
       -0.048939694 -0.17084715 0.065566905 -3.5617195e-08
0002d0 bc 63 ed 3a 18 25 21 3d 2f e0 1c 3e 0c 67 5b be
       0.0018111388 0.039342016 0.15319894 -0.21426028
0002e0 b0 27 7d 3a b4 10 a1 bd 2e 75 f2 3d 6b c3 92 bd
       0.0009657098 -0.07864514 0.118387565 -0.07166179
0002f0 26 77 bb 3c 8d ba ad bc 88 39 f7 3d a0 f7 88 b6
       0.022883963 -0.021207118 0.1207152 -4.081943e-06
000300 9b 36 1f 3e 92 f5 8a be 81 68 e7 b0 0d a8 b8 bd
       0.15548174 -0.2714048 -1.6837164e-09 -0.09016428
000310 52 29 d1 b4 06 dc 02 be 74 58 9d 3d 3d 9c 90 bd
       -3.8959348e-07 -0.12779245 0.07682887 -0.0706105
000320 ef 47 de bc 06 76 e2 3d 70 41 8e bb 03 39 28 be
       -0.02713391 0.110576674 -0.004341297 -0.16427998
000330 49 8c f2 3c e4 5a cc b6 2d a2 1f 3e 96 7f a9 be
       0.029607909 -6.090255e-06 0.15589209 -0.33105153
000340 c8 67 20 be c4 95 85 be 8a f7 61 3d b5 5c ec b2
       -0.1566459 -0.26090825 0.055167712 -2.7516174e-08
000350 0d 44 83 3c 5e cf 43 3d 9f 45 08 3e d1 ac 67 be
       0.01602366 0.047805183 0.13307808 -0.22624518
000360 6f 47 a4 3c 8b 78 d0 bd c6 4f 85 3d 7e d1 61 be
       0.020053593 -0.10179242 0.06509356 -0.22052571
000370 74 50 1d 3e 74 68 11 3b a6 f4 7e bd b8 66 b3 38
       0.15362722 0.0022187503 -0.062245034 8.554518e-05
000380 bb 6f 85 bd df c1 1a 3e b6 7b eb b1 b2 3a ca 3d
       -0.065154515 0.15113018 -6.8534645e-09 0.098744765
000390 67 4e f9 b4 d7 0b 07 3d 33 37 6d bd e5 ac 0a 3d
       -4.643691e-07 0.032970276 -0.05791397 0.03385629
0003a0 82 88 8e 3d 51 2b d3 3d 61 54 d4 3a 65 d9 7a 3d
       0.069596305 0.10310996 0.0016199463 0.06124248
0003b0 91 9b 58 3e 8a db 80 37 31 74 7a bd 29 84 00 3e
       0.21153094 1.536102e-05 -0.061145965 0.12550415
0003c0 a2 6d d9 3d 4a 87 f6 3d be 18 ef bc 49 d3 d6 b2
       0.10616614 0.12037523 -0.029186603 -2.500896e-08
0003d0 93 c9 89 bc 74 68 5d bd 9c 24 15 3e 1b c7 23 3e
       -0.01681975 -0.054054692 0.14564747 0.15993921
0003e0 c8 c0 24 bd 54 47 48 3d 39 d5 e5 bc 7e de 7e 3e
       -0.040222913 0.04889615 -0.028055774 0.24889562
0003f0 32 32 0d 3d b6 b4 f7 bc 27 a6 37 3e a9 e1 d0 b8
       0.034471698 -0.030237537 0.17934476 -9.9602454e-05

attention.key_conv.bias f4 [32]
000000 c9 89 5c 35 0f fd 94 b4 ba 51 88 34 49 c7 ac 34
       8.215689e-07 -2.7751273e-07 2.5391438e-07 3.2182496e-07
000010 4d 24 5a b4 7c 50 93 34 a0 bf 8d b4 b3 c1 0e 34
       -2.0316038e-07 2.7439444e-07 -2.6402722e-07 1.3295248e-07
000020 14 90 2c 33 0d be c0 35 d4 59 d4 b3 97 33 8e 33
       4.017791e-08 1.4360427e-06 -9.888359e-08 6.6217744e-08
000030 85 89 91 b5 c2 56 c2 34 e5 dc 89 b4 6a 46 7d b3
       -1.0843365e-06 3.619844e-07 -2.567896e-07 -5.8970194e-08
000040 64 5a af 32 f3 f2 9f 35 16 1b 84 33 46 03 0c 35
       2.0413786e-08 1.1917131e-06 6.151656e-08 5.215883e-07
000050 1a 56 b2 33 ca 69 98 b2 8d 77 03 33 c4 91 83 b4
       8.304433e-08 -1.7743236e-08 3.0609545e-08 -2.450671e-07
000060 b2 0e 91 33 73 0a ee b3 18 24 65 b3 e3 af b6 33
       6.754762e-08 -1.1084639e-07 -5.3351044e-08 8.507029e-08
000070 1c 7a dc 32 a2 07 fc 35 a2 d4 e8 b3 e7 b7 83 33
       2.56669e-08 1.8777685e-06 -1.08420195e-07 6.1336145e-08

attention.value_conv.weight f4 [32, 32, 1, 1]
000000 30 84 d1 3d 0e 2b d1 bd 42 35 95 b9 df 3f 50 3d
       0.10230291 -0.1021329 -0.00028459175 0.050842162
000010 2c 5f 1f ba 5f d8 87 bd a6 04 39 3e ee 99 fe bd
       -0.00060795504 -0.066330664 0.1806818 -0.124317035
000020 30 5f c7 bd 64 7a 47 3d eb 04 98 bc 13 ec 9f bc
       -0.097349524 0.048700705 -0.018557033 -0.019521749
000030 42 2e 86 bd 39 3e e0 ba 32 59 1c be 9c 3d 2a 3e
       -0.06551792 -0.0017108388 -0.152684 0.16625065
000040 6b 4f 2a 3e d4 9d ad bd 1b 5f 17 3e a9 d2 e3 ba
       0.16631858 -0.08477369 0.14782374 -0.0017381507
000050 95 56 e2 3d 3a 3a 14 3e 9a ed 3b bd 05 62 0f be
       0.110516705 0.14475337 -0.04588089 -0.14002235
000060 ff ca 21 bc 17 23 8b bd 70 f7 90 3d bc 48 50 bd
       -0.009875058 -0.06793802 0.07078445 -0.050850615
000070 ef 3f a0 bd 7e 1a 3a 3c 7f 0e 35 be 8f 8f ad bc
       -0.07824694 0.011358855 -0.17681311 -0.021186618
000080 81 55 cb bd 87 b8 57 bc aa 5a 94 3a 1d aa 26 bd
       -0.09928418 -0.013166553 0.0011318524 -0.040689576
000090 48 ab c4 3b 3e 7c b1 3d 49 8a 92 bd a2 1d fb 3c
       0.0060018636 0.086662754 -0.07155282 0.030653778
0000a0 32 09 d7 3d 41 d0 ba ba 3d 72 43 3c ec ee 18 be
       0.10499801 -0.0014252738 0.011929092 -0.14934891
0000b0 71 f2 d4 bc c7 86 8e 3a 99 cc b7 3d 02 05 09 3e
       -0.025994511 0.0010873907 0.08974571 0.13380817
0000c0 63 78 07 3e 87 44 ef 3d 1c 48 0e be bd 28 7f 3c
       0.13229518 0.116829924 -0.13894695 0.015573678
0000d0 5f 81 11 be 74 6c 8a 3d 3b 0a 41 3e 4e 28 62 3d
       -0.14209507 0.06758967 0.18851559 0.05521422
0000e0 41 d5 28 bd a3 97 c0 3d e9 03 e6 bd a2 fc 87 bd
       -0.041219 0.094039224 -0.112312146 -0.06639983
0000f0 40 f4 05 3e ea 65 27 3c e5 54 12 3e 6c d3 76 3c
       0.13081455 0.010217169 0.14290197 0.015065055
000100 6c 59 50 bd 63 a1 cf 3d 21 3a 81 b9 5c e3 e0 3d
       -0.05086653 0.10138204 -0.00024648107 0.10980865
000110 cd 3b 53 ba f1 af dc 3d ba f7 00 be d9 9f 0c bd
       -0.0008057922 0.10775746 -0.125945 -0.03433213
000120 bb 36 12 be 2d 43 14 3d de 35 36 bc 08 88 ec 3d
       -0.1427869 0.036196876 -0.011121241 0.115493834
000130 03 71 7e 3d 92 35 c0 ba 5d d8 2e bd 47 c5 da bd
       0.062119495 -0.0014664403 -0.04268681 -0.10682159
000140 66 b7 09 3d dd e8 8c 3d 5b 7d a4 bc e4 19 4e ba
       0.033622168 0.06880353 -0.020079305 -0.00078621344
000150 85 99 47 3d ef 9a 2d be b9 fa 34 bc 06 e6 df 3c
       0.048730392 -0.16953634 -0.011046105 0.027331363
000160 1b 0d d0 3c 58 c6 03 3e 8f 31 eb bc 8b 6b 3a 3d
       0.025396874 0.12868631 -0.028710155 0.045512717
000170 8a 2f 03 be 34 53 fd bc e2 ec a2 3d 83 70 86 3c
       -0.12811103 -0.030923463 0.07955338 0.016411072
000180 f8 88 17 3e ce 36 a3 bb d8 e7 64 38 fe ac 8e bd
       0.14798343 -0.0049808985 5.4575357e-05 -0.069665894
000190 a3 f4 fb b9 3d 99 40 3e c1 13 89 3d 9e 31 3a bb
       -0.0004805672 0.18808456 0.06693221 -0.0028410922
0001a0 16 09 95 3d fc 25 d1 3c d5 6e 09 bc 4d 65 f0 bc
       0.07277124 0.025530808 -0.008388241 -0.029345179
0001b0 78 fc ac bd 3d 59 32 3a f5 0b 01 bc 99 46 1b bc
       -0.08446592 0.00068034587 -0.007876386 -0.009477281
0001c0 ea 22 06 bd 7d 27 b3 bd 82 4a 14 3d fd d8 97 ba
       -0.03274814 -0.08747766 0.03620387 -0.0011585053
0001d0 5d 9d 46 3d f9 a4 a8 3c 20 98 cf bd a9 fa 33 bd
       0.048489917 0.020586478 -0.101364374 -0.04394022
0001e0 14 dd dc 3c 7d e7 33 be 15 26 80 3d 36 3b db 3d
       0.026960887 -0.17568775 0.062572636 0.10704653
0001f0 5d 49 08 be ed b1 ca 3c 88 96 87 bd 97 67 53 bc
       -0.13309236 0.024743045 -0.066205084 -0.012903116
000200 8c 47 87 ba aa 4a a3 3d 97 b5 1d 39 df d7 82 3d
       -0.0010321005 0.079732254 0.00015040334 0.063888304
000210 3d 72 9a bc 2f 78 d2 bd dd 83 6d 3d 52 49 9b bc
       -0.018853301 -0.102768295 0.057987083 -0.01895586
000220 cc db 1d 3e cd b2 84 3b fa c1 0c 3d 3c a9 2d 3e
       0.15415877 0.004049635 0.034364678 0.16959089
000230 c9 e6 1c 3e ee 6e db 39 1c 4f fc bd 7b 72 07 be
       0.15322413 0.00041853584 -0.123197764 -0.13227265
000240 c0 42 0c 3e 5b 09 93 bd 62 9a 32 bd 2a 64 ca b9
       0.13697338 -0.07179519 -0.043604262 -0.0003860307
000250 63 e2 9e bc cb a6 cf bb 90 48 0c 3e 41 9b 24 3e
       -0.019395059 -0.006337022 0.13699555 0.1607485
000260 98 11 59 3b 00 be 0a be d2 0a 2e bd 61 1b cf bd
       0.003312206 -0.13549042 -0.042490788 -0.10112644
000270 93 49 c7 3d 26 05 93 3c f2 a9 77 bd 70 4b 01 3c
       0.0973083 0.01794679 -0.060464807 0.007891521
000280 3e a8 ed bb 98 c9 86 3d 6b 5d 8e b7 36 a4 91 3c
       -0.007252722 0.0658142 -1.697122e-05 0.017778497
000290 70 87 ce 3a ff d5 bf 3d 5d 0e c1 bd 81 48 05 3e
       0.0015756916 0.093669884 -0.09426568 0.1301594
0002a0 f8 8a a2 3d d9 04 79 bd c6 36 ac 3b af 9f f2 bd
       0.079366624 -0.06079564 0.005255553 -0.118468635
0002b0 f7 d0 20 3e f9 75 28 3a 56 26 9a bd 3b 24 66 bd
       0.15704714 0.00064262707 -0.07526843 -0.056186896
0002c0 ef 29 fd 3d e2 3a cc 3d 68 cb ab bd c8 34 b2 3a
       0.12361514 0.099721685 -0.08388406 0.0013596052
0002d0 a0 33 a3 3c f8 47 ea bd c6 7a c3 3d 0f b1 a8 bc
       0.019922078 -0.11439508 0.095449015 -0.02059224
0002e0 e7 14 04 bd fe 1f 86 3d 4f 07 98 bd f5 d2 19 bd
       -0.032246497 0.06549071 -0.07423269 -0.0375547
0002f0 ed d1 b0 3c cb b5 af bd 7a 16 a6 3d 3f 5f 97 3a
       0.021584475 -0.08579596 0.08109756 0.0011548771
000300 3f 16 1d be 7e d1 c3 bc 0b 47 1f 3a b6 d8 18 3e
       -0.15340517 -0.023903605 0.0006075955 0.14926419
000310 0c 4d db ba 73 b6 0b 3e 04 7d 39 bc 19 3f c2 bc
       -0.0016731336 0.13643818 -0.01132131 -0.023711728
000320 f0 e6 59 3d 67 50 a6 bd 6b 62 01 3c 38 be a7 bd
       0.053198755 -0.08120804 0.007897 -0.08190578
000330 35 bd d2 3d 06 5c c1 38 7e d1 7a bd 3c db f1 3d
       0.102899946 9.220098e-05 -0.061234944 0.11809394
000340 8a 15 d0 bd c7 33 76 3d 57 4c 85 bd b6 d8 ea 3b
       -0.10160358 0.060107972 -0.06508701 0.0071669472
000350 00 dd 30 3d 5f 3e 74 bc c3 c1 8d 3d 37 b1 2a bd
       0.043179512 -0.014907449 0.06921723 -0.04167291
000360 a8 39 a2 bd d5 69 01 3e 2d c0 a0 bd f4 2c 3c 3d
       -0.07921153 0.12638028 -0.078491546 0.04594131
000370 a3 8a 27 3e 67 c3 38 bc ea 7f 5f 3e 93 61 1d bc
       0.1636148 -0.011277056 0.21826139 -0.009605783
000380 98 24 3d bb 24 d9 f0 bd d6 b9 17 b8 7c 83 f8 3c
       -0.0028860923 -0.11760166 -3.617428e-05 0.030336134
000390 91 a6 83 bb 0a 9d 82 bd 57 d6 80 3c 4a 1e e0 bd
       -0.004017659 -0.06377609 0.015727205 -0.10943277
0003a0 e9 91 aa 3d ba b2 28 bc 31 8e 4c 3c 29 63 d8 bc
       0.083286114 -0.010296518 0.012485073 -0.02641447
0003b0 7c 90 c8 bc 5b c4 d5 b8 90 a4 e5 3d 32 ca ee bd
       -0.024482958 -0.000101932055 0.112130284 -0.116596594
0003c0 9c e3 c4 3d b4 f0 e0 bd 0d cf 91 3d 27 54 00 3b
       0.096137255 -0.109834105 0.0711957 0.0019581409
0003d0 3b c5 77 3b 8a a8 23 3e b1 34 84 3c 05 88 83 3c
       0.0037806768 0.15982261 0.016138406 0.01605607
0003e0 15 0e ab 3b 89 87 dd bd c5 21 02 3d bb 59 c6 3d
       0.0052201846 -0.10816867 0.031770486 0.096850835
0003f0 a3 b8 1e be 28 a8 78 3c d3 e2 57 be 63 99 ba 3a
       -0.15500121 0.01517681 -0.2108262 0.0014236387

attention.value_conv.bias f4 [32]
000000 6f 1a 21 3e 9e a2 8a bd f6 ba 00 bd b2 ea 83 bd
       0.1573274 -0.06769298 -0.0314283 -0.06441249
000010 77 fb 6b bd 58 9a 01 3b af 30 73 bd 86 ff 13 3d
       -0.057612862 0.0019775834 -0.0593726 0.036132358
000020 96 94 01 be d6 f6 65 3d a2 37 7e 3c fd 08 2d 3d
       -0.12654337 0.056143604 0.015516194 0.0422449
000030 12 0e dc 3d d5 1a 33 3e 32 ec 08 3e ff ba 17 be
       0.10744871 0.17490704 0.13371351 -0.14817427
000040 08 4f 0a be 62 c0 4f bc 2b b4 28 be 74 ef 09 3e
       -0.1350671 -0.012680145 -0.16474979 0.1347025
000050 e6 a1 9d bc fd 4f ef 3d a0 5f 3a be c9 eb 25 be
       -0.019242238 0.116851784 -0.1820054 -0.16203226
000060 e9 98 4b bd e7 eb 5c 3a 13 5b b7 bd 38 97 90 bd
       -0.049706373 0.0008427486 -0.08952918 -0.07060093
000070 02 53 d7 bb f0 c6 21 be 7c 09 3d bd 65 ce 57 bd
       -0.0065711746 -0.15798545 -0.046151623 -0.052687068
