model_components/SVHM FGSM epoch 1(2).pth (torch, 61948 bytes, 16 tensors)

encoder.0.weight f4 [16, 1, 3, 3]
-1.7056115e-12 -1.2719801e-12 -4.54602e-13 -6.078957e-12 -1.9504686e-12 -3.2878051e-13 -9.590893e-12 -2.1350365e-12
-2.3771125e-13 -0.1662782 0.30573392 0.06587372 0.3404762 0.29144347 0.10528915 -0.16895233
0.41043156 -0.21975759 0.42222753 0.17849994 0.073887 0.46794248 -0.011626719 -0.025296291
0.11266019 0.05747494 -0.063658476 -0.07675556 -0.020231526 -0.0011074444 -0.38550952 0.27022436
0.30156243 -0.00793551 0.008828155 -0.015370842 0.10479024 -0.023734719 -0.023102343 0.23034489
-0.25722137 0.13582847 0.270913 -0.1689716 -0.27893928 -0.06278889 -0.039205734 -0.01304998
0.12735379 0.06603455 0.008697263 -0.123565175 0.012222469 -0.0082440935 -0.022409007 0.077857435
-0.09796388 -0.17309813 0.04056426 -0.13472894 0.216592 0.048446093 0.39253536 0.03475615
0.17062132 0.012214066 0.48257485 0.2737054 0.21421374 -0.039000306 -0.07776836 0.14116336
0.0006591688 0.01710313 -0.01181957 -1.7837516 -0.010528905 0.009735026 -0.00824655 -0.0103197405
-0.026878132 0.05853475 -0.15456179 -0.18019305 0.101636656 -0.12314179 0.10605414 -0.02397416
-0.08601369 0.07979561 -0.93859094 -0.029532712 -0.022056364 -1.1914221 -1.2809876 -0.0074471743
-0.29653856 -0.98070264 -0.010778831 0.10457885 0.04563046 0.038709633 -0.7760617 0.07189278
0.00044622953 0.09275292 0.030666143 0.040174063 0.014349826 -0.08972066 0.051486026 0.014255367
0.02478477 0.3531235 -0.0059891487 -0.07158118 -0.26877975 -4.9492e-41 -4.933e-41 -4.952e-41
-4.9459e-41 -4.9096e-41 -4.925e-41 -4.9191e-41 -4.9296e-41 -4.9065e-41 0.15603021 -0.010558871
0.12405106 0.39420265 0.3038195 0.17124544 -0.0021664605 -0.12750031 0.16916093 0.19917588
0.20762643 0.030554922 0.3637364 -0.03049132 -0.11860762 -0.020960752 -0.06510344 0.048939437
00000000: 210b f0ab ea03 b3ab 0deb ffaa 61e2 d5ac
00000010: 8540 09ac 4416 b9aa 8bb9 28ad 663d 16ac
00000020: cdd1 85aa d544 2abe 2889 9c3e cde8 863d
00000030: e652 ae3e 1438 953e d6a1 d73d d701 2dbe
00000040: 1624 d23e 2208 61be 352e d83e b0c8 363e
00000050: 1152 973d 2896 ef3e fe7d 3ebc 2b3a cfbc
00000060: 63ba e63d d86a 6b3d 605f 82bd 0532 9dbd
00000070: 96bc a5bc ab27 91ba 8161 c5be d95a 8a3e
00000080: 6466 9a3e f103 02bc f7a3 103c fcd5 7bbc
00000090: 449c d63d 506f c2bc 2041 bdbc 88df 6b3e
000000a0: 85b2 83be 9e16 0b3e 1cb5 8a3e e406 2dbe
000000b0: 21d1 8ebe 7697 80bd 3196 20bd 95cf 55bc
000000c0: 0869 023e 1f3d 873d f77e 0e3c bd0f fdbd
000000d0: c040 483c 3c12 07bc 1893 b7bc b873 9f3d
000000e0: 49a1 c8bd a340 31be b626 263d 62f6 09be
000000f0: 4bca 5d3e 696f 463d 65fa c83e 775c 0e3d
00000100: 5bb7 2e3e 821d 483c 0d14 f73e 1d23 8c3e
00000110: d95a 5b3e c9be 1fbd 0545 9fbd 218d 103e
00000120: 12cc 2c3a dd1b 8c3c dfa6 41bc f951 e4bf
00000130: 6e81 2cbc a97f 1f3c 8a1c 07bc 2114 29bc
00000140: 872f dcbc 22c2 6f3d 7245 1ebe 8784 38be
00000150: e126 d03d c331 fcbd ea32 d93d 7565 c4bc
00000160: f227 b0bd e16b a33d 7f47 70bf 96ee f1bc
00000170: 8caf b4bc 8580 98bf 67f7 a3bf 6d07 f4bb
00000180: e7d3 97be 540f 7bbf b299 30bc 702d d63d
00000190: 01e7 3a3d fe8d 1e3d fbab 46bf 863c 933d
000001a0: eaf3 e939 3ef5 bd3d 9037 fb3c 8f8d 243d
000001b0: 881b 6b3c 77bf b7bd 03e3 523d 588f 693c
000001c0: 6e09 cb3c 9acc b43e 9f40 c4bb 2799 92bd
000001d0: 809d 89be f789 0080 8389 0080 0b8a 0080
000001e0: df89 0080 dc88 0080 4a89 0080 2089 0080
000001f0: 6b89 0080 c688 0080 62c6 1f3e 1dff 2cbc
00000200: 7b0e fe3d eed4 c93e 3b8e 9b3e f75a 2f3e
00000210: 2dfb 0dbb 718f 02be 8638 2d3e c3f4 4b3e
00000220: 069c 543e 514e fa3c a83b ba3e efc8 f9bc
00000230: 8de8 f2bd e2b5 abbc f454 85bd b874 483d

encoder.0.bias f4 [16]
-0.00024306867 0.33751303 -0.19761004 -0.05101624 0.21767496 -0.034880877 0.14600568 -0.116472885
0.24465589 0.3735903 0.17511488 -0.00849501 0.03480376 -3.3683305e-16 0.1724648 0.21990272
00000000: 40e0 7eb9 82ce ac3e 495a 4abe 68f6 50bd
00000010: 2fe6 5e3e 40df 0ebd 8382 153e 5689 eebd
00000020: 1387 7a3e 3a47 bf3e 5151 333e a82e 0bbc
00000030: 638e 0e3d c92b c2a5 9d9a 303e 2e2e 613e

encoder.2.weight f4 [32, 16, 3, 3]
-1.3791674e-37 -6.0862733e-37 9.341732e-37 3.691836e-38 1.2329589e-37 -6.9544506e-37 -1.7951954e-37 2.389112e-37
4.5440056e-37 0.058881197 0.022814417 0.042033557 0.06066091 0.025690543 0.018175876 0.07064133
0.053725116 0.045306154 -0.021691648 -0.023359496 -0.051310953 -0.05505482 -0.048402913 -0.06838839
-0.041650716 -0.047454484 -0.0916315 -0.022902591 -0.013658445 0.009607186 -0.0070460043 -0.0047341264
0.020697527 -0.02038064 -0.0035722996 0.012553727 0.015723076 0.016367309 0.003650962 -0.019564845
-0.031748597 -0.027432097 0.041395105 0.01577608 -0.006473267 -4.6783847e-05 -0.002933623 -0.0018339219
0.0056831627 0.0022999172 0.00021311441 0.00010639523 -0.00051267544 0.0005498816 0.029792877 0.00053042546
0.004925399 -0.023294332 -0.04282989 -0.017389944 0.025122628 -0.0010961076 0.026657052 -0.063305184
-0.07308238 -0.035802323 -0.044545293 -0.07040692 -0.062760726 -0.054331563 -0.08850953 -0.06440788
0.0010733375 -0.04744202 -0.005976935 -0.082973264 -0.12473973 -0.084236085 -0.011441055 -0.04263244
0.014535602 0.0950525 0.044616297 0.08024518 0.028843047 -0.024044998 0.04718289 0.06860865
0.030298542 0.0903483 -0.084584504 -0.13771458 -0.100102626 -0.122542165 -0.18204881 -0.1383874
-0.079674765 -0.14148593 -0.10353426 0.0059214435 0.001370004 0.0070640435 -0.0068915957 -0.0051746895
0.0105557125 0.0048740334 0.00012528659 0.0095760655 -0.0044092233 -0.003948463 0.020159002 0.012126645
0.0018646166 0.024312412 -0.0050783935 -0.010156675 0.007443322 5.0913e-41 -5.0763e-41 -5.151e-41
-4.9848e-41 5.1257e-41 6.2621e-41 5.1243e-41 6.1123e-41 -5.0178e-41 0.0028650446 0.0035435886
0.055984814 0.058304682 -0.017516494 0.004008339 0.009210737 -0.0049648383 0.04024185 0.05072792
0.03631911 0.063234955 0.0011852332 -0.008507787 0.008280305 0.035087653 0.040445082 0.01851845
4.5355317e-38 5.5909217e-37 2.187385e-37 -6.416064e-38 -4.0540538e-37 -6.3415207e-38 3.828118e-39 2.5878548e-37
-4.602251e-37 -0.012792867 0.05115016 0.015024042 0.031192375 0.05582523 0.025031675 0.009160953
-0.0013772247 -0.039577015 0.00351199 0.013381211 -0.0042067254 0.04080375 -0.003920124 -0.040881433
-8.343015e-06 -0.023782164 -0.096708946 -0.0068219807 0.0048729344 -0.0028773716 -0.020171192 -0.014463385
-0.0044451086 -0.02581427 -0.013250353 0.007542654 -0.07162789 -0.0014795876 -0.024699917 0.018210106
0.023227885 -0.018585593 0.020077031 0.055742897 -0.044463508 0.0028863468 -0.003755807 -0.0030348417
-0.007086595 -0.0078980895 -0.005369165 0.0047916877 -0.0037604303 -0.0027181355 0.023288112 -0.013749517
0.0010611989 -0.0104443515 -0.0007163945 0.0120694535 -0.1024109 -0.058782242 -0.034515284 0.033308476
-0.027058199 -0.017359674 -0.038115256 -0.04241814 -0.05382534 -0.01978793 -0.03320865 -0.057747148
0.03430607 -0.017685356 -0.023324298 0.012344123 -0.07718605 -0.16529371 0.026987141 -0.005101678
0.006364678 0.028223297 0.04406752 0.04338509 0.022079282 0.030372366 0.0618642 -0.024289474
0.017442478 0.016192773 0.005224476 -0.0886582 -0.052557617 -0.03281681 -0.11618088 -0.043949142
-0.028684473 -0.05509812 -0.038260475 -0.020466989 -0.019558638 -0.034347937 0.003644211 -0.007259799
-0.038755693 -0.007317845 -0.016763628 -0.016624741 -0.036781125 -0.016086856 0.021999372 0.03136963
00000000: f8b8 3b82 eb1a 4f83 fbf0 9e03 af00 4901
00000010: 59d2 2702 cfa5 6c83 6e59 7482 3498 a202
00000020: df9f 1a03 692d 713d 4de5 ba3c 612b 2c3d
00000030: 9377 783d f974 d23c 93e5 943c 67ac 903d
00000040: de0e 5c3d f292 393d afb2 b1bc 6a5c bfbc
00000050: 6f2b 52bd 2a81 61bd 2242 46bd 360f 8cbd
00000060: f199 2abd a25f 42bd 4ca9 bbbd 379e bbbc
00000070: acc7 5fbc 7567 1d3c 2be2 e6bb bb20 9bbb
00000080: dc8d a93c 4df5 a6bc 3e1d 6abb 26ae 4d3c
00000090: aecd 803c bc14 863c fa44 6f3b 7446 a0bc
000000a0: d10a 02bd 47b9 e0bc ea8d 293d d63c 813c
000000b0: b31d d4bb c639 44b8 0742 40bb 3560 f0ba
000000c0: d339 ba3b 35ba 163b 7777 5f39 8120 df38
000000d0: 1165 06ba ee25 103a 3110 f43c 400c 0b3a
000000e0: 3e65 a13b c1d3 bebc 656e 2fbd 5b75 8ebc
000000f0: f8cd cd3c 45ab 8fba e45f da3c 26a6 81bd
00000100: 37ac 95bd 75a5 12bd 2075 36bd 8131 90bd
00000110: b288 80bd c68a 5ebd 7c44 b5bd 47e8 83bd
00000120: 3baf 8c3a 9052 42bd 2ada c3bb e3ed a9bd
00000130: 8b77 ffbd f883 acbd 4373 3bbc 5a9f 2ebd
00000140: bc26 6e3c e3aa c23d 94bf 363d 9657 a43d
00000150: 4148 ec3c 04fa c4bc d942 413d b182 8c3d
00000160: a634 f83c 8808 b93d a43a adbd 0d05 0dbe
00000170: 9b02 cdbd 63f7 fabd 016b 3abe 6db5 0dbe
00000180: 862c a3bd b0e1 10be c509 d4bd ab08 c23b
00000190: b591 b33a 7e79 e73b e5d2 e1bb 7190 a9bb
000001a0: def1 2c3c 5bb6 9f3b 5d5f 0339 eee4 1c3c
000001b0: 3f7b 90bb 1c62 81bb 7e24 a53c d6ae 463c
000001c0: 2766 f43a d32a c73c a768 a6bb 2f68 26bc
000001d0: 1ce7 f33b ed8d 0000 828d 0080 978f 0080
000001e0: f58a 0080 e28e 0000 90ae 0000 d88e 0000
000001f0: 63aa 0000 e08b 0080 79c3 3b3b 8d3b 683b
00000200: 5550 653d e4d0 6e3d c07e 8fbc 6258 833b
00000210: a2e8 163c 15b0 a2bb a3d4 243d 14c8 4f3d
00000220: 59c3 143d 5481 813d d459 9b3a 3f64 0bbc
00000230: 1eaa 073c 12b8 0f3d bea9 253d 01b4 973c
00000240: 16f0 7601 cc3f 3e03 9fdd 9402 71a9 ae81
00000250: caf3 0983 f3a1 ac81 3caf 2900 ca1e b002
00000260: 439b 1c83 2c99 51bc d582 513d 6627 763c
00000270: 2787 ff3c ffa8 643d 3a0f cd3c d217 163c
00000280: fe83 b4ba 821b 22bd 6a29 663b de3c 5b3c
00000290: 92d8 89bb d521 273d 6274 80bb 4a73 27bd
000002a0: faf8 0bb7 d0d2 c2bc 570f c6bd ec8a dfbb
000002b0: 23ad 9f3b 4992 3cbb 0e3e a5bc d5f7 6cbc
000002c0: 46a8 91bb 7378 d3bc 0218 59bc 5e28 f73b
000002d0: a5b1 92bd b9ee c1ba 7b57 cabc 5c2d 953c
000002e0: 6848 be3c d040 98bc 9678 a43c aa52 643d
000002f0: 5e1f 36bd dd28 3d3b fc23 76bb 32e4 46bb
00000300: ab36 e8bb fd66 01bc d2ef afbb 9703 9d3b
00000310: 8d71 76bb bf22 32bb b6c6 be3c a745 61bc
00000320: ed17 8b3a c91e 2bbc 6ccc 3bba f5be 453c
00000330: cebc d1bd a6c5 70bd e65f 0dbd 786e 083d
00000340: 28a9 ddbc e035 8ebc be1e 1cbd a5be 2dbd
00000350: f677 5cbd 4c1a a2bc cb05 08bd 4688 6cbd
00000360: 8684 0c3d e1e0 90bc 9912 bfbc 013f 4a3c
00000370: b813 9ebd c142 29be 2314 dd3c fa2b a7bb
00000380: ca8e d03b 8b34 e73c 2580 343d 90b4 313d
00000390: 9cdf b43c 78cf f83c 5165 7d3d b8fa c6bc
000003a0: 87e3 8e3c b5a6 843c 1532 ab3b 6e92 b5bd
000003b0: a846 57bd eb6a 06bd 3ef0 edbd 0404 34bd
000003c0: b3fb eabc 91ae 61bd 04b7 1cbd 63aa a7bc
000003d0: 7039 a0bc 6cb0 0cbd b7d3 6e3b 9ce3 edbb
000003e0: 4abe 1ebd 88ca efbb e053 89bc 9c30 88bc
000003f0: cea7 16bd 95c8 83bc 0738 b43c 717d 003d

encoder.2.bias f4 [32]
-0.001273262 0.10194386 -0.04689792 0.0014389334 -8.894588e-11 -0.11977557 0.06556012 -6.8039285e-15
-0.0001160417 0.06739431 -0.10175505 -0.018040895 -0.06481652 0.18074183 0.19301446 0.1896881
-0.14741507 -0.013901919 -0.0852216 -0.0027896718 0.030549292 -2.872693e-18 -0.006921134 -0.041301258
-0.10495213 -0.12806022 -0.000807294 -0.12934346 0.1485814 0.0072059296 0.0055746785 -0.1045502
00000000: 95e3 a6ba f1c7 d03d 0918 40bd 989a bc3a
00000010: 1498 c3ae e54c f5bd 6244 863d 2a23 f5a7
00000020: 6a5b f3b8 0706 8a3d f464 d0bd 80ca 93bc
00000030: 86be 84bd 6314 393e 95a5 453e 993d 423e
00000040: faf3 16be e0c4 63bc aa88 aebd edd2 36bb
00000050: 8242 fa3c a3f7 53a2 aeca e2bb 822b 29bd
00000060: 24f1 d6bd 3822 03be 95a0 53ba 9d72 04be
00000070: b925 183e b81f ec3b cbab b63b 6a1e d6bd

conv_skip.weight f4 [1, 16, 1, 1]
-0.001284111 -0.1387067 0.1618348 0.03153003 -0.0575744 -0.09778431 -0.013447326 0.24014139
0.2651799 -0.13996728 0.5563755 0.20762937 -0.0017838053 -3.790563e-17 -0.23944415 -0.2111582
00000000: 9d4f a8ba 2109 0ebe 06b8 253e a225 013d
00000010: 22d3 6bbd 2443 c8bd 2c52 5cbc a0e7 753e
00000020: a9c5 873e 9553 0fbe a06e 0e3f cb9c 543e
00000030: 93ce e9ba 12cf 2ea4 d930 75be db39 58be

attention.query_conv.weight f4 [32, 32, 1, 1]
-0.01930976 -0.012172867 -0.014547178 0.002821483 -5.0441e-41 -0.045870844 -0.0029634868 4.9614e-41
4.9598e-41 -0.03053501 0.016263833 -0.011975665 0.045496702 -0.05439008 0.072405845 0.07347329
0.024878008 0.030887071 0.07007329 1.7929312e-28 -0.004645047 -2.0962918e-21 -0.015542087 -0.020035204
0.15481852 0.008167435 9.990391e-13 0.091447875 0.018581608 -0.0016523419 -0.005890311 8.517586e-06
0.013890037 0.00934261 0.01084517 -0.0007571636 -5.1512e-41 0.033627197 0.002118116 4.9421e-41
4.9299e-41 0.023832057 -0.011445453 0.009183947 -0.033197034 0.04041139 -0.052482855 -0.052661806
-0.017549824 -0.020831563 -0.04708377 1.7859626e-28 0.0030948669 -9.233776e-20 0.011229871 0.013909548
-0.11635254 -0.0060257316 2.570342e-19 -0.06663761 -0.01306551 0.0010112734 0.005673104 -0.00021706423
-0.019352581 -0.012191301 -0.014564555 0.0028610004 -4.9222e-41 -0.0459721 -0.0029721304 4.9329e-41
4.9282e-41 -0.030566735 0.016372832 -0.011982357 0.045584403 -0.054514654 0.07254744 0.07363462
0.024961624 0.03134595 0.069375165 2.0702565e-28 -0.0046577943 1.3083002e-20 -0.0155750895 -0.020097263
0.15437022 0.008176302 1.4434605e-12 0.09341556 0.01861146 -0.001658093 -0.0059528635 -5.0741037e-06
0.009981107 0.0073250937 0.008153002 0.00013147647 -4.9244e-41 0.02486422 0.0015576261 4.9114e-41
-4.94e-41 0.018397417 -0.00819423 0.0069349837 -0.024523953 0.030303821 -0.038562745 -0.03841054
-0.01264361 -0.014343631 -0.033186097 8.17344e-30 0.0017765738 -4.9970378e-20 0.008208876 0.009823072
-0.086638056 -0.004434129 -3.0720386e-25 -0.04906555 -0.009174198 0.00054024445 0.0048713987 -0.00025828433
9.982115e-10 7.756778e-10 7.439569e-10 7.3252776e-10 -5.5508e-41 1.9366946e-09 -1.5538436e-09 -5.0039e-41
4.9427e-41 5.245173e-09 1.6807692e-09 2.343103e-09 -3.7498524e-09 2.2997952e-09 -4.413356e-09 -3.958351e-09
4.3018158e-10 5.2259277e-09 1.2443252e-09 -2.4821607e-31 -1.0319269e-09 -1.1205748e-26 1.0166421e-09 -4.377529e-10
-4.0021657e-08 1.0776465e-10 1.0443488e-28 6.0995515e-09 3.1062536e-10 -1.8970019e-09 3.8467403e-09 1.1254584e-09
0.00010006174 0.0002868042 -6.22004e-06 0.0005775213 5.0637e-41 9.9583965e-05 0.00020171721 -4.947e-41
-5.5567e-41 0.0009944056 -0.00012218124 -4.9549795e-05 -0.0034662213 0.0014007852 -0.00016532176 0.00021077304
-0.0001656362 0.0009957529 0.0009524824 6.2302e-41 -0.00026482693 -2.295658e-21 0.00018066441 -0.00015941224
0.0018426627 -0.00034464317 -1.27796e-40 0.0013527027 -0.0003908367 -0.000536225 0.00034286565 -0.0001450073
-0.017022396 -0.010951664 -0.012978733 0.0018529084 -4.9464e-41 -0.04066895 -0.0025975048 4.967e-41
-4.9345e-41 -0.027808301 0.014215389 -0.010835941 0.040260777 -0.048470058 0.063998215 0.06467277
0.02173746 0.026654927 0.060243428 -1.6008292e-28 -0.0040196315 5.2905583e-20 -0.013708985 -0.01737839
0.13887973 0.007290164 2.4820149e-14 0.081001766 0.016256867 -0.0013757925 -0.0059345327 0.00012761021
0.017776093 0.011350385 0.013484218 -0.0021338083 -5.0649e-41 0.04237356 0.0027276552 4.9784e-41
4.91e-41 0.028716702 -0.014830532 0.011235435 -0.041941077 0.050450727 -0.0665271 -0.06725046
-0.022696905 -0.027827743 -0.06303235 -2.2922173e-28 0.004229823 -5.2941624e-20 0.014309175 0.018246278
-0.14430092 -0.0075399987 -9.5136606e-14 -0.08447871 -0.016950302 0.0014637264 0.005920891 -6.0578575e-05
00000000: 802f 9ebc b470 47bc 4957 6ebc a1e8 383b
00000010: 9c8c 0080 11e3 3bbd 0f37 42bb 4e8a 0000
00000020: 428a 0000 8f24 fabc bb3b 853c 9435 44bc
00000030: c05a 3a3d 22c8 5ebd 8449 943d 2a79 963d
00000040: f7cc cb3c e206 fd3c 9682 8f3d f247 6311
00000050: 7a35 98bb 2e64 1e9d 3da4 7ebc de20 a4bc
00000060: bf88 1e3e b5d0 053c 2d9a 8c2b 0649 bb3d
00000070: 7538 983c 6593 d8ba 8303 c1bb c1e6 0e37
00000080: 0a93 633c bf11 193c f1af 313c 647c 46ba
00000090: 988f 0080 acbc 093d 17d0 0a3b c489 0000
000000a0: 6d89 0000 723b c33c b685 3bbc 4478 163c
000000b0: 9df9 07bd 6a86 253d 43f8 56bd e8b3 57bd
000000c0: a6c4 8fbc f4a6 aabc e9da 40bd cd65 6211
000000d0: 40d3 4a3b c006 da9f 7efd 373c dfe4 633c
000000e0: 3e4a eebd 8073 c5bb e9b9 9720 4d79 88bd
000000f0: b910 56bc b48c 843a 72e5 b93b bc9b 63b9
00000100: 4e89 9ebc 06be 47bc 2ca0 6ebc 9f7f 3b3b
00000110: 3689 0080 3e4d 3cbd 13c8 42bb 8289 0000
00000120: 6189 0000 1767 fabc 5120 863c a651 44bc
00000130: b6b6 3a3d c24a 5fbd c193 943d bfcd 963d
00000140: 527c cc3c 9c64 003d 9114 8e3d d537 8311
00000150: 69a0 98bb 8421 771e a92e 7fbc 04a3 a4bc
00000160: 3a13 1e3e e5f5 053c 2526 cb2b a850 bf3d
00000170: 1077 983c 5e54 d9ba 3d10 c3bb 3842 aab6
00000180: cc87 233c 5707 f03b 2b94 053c f2dc 0939
00000190: 4689 0080 0cb0 cb3c 4229 cc3a e988 0000
000001a0: b589 0080 2eb6 963c 1741 06bc dc3e e33b
000001b0: 75e6 c8bc b83f f83c f8f3 1dbd 5f54 1dbd
000001c0: 2527 4fbc 8d01 6bbc 25ee 07bd edc6 250f
000001d0: eddb e83a 7bfa 6b9f 857e 063c f3f0 203c
000001e0: 4b6f b1bd 2c4c 91bb 6526 be96 f5f8 48bd
000001f0: 604f 16bc 319f 0d3a 41a0 9f3b 566a 87b9
00000200: 7231 8930 7937 5530 507f 4c30 0f5b 4930
00000210: bc9a 0080 b116 0531 038f d5b0 7d8b 0080
00000220: c889 0000 0839 b431 cf00 e730 4e04 2131
00000230: 0dd8 80b1 6d0a 1e31 4aa4 97b1 0602 88b1
00000240: ad7e ec2f bf8f b331 cd04 ab30 f819 a18c
00000250: b3d3 8db0 e5f3 5d94 eab9 8b30 3ea8 f0af
00000260: 47e4 2bb3 1bfa ec2e 0e63 0411 3994 d131
00000270: a2c4 aa2f 695c 02b1 492c 8431 8cae 9a30
00000280: 3dd8 d138 355e 9639 bdb5 d0b6 cc64 173a
00000290: 288d 0000 bcd7 d038 0d84 5339 e789 0080
000002a0: e69a 0080 b756 823a c71d 00b9 b0d3 4fb8
000002b0: 8b29 63bb 8d9a b73a 395a 2db9 f502 5d39
000002c0: a1ae 2db9 ec83 823a 03b0 793a acad 0000
000002d0: 78d8 8ab9 7c74 2d9d bc70 3d39 e627 27b9
000002e0: 8085 f13a 39b1 b4b9 3e64 0180 2c4d b13a
000002f0: 37e9 ccb9 7391 0cba a6c2 b339 1a0d 18b9
00000300: 8d72 8bbc 9c6e 33bc c0a4 54bc 4add f23a
00000310: e389 0080 7c94 26bd e63a 2abb 768a 0000
00000320: 8e89 0080 3cce e3bc aae7 683c 3b89 31bc
00000330: 7ce8 243d 8a88 46bd 7f11 833d 2873 843d
00000340: c212 b23c 6f5b da3c d0c1 763d e1ed 4a91
00000350: 1db7 83bb edd6 791f a79b 60bc 205d 8ebc
00000360: 7d36 0e3e 54e2 ee3b 5e8f df28 41e4 a53d
00000370: 1f2d 853c f053 b4ba 7876 c2bb 1bcf 0539
00000380: 2b9f 913c f7f6 393c e9ec 5c3c 5dd7 0bbb
00000390: 308d 0080 e68f 2d3d 76c2 323b c78a 0000
000003a0: df88 0000 4a3f eb3c c2fb 72bc d414 383c
000003b0: 68ca 2bbd 6ca5 4e3d 5c3f 88bd 9cba 89bd
000003c0: dcee b9bc 02f7 e3bc 1b17 81bd 5a49 9191
000003d0: 549a 8a3b 7f02 7a9f 0871 6a3c 3879 953c
000003e0: 9fc3 13be 1812 f7bb 853a d6a9 2d03 adbd
000003f0: 5cdb 8abc 82da bf3a 0904 c23b c015 7eb8

attention.query_conv.bias f4 [32]
0.029266637 -0.017868647 0.028081404 -0.012489573 2.0177389e-08 0.0008784665 0.024927603 -0.021035522
-0.009548432 -0.020770973 -4.784392e-07 -0.007983833 -0.034415394 0.034576815 -2.6085604e-06 2.3999132e-07
0.13455568 -0.14534748 -0.13324888 0.14689203 0.1413402 -0.14253521 -0.17300732 0.15075348
0.0809262 0.07998194 -0.068167955 0.027111707 0.09432728 0.03905127 0.0719094 -0.056937814
00000000: 96c0 ef3c 4561 92bc f90a e63c 11a1 4cbc
00000010: 8c52 ad32 e448 663a f934 cc3c b052 acbc
00000020: 0771 1cbc e327 aabc 176e 00b5 9fce 02bc
00000030: 28f7 0cbd 6ba0 0d3d ba0e 2fb6 28d8 8034
00000040: f7c8 093e f8d5 14be 6572 08be dd6a 163e
00000050: 7cbb 103e c0f4 11be d528 31be 1f5f 1a3e
00000060: a3bc a53d 92cd a33d a49b 8bbd 5f19 de3c
00000070: a92e c13d 39f4 1f3d 3c45 933d a037 69bd

attention.key_conv.weight f4 [32, 32, 1, 1]
0.017307764 0.00013421406 0.003463141 0.014352053 -5.0173e-41 0.0077875243 -0.0017865858 -4.9257e-41
4.9494e-41 0.04504696 0.041763317 0.022406051 0.014186097 -0.011359096 -0.04690332 -0.05730543
0.019473748 0.08582412 0.07233507 -1.4072877e-28 -0.0019683014 5.6128288e-21 -0.0022106015 0.02154766
0.14590375 0.01469082 2.2208557e-25 0.11447971 -0.00975812 -0.00062225 0.041321743 0.02176112
-0.012655613 -0.00025533326 -0.002792384 -0.010472405 5.167e-41 -0.005610496 0.0012898562 -5.0063e-41
-4.9198e-41 -0.031944837 -0.029567216 -0.015732035 -0.010265798 0.008396727 0.034077406 0.041700523
-0.01398155 -0.06213258 -0.051978122 8.5028176e-29 0.0016950661 -4.1028756e-21 0.0018179377 -0.015674157
-0.10750907 -0.010777586 1.568372e-26 -0.08347633 0.00723264 0.0010000346 -0.028949821 -0.015554923
0.017278748 0.00012489567 0.003464826 0.0144197205 -4.9379e-41 0.0076862564 -0.00178994 5.033e-41
5.0328e-41 0.045068476 0.04174861 0.022355897 0.014240626 -0.011427373 -0.046960726 -0.057375245
0.019457748 0.08630233 0.073406786 -1.4158082e-28 -0.0019659232 5.4936514e-21 -0.002243909 0.021495823
0.14582796 0.014658163 2.0608339e-25 0.11451444 -0.009767072 -0.0006216163 0.04133624 0.021720769
-0.009449115 -0.00043543437 -0.002300233 -0.007592138 -4.9341e-41 -0.004357242 0.0009858371 4.9428e-41
4.9214e-41 -0.02297707 -0.021313237 -0.011362115 -0.007470132 0.006113866 0.024841733 0.030442402
-0.010221292 -0.04525167 -0.037336174 -4.8511446e-29 0.0015090684 3.745541e-21 0.0014522603 -0.011639371
-0.079978704 -0.00804996 -3.9519278e-26 -0.061475042 0.00541992 0.0012823645 -0.02069704 -0.011384979
-2.3540294e-09 1.2726552e-10 -5.2155563e-10 -5.5862037e-10 -5.7417e-41 -1.893556e-09 3.8985049e-10 -5.2096e-41
5.4949e-41 -2.5304927e-09 -1.5744179e-09 -1.2679197e-09 -3.4707492e-10 2.0175526e-09 3.3984842e-09 3.259156e-09
-4.7124854e-10 -3.4268608e-09 -2.4346525e-09 -1.6844941e-31 1.4715068e-10 -3.1040188e-27 4.0546852e-10 -3.037762e-09
-2.0350107e-08 -1.3486087e-09 7.154215e-29 -6.221081e-09 -3.9324144e-10 -3.033919e-10 -1.6538326e-09 -1.4145527e-09
0.0011555195 2.9533852e-05 0.0004772918 -0.0006559683 -6.095e-41 0.0020358656 0.00042011944 -4.9944e-41
6.1403e-41 0.00039771755 0.00022507802 0.0008560419 -0.00047109093 -0.00053572573 0.00014330723 9.437691e-05
0.0001673896 -0.00066296384 -0.0009168157 3.5261e-41 5.994762e-05 1.2287483e-22 -0.0006960825 0.001721431
-0.0013102498 0.0006221034 5.1082e-41 -0.0009797245 -0.0014693071 0.00014370428 0.0002453684 0.0007470095
0.015367791 0.00016609763 0.0031626725 0.012723921 -4.9798e-41 0.0068880594 -0.0015714696 5.0668e-41
-4.9558e-41 0.039556455 0.036647055 0.019585134 0.012523208 -0.010121322 -0.041586403 -0.050854117
0.017161023 0.07618415 0.06438447 1.2776132e-28 -0.0018533813 5.9857927e-21 -0.0020305587 0.019103413
0.12858479 0.013061154 -2.0052932e-26 0.101869404 -0.008698404 -0.0007538649 0.036106635 0.019151255
-0.015773086 -0.00012423002 -0.0032575547 -0.013363313 4.9634e-41 -0.0067967502 0.0016290749 -4.9965e-41
4.9173e-41 -0.040924586 -0.037834536 -0.02011061 -0.013114947 0.010691416 0.043086026 0.052658733
-0.017705757 -0.078961745 -0.06720035 2.9001095e-29 0.001882222 -5.7396827e-21 0.0021969343 -0.019564081
-0.13498853 -0.013393656 -1.2269168e-25 -0.105593145 0.00901044 0.00072489737 -0.037347607 -0.01967944
00000000: 03c9 8d3c d0bb 0c39 ddf5 623b e024 6b3c
00000010: dd8b 0080 7d2e ff3b df2b eaba 4f89 0080
00000020: f889 0000 2983 383d 0310 2b3d e58c b73c
00000030: ce6c 683c 801b 3abc b21d 40bd 19b9 6abd
00000040: 6987 9f3c 8ec4 af3d 6924 943d 1965 3291
00000050: 9efe 00bb f30b d41d bddf 10bb b884 b03c
00000060: cb67 153e c4b1 703c dd76 8916 5774 ea3d
00000070: 86e0 1fbc 7e1e 23ba fd40 293d 6044 b23c
00000080: 7d59 4fbc 40de 85b9 6e00 37bb 7394 2bbc
00000090: 0990 0000 40d8 b7bb 6410 a93a 8e8b 0080
000000a0: 2589 0080 97d8 02bd f236 f2bc 78e0 80bc
000000b0: e131 28bc 6d92 093c c094 0b3d 2bce 2a3d
000000c0: df12 65bc bb7e 7ebd 03e7 54bd 7192 d710
000000d0: fb2c de3a 9400 9b9d de47 ee3a 1767 80bc
000000e0: b72d dcbd 7994 30bc f452 9b14 a3f5 aabd
000000f0: c8ff ec3b 9813 833a 2d28 edbc 13da 7ebc
00000100: 298c 8d3c 6df6 0239 2212 633b b140 6c3c
00000110: a689 0080 fedc fb3b 6c9c eaba 4d8c 0000
00000120: 4b8c 0000 b999 383d 9700 2b3d b723 b73c
00000130: 8451 693c e039 3bbc e459 40bd 4e02 6bbd
00000140: db65 9f3c 47bf b03d 4c56 963d 9a79 3391
00000150: b8d6 00bb 568b cf1d 8c0e 13bb 0218 b03c
00000160: ed53 153e cb28 703c 6f1e 7f16 8c86 ea3d
00000170: 1206 20bc f7f3 22ba 3050 293d c1ef b13c
00000180: 76d0 1abc 034b e4b9 82bf 16bb 78c7 f8bb
00000190: 8b89 0080 32c7 8ebb 3437 813a c989 0000
000001a0: 3089 0000 693a bcbc 1999 aebc 2a28 3abc
000001b0: 02c8 f4bb d356 c83b e480 cb3c 5862 f93c
000001c0: 3577 27bc d159 39bd d1ed 18bd 75fb 7590
000001d0: efcb c53a a680 8d1d c559 be3a 0fb3 3ebc
000001e0: e0cb a3bd fbe3 03bc a3b0 4395 41cd 7bbd
000001f0: 9699 b13b 0315 a83a d78c a9bc 1088 3abc
00000200: 86c4 21b1 0fee 0b2f 375d 0fb0 6a8d 19b0
00000210: 0ea0 0080 ca1f 02b1 9452 d62f 3991 0080
00000220: 2d99 0000 e6e4 2db1 e862 d8b0 f542 aeb0
00000230: 74ce beaf 29a5 0a31 c48a 6931 aef7 5f31
00000240: 2b89 01b0 f97d 6bb1 dc4e 27b1 eba8 5a8c
00000250: 3ccb 212f fbec 7593 9fe8 de2f e0c0 50b1
00000260: 5cce aeb2 f359 b9b0 8361 b510 35c1 d5b1
00000270: d02f d8af 9dca a6af 104d e3b0 266a c2b0
00000280: cd74 973a 77bf f737 053d fa39 4af5 2bba
00000290: e7a9 0080 286c 053b 7a43 dc39 398b 0080
000002a0: 2bab 0000 bf84 d039 ec02 6c39 0068 603a
000002b0: c1fc f6b9 f26f 0cba be44 1639 38ec c538
000002c0: 4e85 2f39 c0ca 2dba 7656 70ba 4b62 0000
000002d0: 4470 7b38 eb8b 141b 4e79 36ba a4a1 e13a
000002e0: b0bc abba a714 233a 658e 0000 196a 80ba
000002f0: c495 c0ba 53af 1639 caa4 8039 f5d2 433a
00000300: 30c9 7b3c 7e2a 2e39 d744 4f3b fe77 503c
00000310: d18a 0080 3bb5 e13b c5f9 cdba 3e8d 0000
00000320: 268a 0080 f305 223d 391b 163d 0171 a03c
00000330: 242e 4d3c e7d3 25bc 8156 2abd 684c 50bd
00000340: 4695 8c3c 7006 9c3d 01dc 833d ebf4 2111
00000350: 28ed f2ba 0923 e21d 1f13 05bb c37e 9c3c
00000360: bbab 033e 73fe 553c 3998 c694 e8a0 d03d
00000370: c083 0ebc 049f 45ba 8de4 133d 18e3 9c3c
00000380: 8f36 81bc be43 02b9 b37c 55bb ccf1 5abc
00000390: 5c8a 0000 46b7 debb af86 d53a 488b 0080
000003a0: 1389 0000 8aa0 27bd 63f8 1abd 02bf a4bc
000003b0: 13e0 56bc 0d2b 2f3c f97a 303d afb0 573d
000003c0: aa0b 91bc b2b6 a1bd 56a0 89bd 930d 1310
000003d0: e4b4 f63a ced6 d89d 71fa 0f3b da44 a0bc
000003e0: 6f3a 0abe 1171 5bbc 8ce2 1796 3841 d8bd
000003f0: 86a0 133c 0a07 3e3a cef9 18bd c736 a1bc

attention.key_conv.bias f4 [32]
-1.0110252e-07 -8.137719e-08 -6.343889e-07 5.343807e-08 3.2290793e-14 -5.899174e-09 -1.0584698e-07 -3.9103686e-08
-1.1415374e-07 2.4440166e-07 9.5784085e-14 2.2150165e-07 -1.7288721e-07 -2.2366635e-07 5.1719233e-11 -1.07325166e-13
-2.6164082e-06 4.3115745e-07 5.233782e-08 -6.9316707e-07 -5.664512e-07 2.3126568e-06 6.2741793e-07 -2.0036634e-07
1.1127514e-06 -1.5064388e-06 -2.356509e-06 4.1911456e-08 -4.785029e-07 1.3057573e-06 1.1291133e-06 -1.8138558e-06
00000000: b31d d9b3 95c1 aeb3 e04a 2ab5 c883 6533
00000010: c06c 1129 afb1 cab1 fe4d e3b3 f5f2 27b3
00000020: af24 f5b3 4f36 8334 c4af d729 e9d5 6d34
00000030: e0a2 39b4 f028 70b4 ae76 632e bfac f1a9
00000040: 8d95 2fb6 d479 e734 0bca 6033 1412 3ab5
00000050: 3b0e 18b5 2433 1b36 d56b 2835 4824 57b4
00000060: d959 9535 d830 cab5 8424 1eb6 2202 3433
00000070: 7872 00b5 7b41 af35 0a8c 9735 9c73 f3b5

attention.value_conv.weight f4 [32, 32, 1, 1]
0.04497432 0.011329424 -0.00789147 -0.019203102 -1.9344274e-15 0.08544859 -0.0016370404 -4.1452877e-31
-7.3729498e-06 0.15300322 0.100346304 0.048239257 -0.013081785 0.023891065 0.016641209 -0.110714786
-0.025895681 0.11408849 -0.07980281 -0.00019914517 -0.013388762 -4.669261e-19 -0.0050005796 0.092007995
-0.07695288 0.1008555 0.002140152 -0.09931598 -0.04173268 0.004188103 0.11842347 0.102536514
-0.033303272 0.0046590436 0.010345735 0.013524629 4.9258e-41 -0.022440927 -0.0021334034 4.9205e-41
-5.941104e-11 -0.07135007 0.038310174 -0.0696102 -0.016848799 -0.017273216 0.051179327 0.075863056
0.0023070427 -0.10800164 -0.03883812 1.0868307e-25 0.0005069161 3.0498596e-19 -0.0034749603 -0.004709416
-0.033931345 0.019846737 -0.00013279107 -0.038021035 0.009941742 -0.0017531815 -0.015471513 0.004709852
-0.011164119 0.00083730003 0.0005853427 0.0068450863 4.9722e-41 -0.0143108945 -0.00053691765 4.931e-41
-3.3034118e-21 -0.031396624 0.013569128 -0.02773015 -0.0015851959 -0.0051419334 0.013412955 0.012288048
-0.010005835 -0.020860195 0.025391137 -1.5965202e-28 0.00037333134 1.4348789e-19 -0.0047390773 -0.008499885
0.040404256 0.0027870059 -5.879435e-16 -0.106220216 0.00036855292 6.8902686e-05 -0.0120053645 -0.009904181
-0.012193612 0.0038010338 -0.006397056 0.0010514084 -4.9658e-41 -0.0014908233 0.0049470216 -4.926e-41
3.366559e-24 -0.029891232 -0.033502802 -0.01961647 -0.003180185 0.03672811 0.052264143 0.069089815
-0.011875494 -0.060753178 -0.060724158 8.125896e-29 0.0044696606 5.770473e-20 0.0028296371 -0.015958453
-0.027942609 -0.0067069973 -2.2104446e-07 -0.03728828 0.015970668 0.0014344543 -0.032134555 -0.018651899
0.0017910092 -5.7477673e-06 0.0010178532 -0.0004297327 -4.9626e-41 0.003188036 4.656992e-05 4.9364e-41
4.9617e-41 0.0033009409 0.0064861258 0.003506044 -0.00062717125 0.0010687393 0.00013019469 0.00013994527
-0.000842664 0.009657075 -0.0046709133 -2.5844327e-30 -0.0005325095 -1.0008018e-20 0.00043485075 0.0015494827
-0.0112824105 7.70745e-05 9.6270674e-27 0.030073278 -0.0007173642 -2.19597e-05 -0.0008743274 0.0014707196
3.0298906e-05 1.3591369e-05 2.8956038e-05 0.00016485785 4.9326e-41 0.00017604613 -2.7248122e-06 4.9574e-41
-5.0175e-41 0.00017099078 0.00053081824 0.00021290558 0.00019520202 0.00022025855 0.00016580264 0.00069974415
0.0001403007 0.0005354113 -0.001156209 1.6183821e-29 7.898674e-06 1.7389348e-21 0.00012701706 5.898333e-05
-0.00164552 0.0001244243 5.886743e-27 0.0028009112 2.2488116e-06 3.8866838e-05 0.00053665525 0.00011151452
0.0025533799 0.00019480052 -0.00028851884 -0.0008742648 5.0141e-41 0.006230968 0.0003269515 -4.9124e-41
4.9132e-41 0.001116208 0.013825741 0.0087121595 -0.0017637138 0.003964322 0.0048507266 0.008002009
0.0039797327 -0.0011950138 0.00093107315 3.7630246e-29 -0.00024630624 1.9932513e-20 0.0025348945 0.0022914256
0.016992824 0.0041852985 1.3894873e-27 0.00097639463 0.0008021708 8.164336e-05 -0.0071306834 0.0022092676
-0.09161922 -0.016978156 0.018768655 0.048993256 3.80567e-11 -0.0922829 0.0034387163 3.844356e-27
8.246134e-06 -0.07473172 -0.10360477 0.017723 -0.01857086 -0.0015720756 0.15867415 0.23406953
-0.09079524 -0.19768664 -0.16216514 0.0004111141 0.020951396 6.560963e-19 0.037541185 -0.13806318
-0.07814258 -0.1085545 -0.0021743933 -0.13439614 0.06282711 -0.006115037 -0.12098682 -0.12930469
00000000: fe36 383d 0c9f 393c 394b 01bc d34f 9dbc
00000010: e363 0ba7 acff ae3d f691 d6ba b485 068d
00000020: 2865 f7b6 e0ac 1c3e 5d82 cd3d 8796 453d
00000030: fc54 56bc 32b7 c33c 2553 883c 6fbe e2bd
00000040: 2e23 d4bc 3aa7 e93d a86f a3bd a0d1 50b9
00000050: 8a5c 5bbc f0cf 09a1 e7db a3bb b06e bc3d
00000060: 7999 9dbd 548d ce3d cb41 0c3b 2d66 cbbd
00000070: e3ef 2abd 5b3c 893b 0188 f23d aafe d13d
00000080: 0369 08bd e4aa 983b 2881 293c 6896 5d3c
00000090: 5089 0000 09d6 b7bc 92d0 0bbb 2a89 0000
000000a0: 71a5 82ae fc1f 92bd 21eb 1c3d cb8f 8ebd
000000b0: 7e06 8abc 8f80 8dbc 6aa1 513d 175e 9b3d
000000c0: c131 173b f72f ddbd b814 1fbd 0a8b 0616
000000d0: 90e2 043a 2d08 b420 29bc 63bb 7251 9abb
000000e0: 98fb 0abd a095 a23c d53d 0bb9 f2bb 1bbd
000000f0: b0e2 223c 02cb e5ba 3b7c 7dbc 1a55 9a3b
00000100: b5e9 36bc 417e 5b3a af71 193a bf4c e03b
00000110: 9b8a 0000 3e78 6abc efbf 0cba 7589 0000
00000120: 4799 799d bf99 00bd 0c51 5e3c 572a e3bc
00000130: 59c6 cfba aa7d a8bb 03c2 5b3c cf53 493c
00000140: 84ef 23bc 00e3 aabc 1301 d03c 0b62 4a91
00000150: afbb c339 8e66 2920 434a 9bbb 1a43 0bbc
00000160: ef7e 253d 33a6 363b 9376 29a6 fc89 d9bd
00000170: 563a c139 d97f 9038 26b2 44bc 2545 22bc
00000180: b7c7 47bc c41a 793b 659e d1bb 69cf 893a
00000190: 6d8a 0080 bb67 c3ba a01a a23b 5189 0080
000001a0: c93c 8218 75de f4bc 3c3a 09bd b8b2 a0bc
000001b0: a76a 50bb 3770 163d ed12 563d f67e 8d3d
000001c0: 6f91 42bc 53d8 78bd e5b9 78bd 1504 ce10
000001d0: 3b76 923b 5e40 881f 6f71 393b 4dbb 82bc
000001e0: e6e7 e4bc 5fc6 dbbb 3d58 6db4 98bb 18bd
000001f0: ebd4 823c 4d04 bc3a 869f 03bd decb 98bc
00000200: 4cc0 ea3a f2dc c0b6 7c69 853a bf4d e1b9
00000210: 568a 0080 5eee 503b 1254 4338 9b89 0000
00000220: 508a 0000 9954 583b 9189 d43b a8c5 653b
00000230: c068 24ba f114 8c3a df84 0839 46be 1239
00000240: 39e6 5cba b538 1e3c 760e 99bb 91ac 518e
00000250: 1c98 0bba ce0b 3d9e aefc e339 0318 cb3a
00000260: dcd9 38bc 0fa3 a138 08af 3e14 3c5c f63c
00000270: 7f0d 3cba 1936 b8b7 1e33 65ba 29c5 c03a
00000280: 682a fe37 7c06 6437 9ee6 f237 b1dd 2c39
00000290: 8089 0000 0699 3839 ebdb 36b6 318a 0000
000002a0: de8b 0080 fd4b 3339 9c26 0b3a 683f 5f39
000002b0: 25af 4c39 34f5 6639 4fdb 2d39 096f 373a
000002c0: af1d 1339 d85a 0c3a f08b 97ba 9a1f a40f
000002d0: 8c84 0437 e463 031d e22f 0539 de64 7738
000002e0: 7dae d7ba e577 0239 ab32 e913 7e8f 373b
000002f0: 4aea 1636 f304 2338 53ae 0c3a e7dc e938
00000300: 9b56 273b 5e43 4c39 5844 97b9 eb2e 65ba
00000310: c68b 0000 262d cc3b b06a ab39 f088 0080
00000320: f688 0000 ba4d 923a 5c85 623c 72bd 0e3c
00000330: 6a2c e7ba 25e7 813b d8f2 9e3b dc1a 033c
00000340: 6b68 823b 02a2 9cba 4313 743a dace 3e10
00000350: aa22 81b9 dc41 bc1e 7920 263b be2b 163b
00000360: 8934 8b3c d424 893b 4d2c dc12 bcf4 7f3a
00000370: c548 523a f237 ab38 82a8 e9bb 5cc9 103b
00000380: dca2 bbbd c615 8bbc b9c0 993c 27ad 483d
00000390: 0960 272e d1fe bcbd 165c 613b 674a 9813
000003a0: e058 0a37 f20c 99bd bd2e d4bd d32f 913c
000003b0: eb21 98bc 1b0e ceba 7a7b 223e ecaf 6f3e
000003c0: dbf2 b9bd 5e6e 4abe 9e0e 26be cd8a d739
000003d0: 43a2 ab3c 3ca5 4121 c9c4 193d 6f60 0dbe
000003e0: 3809 a0bd d251 debd 4480 0ebb 249f 09be
000003f0: 80ab 803d a660 c8bb f0c7 f7bd 7368 04be

attention.value_conv.bias f4 [32]
0.112610884 0.14309059 0.042015504 -0.014525856 -0.017354626 -0.00034340436 -0.049641304 0.16692652
0.05871887 0.037409913 -0.09834404 -0.10442812 0.06724124 -0.0029911934 -0.053043857 -0.108369485
-0.2098804 0.06811643 0.065303735 0.016655961 -0.070886485 -0.10922566 0.00694972 -0.17857504
-0.087321416 0.14586215 0.084792815 0.16539222 -0.045085482 -0.028003717 0.030093348 0.05022601
00000000: 89a0 e63d 5786 123e 7318 2c3d dbfd 6dbc
00000010: 4a2b 8ebc f40a b4b9 ae54 4bbd c9ee 2a3e
00000020: 3383 703d 233b 193d 9a68 c9bd 69de d5bd
00000030: c6b5 893d e607 44bb 8444 59bd d2f0 ddbd
00000040: e3ea 56be a080 8b3d f7bd 853d 1572 883c
00000050: ef2c 91bd b4b1 dfbd 7aba e33b 60dc 36be
00000060: 92d5 b2bd e35c 153e dba7 ad3d 945c 293e
00000070: 8eab 38bd 0d68 e5bc 5386 f63c cab9 4d3d

attention.out_conv.weight f4 [32, 32, 1, 1]
0.0016409747 -0.017016439 -0.0061183823 0.010405774 0.0013617711 0.00017944821 0.0021615943 -0.026929716
0.009165424 -0.017120497 -0.02804317 -0.010760253 0.064841285 -0.048337344 -0.001372153 -0.062166102
-0.014356174 -0.018786877 -0.012071584 -0.010307253 0.044537764 -0.0072411485 -0.0028529125 0.023721766
0.014642713 -0.020354426 -0.03644581 0.04166402 0.016373059 -0.034521136 0.0074172234 0.023094974
0.021557905 -0.06800642 -0.017524924 -0.03984005 0.015597226 -0.0005598349 -0.003106116 -0.087643355
0.009907921 0.036793787 0.037567884 0.0016783777 -0.17009479 0.21300231 0.06583242 0.1880459
-0.06709714 0.07993604 0.09630716 0.00566161 0.076565094 -0.115684025 -0.011700903 0.02468171
0.037879154 -0.15083587 -0.052855253 -0.2914435 -0.16408847 0.21691923 0.10234195 0.2148997
-0.08633694 0.027315715 0.012114988 -0.020043638 0.0037416278 0.00020279147 -0.009078022 0.17669524
-0.03906679 0.00853847 0.13992654 0.050807055 -0.030363696 0.062338613 0.069667354 0.07634211
0.14684702 -0.059899528 -0.06232878 7.5960226e-05 -0.0030980501 -0.004440592 -0.004014371 -0.00015591815
0.0073865084 -0.15157785 -0.031035243 -0.175421 0.09467999 0.033112943 0.04345805 0.10888816
-0.019276515 0.05539925 0.015986681 0.04529094 -0.005420189 -0.00018781215 -0.0049545947 0.17024685
-0.020909654 0.021621816 0.025198251 0.02279857 -0.056148987 0.032597624 0.0052870736 0.027968349
0.12112652 -0.08247685 -0.10133553 0.036501363 -0.020840788 0.11671961 0.008857231 0.043693338
-0.0117457425 0.06999523 0.054312903 0.029563213 0.0066655455 -0.018874569 -0.008828095 -0.078065105
-0.0056278454 -0.001083846 -0.00039184385 0.004334456 0.0007001265 8.76889e-05 0.0005172144 0.012136932
-0.0012294167 -0.0049960315 -0.008046816 0.0012209545 0.015731381 -0.024139835 0.0015935058 -0.0116084665
-0.011184518 -0.0018610284 -0.0018010527 -0.003028378 0.030082824 2.5278587e-05 5.9925274e-05 0.007965909
0.0005196029 -0.0068088174 -0.0040317765 -0.0062258253 0.00953293 0.00039270247 -0.0053163036 0.008123269
-0.013035736 -0.020981856 -0.006156598 -0.018644612 0.0003571626 -5.160076e-05 0.0012453113 -0.03387348
-0.0072721164 0.0046175136 0.04106852 0.036777556 -0.13830446 0.10576576 0.008483828 0.031897996
0.036837976 -0.02629009 -0.010482024 -0.007933809 0.05258726 0.00646024 -0.0055127405 0.036786273
0.02893631 -0.13939022 -0.058276564 -0.18137464 -0.029602176 0.07079884 0.062371355 0.120666996
0.022853382 0.0028902392 0.0011717948 -0.006542144 -0.00078310363 -0.00024968063 -0.0010050263 0.011067816
0.010946226 -0.01343753 -0.03742329 -0.022944361 0.06684622 -0.04667423 0.0020704332 -0.040327523
-0.01776289 0.02752894 0.024867369 -0.012885956 0.0729282 -0.051428583 -0.0041254344 -0.03082845
0.0073835813 -0.0356623 -0.030520057 -0.04029107 -0.0056950543 -0.028847896 -0.00976217 0.041356996
-0.03355025 -0.02752523 0.005242546 0.045794636 -0.00077732804 0.00037446417 -0.0024284453 -0.0434745
0.0076672644 -0.0148198195 0.014572349 -4.4348697e-05 0.11457216 -0.106074125 0.009809495 -0.059771623
0.07346994 0.0020345864 0.014129153 -0.023769116 0.10695583 -0.075524285 -0.009481723 0.031242358
0.008413647 -0.038741987 -0.026220854 -0.036117777 0.03389939 0.016385842 -0.08646834 -0.026455631
00000000: f915 d73a 0f66 8bbc b67c c8bb fb7c 2a3c
00000010: 757d b23a 432a 3c39 89a9 0d3b b59b dcbc
00000020: 932a 163c 4940 8cbc caba e5bc c64b 30bc
00000030: 82cb 843d 61fd 45bd d1d9 b3ba e2a1 7ebd
00000040: 2836 6bbc f0e6 99bc e5c7 45bc c1df 28bc
00000050: 3b6d 363d 2847 edbb eef7 3abb 2654 c23c
00000060: fde7 6f3c 53be a6bc 3448 15bd e4a7 2a3d
00000070: cb20 863c 0966 0dbd 2e0c f33b ac31 bd3c
00000080: 349a b03c f346 8bbd 6e90 8fbc 522f 23bd
00000090: 828b 7f3c e2c1 12ba fb8f 4bbb 5c7e b3bd
000000a0: d554 223c 15b5 163d c8e0 193d 03fd db3a
000000b0: 542d 2ebe 471d 5a3e 26d3 863d 1b8f 403e
000000c0: 3a6a 89bd 82b5 a33d b03c c53d 0785 b93b
000000d0: 29ce 9c3d bfeb ecbd 25b5 3fbc 4c31 ca3c
000000e0: 2c27 1b3d b874 1abe c07e 58bd 1538 95be
000000f0: cf06 28be 1320 5e3e a898 d13d ab0e 5c3e
00000100: 6cd1 b0bd 35c5 df3c f17d 463c 8e32 a4bc
00000110: 1936 753b 6ca4 5439 fcbb 14bc 99ef 343e
00000120: 8004 20bd f0e4 0b3c e748 0f3e 0f1b 503d
00000130: 49bd f8bc c656 7f3d c2ad 8e3d 4159 9c3d
00000140: 115f 163e 3559 75bd 764c 7fbd d64c 9f38
00000150: a808 4bbb 6382 91bb fc8a 83bb f67d 23b9
00000160: 860a f23b 3937 1bbe 9f3d febc 90a1 33be
00000170: 95e7 c13d 70a1 073d 1101 323d c100 df3d
00000180: c8e9 9dbc 53ea 623d 80f6 823c fe82 393d
00000190: d79b b1bb 71ef 44b9 275a a2bb 3155 2e3e
000001a0: b94a abbc 3c20 b13c 906c ce3c 11c4 ba3c
000001b0: 7bfc 65bd 1685 053d 303f ad3b e11d e53c
000001c0: 2e11 f83d 9fe9 a8bd 0189 cfbd 7482 153d
000001d0: 4dba aabc b10a ef3d eb1d 113c c9f7 323d
000001e0: 3771 40bc a959 8f3d 3577 5e3d 8d2e f23c
000001f0: a66a da3b d79e 9abc b7a3 10bc 99e0 9fbd
00000200: ca69 b8bb d60f 8eba 6470 cdb9 0d08 8e3b
00000210: b288 373a 9fe5 b738 ac95 073a fcd9 463c
00000220: 6124 a1ba c0b5 a3bb cbd6 03bc 6f08 a03a
00000230: 19df 803c e7c0 c5bc 2fdd d03a 7031 3ebc
00000240: 453f 37bc c0ed f3ba 4d11 ecba c077 46bb
00000250: 4170 f63c 5a0d d437 4658 7b38 7283 023c
00000260: f635 083a 801c dfbb fe1c 84bb 0202 ccbb
00000270: 0230 1c3c a2e3 cd39 6334 aebb 7617 053c
00000280: d793 55bc 24e2 abbc 4abd c9bb 96bc 98bc
00000290: 8d41 bb39 e56d 58b8 b739 a33a ebbe 0abd
000002a0: ef4a eebb 834e 973b 7737 283d 10a4 163d
000002b0: af9f 0dbe b89b d83d c1ff 0a3c 79a7 023d
000002c0: 6be3 163d 515e d7bc ccbc 2bbc cffc 01bc
000002d0: bd65 573d 6cb0 d33b 38a4 b4bb 34ad 163d
000002e0: d70b ed3c 4fbc 0ebe 68b3 6ebd 46ba 39be
000002f0: 4380 f2bc fbfe 903d 1b79 7f3d 4220 f73d
00000300: 0437 bb3c 2b6a 3d3b e996 993a 7b5f d6bb
00000310: 3249 4dba 91e7 82b9 16bb 83ba c955 353c
00000320: cd57 333c 1629 5cbc 2a49 19bd d0f5 bbbc
00000330: ace6 883d 7a2d 3fbd 1bb0 073b 792e 25bd
00000340: 7b83 91bc 5f84 e13c a7b6 cb3c 9e1f 53bc
00000350: 615b 953d c7a6 52bd a72e 87bb f28b fcbc
00000360: f8f1 f13b a212 12bd 3305 fabc 4008 25bd
00000370: 949d babb 6c52 ecbc 82f1 1fbc f465 293d
00000380: fd6b 09bd 977c e1bc aac9 ab3b 2893 3b3d
00000390: 9ac5 4bba bb53 c439 8d26 1fbb 5112 32bd
000003a0: ad3d fb3b d4ce 72bc ddc0 6e3c 0d03 3ab8
000003b0: cfa4 ea3d 643d d9bd 01b8 203c 17d3 74bd
000003c0: 6877 963d b256 053b f77d 673c 73b7 c2bc
000003d0: a80b db3d 7aac 9abd 3b59 1bbc f9ef ff3c
000003e0: 65d9 093c ebaf 1ebd 1ecd d6bc 3cf0 13bd
000003f0: 16da 0a3d 9a3b 863c 5016 b1bd 7bb9 d8bc

attention.out_conv.bias f4 [32]
-0.11680071 -0.052625198 -0.06223746 0.07728146 -0.0012626025 -0.15115699 -0.049359143 -0.11542229
-0.070399106 0.0027482042 -0.030980792 0.0930929 -0.024981702 0.06072615 -0.10463688 -0.006341541
0.14568418 -0.009134017 -0.00030664942 -0.22871691 0.030186456 -0.0087998975 0.024374213 0.0021635292
-0.10288025 -0.03252731 -0.26856226 0.012696252 -0.024739388 0.08322096 0.038444076 0.08009898
00000000: 3635 efbd 858d 57bd b5ec 7ebd be45 9e3d
00000010: e97d a5ba e6c8 1abe d02c 4abd 8662 ecbd
00000020: 682d 90bd 371b 343b 6ecb fdbc 7ea7 be3d
00000030: 6da6 ccbc fcbb 783d dc4b d6bd b4cc cfbb
00000040: 3c2e 153e d8a6 15bc cac5 a0b9 c434 6abe
00000050: 9649 f73c 722d 10bc 6eac c73c ffc9 0d3b
00000060: e1b2 d2bd 5b3b 05bd fe80 89be f103 503c
00000070: 42aa cabc c06f aa3d 8977 1d3d ef0a a43d

decoder.0.weight f4 [32, 16, 3, 3]
-0.031278536 -0.020230962 -0.020323249 -0.0066061066 0.012445218 -0.004882866 -0.04191723 -0.015541185
-0.027037747 -0.021158991 -0.05216378 -0.054448113 0.018467106 -0.009502345 -0.01668793 0.06889976
0.022109542 0.05253413 0.0051824544 -0.050682105 0.030698033 0.06562317 -0.04111235 0.019330263
0.07168552 -0.008221684 -0.019238437 0.03309969 0.07214904 0.03735072 0.0028603578 -0.012729879
0.018771997 -0.006767412 -0.01523282 -0.023651505 1.1140242e-10 1.0977445e-08 7.540719e-08 3.474526e-10
2.429604e-08 1.2561298e-07 1.2623548e-09 4.188915e-08 1.5328831e-07 -0.04926074 -0.014583139 -0.0018460532
0.024329636 0.030290885 0.024563363 -0.0072049806 -0.04577676 -0.022977596 -0.020515757 -0.024643349
0.02136972 0.017596075 -0.010804184 0.033929944 0.03619582 0.027853679 0.07368501 -0.07368548
-0.023459041 0.03869938 -0.055017985 -0.00016548051 0.03101549 0.008624903 -0.012040321 -0.01169789
3.6914417e-13 3.8269152e-10 3.5169263e-12 9.922533e-13 2.938793e-11 6.2171335e-13 1.5976983e-13 1.1806295e-11
4.3984057e-13 0.056809053 0.01638392 0.022967787 0.025093608 -0.06053775 -0.06456815 0.06407723
0.013306244 0.036652375 1.0773984e-05 1.3418963e-05 4.9385812e-06 8.584326e-06 1.1871528e-05 4.4111553e-06
8.077644e-06 1.0367536e-05 4.4918124e-06 0.008627727 -0.033781376 -0.012910822 0.027504621 -0.006102761
-0.0005041707 0.0072434302 0.020284258 0.016176881 0.0005188424 0.0007254839 0.00063641375 0.0005954698
0.0007874454 0.000716348 0.000663478 0.000853927 0.0007688506 0.04359012 -0.05255832 -0.0020578199
0.046848044 -0.030501287 0.019828992 0.05452016 -0.024485482 0.01331603 -0.00915891 -0.009415594
0.039091997 -0.051161624 0.0124150235 -0.040517975 -0.016632302 -0.03843118 -0.05613472 0.021361079
-0.023573374 -0.024773799 0.039769456 -0.045839123 0.008874765 -0.008138464 -0.049455423 -0.013659844
-0.057067655 -0.0035881929 0.006292141 0.17423591 -0.043318875 0.031203624 0.062351756 0.008950037
-0.014208588 -0.16898844 -0.1143915 -0.006379265 -0.12631069 0.12693681 -0.007563318 -0.03721639
0.033441495 0.052735675 0.042849246 -0.06865333 0.044972204 0.040567666 -0.13840216 0.032808803
-0.014129326 -0.0373771 0.02900031 -0.08674359 -0.05858962 0.08139366 -0.08683388 -0.08296981
-0.16909103 -0.035009254 0.055349343 0.10435071 -4.9065e-41 -6.2357736e-13 -5.282345e-10 -3.268357e-34
-2.1743823e-10 -9.0808285e-09 -1.9023583e-15 -9.537079e-09 -4.02347e-08 0.049101193 -0.017300734 -0.07265095
0.06244554 -0.017720956 -0.06982777 0.08406749 -0.04806244 -0.06086217 -0.022111962 0.015314973
-0.017867098 -0.06127611 -0.034662705 -0.07277289 -0.013906111 0.031494025 -0.030776747 -0.05485535
-0.07219073 -0.060928598 0.07699216 -0.016909761 -0.15382653 -0.026806489 -0.059306063 -0.03842588
-1.6042875e-08 -2.7379067e-05 3.0428639e-24 -6.2666203e-07 -1.7600529e-06 -1.84098e-40 -3.5255974e-07 -6.487172e-07
1.55553e-40 0.06291968 -0.015271048 -0.025209177 -0.08906074 -0.16745934 -0.087667085 -0.019936465
-0.048947897 0.011725055 5.308295e-15 -6.400074e-17 -6.954996e-35 -4.6925727e-26 -3.3207696e-19 -2.494837e-39
6.1110166e-31 -9.352195e-19 -3.708152e-39 -0.018061334 0.027904758 0.033120308 -0.14247741 -0.08119332
-0.031809885 0.018678138 -0.005288604 -0.0024594327 -0.00020379221 -0.00017498029 -0.0001354077 -0.00018582284
00000000: ec1d 00bd 67bb a5bc f17c a6bc 0a78 d8bb
00000010: 07e7 4b3c 7300 a0bb 67b1 2bbd 74a0 7ebc
00000020: 447e ddbc 9f55 adbc b0a9 55bd fc04 5fbd
00000030: 5448 973c b9af 1bbc 20b5 88bc 511b 8d3d
00000040: 121f b53c 072e 573d 94d1 a93b 0a98 4fbd
00000050: 717a fb3c 7165 863d 6c65 28bd 805a 9e3c
00000060: dccf 923d 3eb4 06bc ed99 9dbc 8a93 073d
00000070: e0c2 933d 12fd 183d d774 3b3b fb90 50bc
00000080: bbc7 993c 2bc1 ddbb 1493 79bc cdc0 c1bc
00000090: fdf9 f42e 5097 3c32 8bef a133 9b03 bf2f
000000a0: 8fb3 d032 3ce0 0634 297f ad30 9ce9 3333
000000b0: 9297 2434 a1c5 49bd 1eee 6ebc 44f7 f1ba
000000c0: f24e c73c 9724 f83c 1b39 c93c c217 ecbb
000000d0: 6980 3bbd 833b bcbc a910 a8bc d9e0 c9bc
000000e0: 8d0f af3c a525 903c 0804 31bc 20fa 0a3d
000000f0: 1142 143d 662d e43c 2be8 963d 6ae8 96bd
00000100: 2d2d c0bc 3e83 1e3d 8a5a 61bd d684 2db9
00000110: 3214 fe3c 774f 0d3c c444 45bc 82a8 3fbc
00000120: 48cf cf2a 0b63 d22f 507b 772c b1a5 8b2b
00000130: de3f 012e 2bff 2e2b 85e2 332a d3b2 4f2d
00000140: b59b f72a 9cb0 683d 9237 863c f126 bc3c
00000150: 1c91 cd3c 6ff6 77bd 4e3c 84bd ec3a 833d
00000160: 6f02 5a3c cd20 163d e9c1 3437 0222 6137
00000170: 17b6 a536 6605 1037 d32b 4737 8903 9436
00000180: 3885 0737 3af0 2d37 60b8 9636 4f5b 0d3c
00000190: 575e 0abd ea87 53bc 5f51 e13c abf9 c7bb
000001a0: 532a 04ba 4c5a ed3b 2c2b a63c 6185 843c
000001b0: ed02 083a 662e 3e3a 01d5 263a 4d19 1c3a
000001c0: 916c 4e3a 4dc9 3b3a 41ed 2d3a 12da 5f3a
000001d0: b18c 493a 8e8b 323d 6547 57bd 7ddc 06bb
000001e0: bce3 3f3d d6dd f9bc 6970 a23c 8850 5f3d
000001f0: c795 c8bc 7a2b 5a3c 410f 16bc dd43 1abc
00000200: ee1e 203d da8e 51bd 6268 4b3c 2df6 25bd
00000210: 7740 88bc 036a 1dbd 85ed 65bd 6efd ae3c
00000220: f31c c1bc 6cf2 cabc 4ce5 223d cec1 3bbd
00000230: 7667 113c 3157 05bc c591 4abd 8acd 5fbc
00000240: c6bf 69bd e327 6bbb 4e2e ce3b e66a 323e
00000250: 226f 31bd be9e ff3c 8e64 7f3d 2da3 123c
00000260: 23cb 68bc 4e0b 2dbe 1746 eabd 2709 d1bb
00000270: 9757 01be b9fb 013e b6d5 f7bb 3770 18bd
00000280: f3f9 083d 5d01 583d b182 2f3d 1e9a 8cbd
00000290: c634 383d 482a 263d 4cb9 0dbe 8662 063d
000002a0: b07e 67bc bb18 19bd 0f92 ed3c a0a6 b1bd
000002b0: abfb 6fbd b8b1 a63d f6d5 b1bd 13ec a9bd
000002c0: 3326 2dbe dd65 0fbd feb5 623d d3b5 d53d
000002d0: c688 0080 7c85 2fab 3333 11b0 3638 d987
000002e0: 6c13 6faf e801 1cb2 5114 09a7 84d8 23b2
000002f0: 85ce 2cb3 551e 493d 45ba 8dbc 05ca 94bd
00000300: e5c6 7f3d 8a2b 91bc dd01 8fbd 942b ac3d
00000310: 1fdd 44bd 9c4a 79bd 2524 b5bc a7eb 7a3c
00000320: 055e 92bc a9fc 7abd 7bfa 0dbd f409 95bd
00000330: 75d6 63bc e1ff 003d 841f fcbc 01b0 60bd
00000340: bcd8 93bd 4490 79bd 11ae 9d3d 5786 8abc
00000350: b484 1dbe 4899 dbbc eaea 72bd 7564 1dbd
00000360: a8ce 89b2 19ac e5b7 216e 6b18 e337 28b5
00000370: f53a ecb5 3101 0280 7147 bdb4 8223 2eb5
00000380: 9eb1 0100 08dc 803d 6b33 7abc 7a83 cebc
00000390: 7a65 b6bd 767a 2bbe cd8a b3bd cc51 a3bc
000003a0: 977d 48bd 721a 403c 6140 bf27 5e93 93a4
000003b0: 40e5 b886 6d5d 6895 0d06 c4a0 972a 1b80
000003c0: 5750 460d 9803 8aa1 d260 2880 5df5 93bc
000003d0: 8598 e43c 29a9 073d 99e5 11be af48 a6bd
000003e0: 154b 02bd e502 993c 074c adbb 6f2e 21bb
000003f0: 0eb1 55b9 ea7a 37b9 3afc 0db9 70d9 42b9

decoder.0.bias f4 [16]
-0.032169458 0.030640852 0.16225085 0.060213506 -0.001951844 -0.0063330815 0.045881454 -0.017739004
-0.0014645276 0.19354028 -0.0006833065 0.048167136 -0.004991379 0.07547166 0.04019057 -0.044883765
00000000: 1fc4 03bd 8602 fb3c 1625 263e 70a2 763d
00000010: 04d5 ffba bd85 cfbb 31ee 3b3d 6351 91bc
00000020: 64f5 bfba 6c2f 463e ec1f 33ba e74a 453d
00000030: b98e a3bb e390 9a3d de9e 243d 0ad8 37bd
