model_components/SVHM FGSM epoch1.pth (torch, 68020 bytes, 26 tensors)

encoder.0.weight f4 [16, 3, 3, 3]
0.09968523 -0.012786147 0.0029658168 0.17948456 -0.03618155 0.1088571 0.1088301 -0.10043713
0.10599596 -0.02735488 0.21937294 0.022722937 0.2345951 0.13855554 0.11354447 -0.12678097
0.14882627 -0.13084699 0.10779799 0.11895419 0.019405268 0.2250683 -0.05108934 -0.09799044
0.047104225 -0.10483265 -0.19866326 -0.10623105 -0.21307437 0.05865599 -0.14576733 0.0071572633
0.15019615 -0.06765358 0.036208928 -0.029445192 0.15252078 -0.10798472 -0.062397953 0.11024652
-0.16798691 0.10811067 0.119718164 -0.14719336 -0.13147025 0.05421765 -0.36890456 -0.19743063
-0.0047310535 -0.21288803 0.097928524 -0.060563672 -0.08572132 -0.16119596 0.02846434 -0.2196714
-0.09395231 -0.21705501 -0.027147334 -0.026750606 0.16865209 -0.041721866 0.15886329 -0.09364738
0.012871108 0.020059 0.10734168 0.023454485 0.0027812992 -0.10924083 -0.18548986 -0.06637243
0.016507316 -0.18173213 -0.04288565 -0.3118143 0.0077806464 0.09046504 -0.19721739 -0.14138007
-0.09103998 0.0246616 -0.23112397 -0.12326303 -0.15518506 -0.3419787 -0.023726009 -0.105183005
-0.24856268 0.0005254822 0.020908356 0.097996205 0.28415948 -0.15319042 -0.15854393 0.04548293
-0.079717405 -0.1532179 0.2529969 0.01349844 -0.17124929 0.2451725 -0.29319993 -0.079712324
-0.20587364 -0.07983984 -0.032374658 0.04220104 -0.10389193 -0.19440971 0.021351058 0.08879444
-0.033797663 0.09608498 -0.24136749 -0.23921631 -0.17960435 -0.019668147 0.021712365 0.051354554
0.030831708 -0.13368045 -0.04902933 -0.0070946245 0.05407045 -0.10383209 0.13435443 -0.046231348
0.082512796 0.15363862 0.060634874 0.03240611 -0.0904701 -0.1593358 0.05894242 0.20538045
0.064162694 0.0727115 0.16982563 -0.1417872 -0.08674947 -0.0655512 -0.16305062 -0.008790002
-0.17941095 0.005841952 -0.17435142 -0.14132719 -0.07211818 -0.08234762 -0.11307348 -0.2951927
0.06217956 0.1786561 -0.06545519 0.013804553 -0.08960943 -0.27849266 0.021420276 0.039025955
-0.17886347 -0.11620252 0.05401652 0.033348303 0.02842355 0.12492214 0.23832773 0.004866629
-0.09503492 0.17400815 -0.035649095 -0.029254155 0.23322067 -0.006936835 0.24696606 0.19521843
0.1994469 0.09313907 0.27972186 -0.007670479 -0.016825257 0.15762754 0.111661576 0.23448166
0.13173886 0.17426714 -0.033539195 0.0020879754 0.20139788 -0.09039367 0.17010064 0.18194343
-0.23621234 -0.13901705 -0.12114225 0.17596269 -0.1391915 0.20136507 0.18346003 -0.0013235131
-0.02456764 0.07827224 -0.10194841 -0.037254144 0.046059858 -0.22283295 0.045598857 0.14172176
-0.011992391 0.024499414 -0.1424872 -0.078494586 0.08079475 0.026587712 -0.14398533 0.1009542
-0.16164376 0.13888405 0.035880078 0.0832651 -0.116252914 0.20402269 -0.10152082 0.038428035
-0.10406885 -0.18664373 -0.028298426 0.005426227 0.07460215 0.1407452 -0.084482595 -0.13059142
0.007932619 -0.05176151 0.06824157 0.0689077 -0.1305677 0.06550053 0.37380776 0.2418556
0.26235798 0.19015138 0.26009092 0.022602787 0.06393661 0.13833666 0.05572009 0.23148943
0.09870299 0.12856384 0.23726206 0.21880637 -0.01855494 -0.0028532592 0.11348678 0.063572235
00000000: c527 cc3d fd7c 51bc 265e 423b cdca 373e
00000010: 1b33 14bd 79f0 de3d 51e2 de3d fbb1 cdbd
00000020: 6914 d93d 5717 e0bc 4da3 603e 7425 ba3c
00000030: b339 703e 81e1 0d3e 018a e83d dfd2 01be
00000040: ea65 183e c1fc 05be 31c5 dc3d 419e f33d
00000050: ccf7 9e3c 4e78 663e 0e43 51bd 36af c8bd
00000060: 5cf0 403d 80b2 d6bd 626e 4bbe aa8f d9bd
00000070: 2b30 5abe 4341 703d 0844 15be 7a87 ea3b
00000080: 05cd 193e f68d 8abd d04f 143d 0b37 f1bc
00000090: 682e 1c3e 1827 ddbd ff94 7fbd edc8 e13d
000000a0: c304 2cbe 2069 dd3d cc2e f53d dbb9 16be
000000b0: 23a0 06be 5413 5e3d 0fe1 bcbe 412b 4abe
000000c0: f406 9bbb 52ff 59be c08e c83d 9d11 78bd
000000d0: a98e afbd 8e10 25be 0c2e e93c 8af1 60be
000000e0: 126a c0bd ab43 5ebe 1664 debc 1624 dbbc
000000f0: 22b3 2c3e 8ce4 2abd 0fad 223e 33ca bfbd
00000100: 57e1 523c c652 a43c f4d5 db3d 9f23 c03c
00000110: 7546 363b a8b9 dfbd 0ef1 3dbe 45ee 87bd
00000120: 5a3a 873c fd17 3abe dda8 2fbd 20a6 9fbe
00000130: cbf4 fe3b bc45 b93d 5bf3 49be f0c5 10be
00000140: 2b73 babd 2007 ca3c c3ab 6cbe 5471 fcbd
00000150: d5e8 1ebe d517 afbe 0c5d c2bc 306a d7bd
00000160: 3787 7ebe 83c0 093a 0048 ab3c 3cb2 c83d
00000170: 5a7d 913e f3dd 1cbe 5759 22be 4f4c 3a3d
00000180: e142 a3bd 27e5 1cbe cf88 813e 9028 5d3c
00000190: f95b 2fbe 800e 7b3e 4d1e 96be 3740 a3bd
000001a0: 8ad0 52be 1283 a3bd 4a9b 04bd ffda 2c3d
000001b0: 4bc5 d4bd 5713 47be 6ae8 ae3c dcd9 b53d
000001c0: 6b6f 0abd 34c8 c43d 0a29 77be 1ff5 74be
000001d0: 34ea 37be 181f a1bc 21de b13c 2759 523d
000001e0: c792 fc3c 87e3 08be fbd2 48bd 067a e8bb
000001f0: fa78 5d3d eba5 d4bd 3594 093e 155d 3dbd
00000200: 78fc a83d 7153 1d3e 465c 783d 45bc 043d
00000210: 6348 b9bd ed28 23be 9b6d 713d 414f 523e
00000220: bb67 833d c4e9 943d c5e6 2d3e aa30 11be
00000230: b5a9 b1bd b53f 86bd bef6 26be f103 10bc
00000240: 81b7 37be d86d bf3b 2e89 32be 13b8 10be
00000250: b2b2 93bd dea5 a8bd 1293 e7bd 7f23 97be
00000260: ffaf 7e3d a0f1 363e 5f0d 86bd 7e2c 623c
00000270: 2685 b7bd 9796 8ebe 9379 af3c aed9 1f3d
00000280: fc27 37be 96fb edbd 6d40 5d3d 3b98 083d
00000290: 81d8 e83c 2ed7 ff3d 2f0c 743e 3e78 9f3b
000002a0: aba1 c2bd 312f 323e c904 12bd 69a6 efbc
000002b0: 66d1 6e3e 644e e3bb ace4 7c3e 57e7 473e
000002c0: cf3b 4c3e b2bf be3d b437 8f3e a458 fbbb
000002d0: 1fd5 89bc 1d69 213e d3ae e43d f61b 703e
000002e0: 8de6 063e 1673 323e 6560 09bd 6ad6 083b
000002f0: 3f3b 4e3e 5120 b9bd dd2e 2e3e 614f 3a3e
00000300: a6e1 71be 7c5a 0ebe 6e19 f8bd 902f 343e
00000310: 3788 0ebe a532 4e3e f2dc 3b3e bb79 adba
00000320: 1342 c9bc 324d a03d 54ca d0bd cd97 18bd
00000330: 43a9 3c3d 522e 64be dec5 3a3d 821f 113e
00000340: bc7b 44bc ffb2 c83c 2ae8 11be c5c1 a0bd
00000350: b877 a53d 79ce d93c e470 13be 13c1 ce3d
00000360: f185 25be 9f37 0e3e fdf6 123d e586 aa3d
00000370: 0216 eebd 53eb 503e 26ea cfbd b766 1d3d
00000380: 0d22 d5bd 891f 3fbe 1ad2 e7bc 7ece b13b
00000390: 03c9 983d 821f 103e 3605 adbd c2b9 05be
000003a0: d1f7 013c e103 54bd 3cc2 8b3d 7b1f 8d3d
000003b0: 8ab3 05be 2425 863d bb63 bf3e ffa8 773e
000003c0: c953 863e 0bb7 423e a32a 853e 7b29 b93c
000003d0: 33f1 823d 20a8 0d3e c03a 643d 910b 6d3e
000003e0: cb24 ca3d 3da6 033e d3f4 723e c70e 603e
000003f0: 8800 98bc bffd 3abb c26b e83d 2932 823d

encoder.0.bias f4 [16]
0.23493645 -0.19358703 0.05127628 0.10330822 -0.13083296 -0.016588144 0.28105867 0.0060422383
0.11795031 0.11187191 0.089747004 0.18363915 0.17419685 0.16345368 0.10095312 0.16971889
00000000: 2e93 703e ae3b 46be 1407 523d 4393 d33d
00000010: 13f9 05be dce3 87bc ece6 8f3e f8fd c53b
00000020: ef8f f13d 1a1d e53d 47cd b73d e70b 3c3e
00000030: a960 323e 6760 273e 82c0 ce3d caca 2d3e

encoder.2.weight f4 [32, 16, 3, 3]
-0.059876114 -0.06549667 -0.011324298 0.009802211 0.049838156 -0.111905955 -0.017063716 0.01720368
-0.052643377 -0.021358017 0.083382405 -0.024106987 -0.045698002 -0.048594996 -0.05635549 -0.102714896
0.10673791 -0.08874582 -0.043917354 0.006240431 -0.028037267 -0.082165934 0.05567415 -0.037300922
-0.10596566 -0.044339053 -0.014056142 0.020300165 0.05128854 0.031226741 -0.07532888 0.12412332
0.09116268 -0.028144684 -0.052040447 0.036121108 -0.020784548 0.02613046 0.024722999 0.01921846
0.057521332 0.024434317 0.009244849 0.113564976 -0.001141314 -0.00058551657 0.07076919 -0.015603055
-0.08212116 -0.023720996 0.023194946 -0.03514715 0.009660536 -0.07278695 0.04810733 -0.05700358
0.01741272 0.094866775 -0.08733377 -0.05473186 0.029737996 -0.045875 0.008795763 -0.034253992
0.18314762 0.041215677 -0.03838501 0.17190826 0.14527003 -0.022714196 0.10611102 0.013429664
-0.010605968 -0.022966772 0.018958744 -0.12740067 -0.06695893 0.04551808 0.05711197 -0.0013871967
0.16718805 -0.056832075 -0.101837195 0.042722378 0.011434013 -0.121203765 0.008444764 0.0072179832
-0.02241959 -0.01061893 0.00023853526 0.035214458 0.022383437 0.060651474 0.10220775 0.08413883
-0.041592143 -0.006492341 0.0101761175 0.0029627404 0.037641905 -0.016082328 -0.05691945 0.00054253923
-0.061643686 -0.049556945 -0.07176419 0.004051927 -0.033458803 -0.026226502 0.053053815 -0.042700693
0.06368124 -0.028169967 -0.072562814 0.039047673 -0.09120184 -0.08704347 -0.032955207 -0.10543995
0.02106906 0.036615632 -0.06667299 0.0005771938 -0.07797351 -0.05482152 0.038232002 0.015423623
0.030180298 0.06661753 0.10734778 0.17161928 -0.026662942 0.054743342 0.025886523 0.038301267
-0.051904336 -0.0007221957 0.107745275 0.04646362 0.12107873 -0.07727147 -0.07039167 -0.060341787
-0.084245645 -0.016146753 -0.054849368 -0.0065026516 0.03441717 0.10214525 0.0042978865 -0.0065910243
0.002613731 -0.0776197 0.07091822 -0.09004211 0.06695419 -0.08599161 -0.088298865 0.009055456
-0.096371435 -0.11304834 0.047530927 0.043519806 -0.0608014 -0.002339139 0.05634944 0.052914515
0.016089214 -0.0077507454 -0.046105243 -0.0014623293 -0.0769773 -0.02925188 0.036485504 0.034118917
-0.059430204 -0.05604273 0.05270479 -0.028044138 -0.075929314 0.0039536827 -0.049573157 0.10448373
-0.015121416 -0.0032236704 0.085536726 -0.021821434 0.06392842 0.050264366 -0.052035313 -0.06950822
0.045103326 -0.028918644 -0.03901142 -0.032011647 0.015544529 0.021165635 -0.002036747 -0.008347438
0.00017740579 0.043134674 -0.034815855 0.083635114 0.066626005 0.056150675 -0.005531963 0.122879125
-0.00055536756 -0.025424493 -0.003773377 -0.043437496 -0.050142333 0.1593325 0.09063682 0.038036793
0.084869005 0.009042861 0.053238958 0.069090255 0.029849468 0.044947177 -0.025386082 0.016052684
0.023463435 -0.031309158 -0.024040842 -0.058127236 -0.0031110104 0.08503585 0.037895557 -0.09445787
0.063894324 -0.031608663 -0.02088117 -0.02929226 0.096904926 -0.07736026 -0.109330416 0.002819255
0.048348844 -0.039815623 0.03280164 0.03567964 -0.02303895 0.017176941 0.018509537 0.03733067
-0.033566654 0.00601727 -0.056169406 -0.07992407 -0.05434482 0.013135622 -0.060168475 0.041368913
00000000: a840 75bd 1e23 86bd 8c89 39bc 7499 203c
00000010: 1823 4c3d f32e e5bd 35c9 8bbc bbee 8c3c
00000020: 95a0 57bd 02f7 aebc 65c4 aa3d 047c c5bc
00000030: d42d 3bbd 8c0b 47bd 04d5 66bd 305c d2bd
00000040: 6899 da3d 5ec0 b5bd afe2 33bd 887c cc3b
00000050: 69ae e5bc 9d46 a8bd 940a 643d dac8 18bd
00000060: 8604 d9bd de9c 35bd bc4b 66bc 884c a63c
00000070: ef13 523d 39cf ff3c 0746 9abd 5e34 fe3d
00000080: 80b3 ba3d ae8f e6bc 5d28 55bd baf3 133d
00000090: 5b44 aabc 8c0f d63c e387 ca3c 0870 9d3c
000000a0: 7d9b 6b3d 7a2a c83c b577 173c c194 e83d
000000b0: 2598 95ba 5a7d 19ba 70ef 903d f5a3 7fbc
000000c0: 242f a8bd 8952 c2bc 5403 be3c 75f6 0fbd
000000d0: 3a47 1e3c 5311 95bd 310c 453d 967c 69bd
000000e0: 1fa5 8e3c 8349 c23d 0cdc b2bd 842e 60bd
000000f0: 199d f33c 6de7 3bbd 1b1c 103c ea4d 0cbd
00000100: 0d8b 3b3e c5d1 283d 9a39 1dbd b808 303e
00000110: abc1 143e 1f13 babc bc50 d93d 1808 5c3c
00000120: a7c4 2dbc d024 bcbc 5e4f 9b3c 5275 02be
00000130: c321 89bd 2b71 3a3d 3eee 693d 99d2 b5ba
00000140: 5833 2b3e c0c8 68bd 0590 d0bd a9fd 2e3d
00000150: ba55 3b3c ae39 f8bd e85b 0a3c d584 ec3b
00000160: 4aa9 b7bc 05fb 2dbc 521f 7a39 093d 103d
00000170: 785d b73c ae6d 783d 4c52 d13d fb50 ac3d
00000180: 865c 2abd b4bd d4bb bbb9 263c 892a 423b
00000190: 662e 1a3d 16bf 83bc 5f24 69bd 3139 0e3a
000001a0: 177e 7cbd 39fc 4abd 1bf9 92bd 07c6 843b
000001b0: 190c 09bd f6d8 d6bc f54e 593d ece6 2ebd
000001c0: 4f6b 823d b4c4 e6bc d09b 94bd 74f0 1f3d
000001d0: 08c8 babd d943 b2bd 0afc 06bd e7f0 d7bd
000001e0: 0599 ac3c 46fa 153d d98b 88bd d24e 173a
000001f0: 93b0 9fbd 888c 60bd 2999 1c3d 5db3 7c3c
00000200: ac3c f73c c66e 883d 27d9 db3d f7bc 2f3e
00000210: 3e6c dabc 8e3a 603d f90f d43c cae1 1c3d
00000220: a499 54bd bc51 3dba 8ea9 dc3d a350 3e3d
00000230: 20f8 f73d 8140 9ebd 8229 90bd f328 77bd
00000240: fb88 acbd 3246 84bc bba9 60bd 3214 d5bb
00000250: 05f9 0c3d 8731 d13d 49d5 8c3b 85f9 d7bb
00000260: 214b 2b3b 14f7 9ebd 923d 913d ff67 b8bd
00000270: 471f 893d 5f1c b0bd 09d6 b4bd 565d 143c
00000280: 635e c5bd e385 e7bd caaf 423d d341 323d
00000290: e40a 79bd 3e4c 19bb acce 663d e4bc 583d
000002a0: 87cd 833c f7f9 fdbb dad8 3cbd a1ab bfba
000002b0: 46a6 9dbd a3a1 efbc d371 153d 47c0 0b3d
000002c0: 166d 73bd 108d 65bd fae0 573d d2bc e5bc
000002d0: d480 9bbd e58d 813b 390d 4bbd 91fb d53d
000002e0: d1bf 77bc 3744 53bb e12d af3d ddc2 b2bc
000002f0: e7ec 823d 02e2 4d3d fb22 55bd 535a 8ebd
00000300: 44be 383d cbe6 ecbc 70ca 1fbd a51e 03bd
00000310: 7bae 7e3c 8e63 ad3c f27a 05bb b1c3 08bc
00000320: 0106 3a39 fcad 303d 129b 0ebd e348 ab3d
00000330: 3773 883d 40fe 653d 7845 b5bb 0da8 fb3d
00000340: 1696 11ba 0747 d0bc c34a 77bb 84eb 31bd
00000350: 0c62 4dbd 0f28 233e cc9f b93d 78cc 1b3d
00000360: cdcf ad3d 8228 143c 1811 5a3d 317f 8d3d
00000370: df86 f43c 881a 383d 79f6 cfbc eb80 833c
00000380: 6436 c03c 083e 00bd 4df1 c4bc d316 6ebd
00000390: 18e2 4bbb 4727 ae3d 5f38 1b3d 2173 c1bd
000003a0: 07db 823d 1678 01bd fd0e abbc 52f6 efbc
000003b0: 1776 c63d 0e6f 9ebd a0e8 dfbd 40c3 383b
000003c0: 7009 463d b515 23bd 035b 063d d024 123d
000003d0: 2ebc bcbc a8b6 8c3c 50a1 973c 0be8 183d
000003e0: 307d 09bd 852c c53b e411 66bd 3baf a3bd
000003f0: ad98 5ebd cb36 573c 3873 76bd 7372 293d

encoder.2.bias f4 [32]
-0.0009313707 -0.057147074 0.0060137175 0.021191087 0.013303799 0.12604448 0.010844019 0.099841245
0.04699007 -0.026861541 -0.08273153 0.06577843 -0.0045178453 -0.00014389057 -0.05442796 -0.10312187
0.034624834 -0.021790905 0.05003021 0.011598923 0.09584003 -0.012343131 -0.13187267 -0.051903754
-0.003517037 0.13054745 0.1367866 0.15787803 0.05092163 0.019552073 -0.17988296 -0.14509517
00000000: 3b27 74ba 0d13 6abd b80e c53b ee98 ad3c
00000010: 2df8 593c ce11 013e 1dab 313c 9179 cc3d
00000020: a978 403d bc0c dcbc 266f a9bd d7b6 863d
00000030: 6f0a 94bb 55e1 16b9 daef 5ebd 8f31 d3bd
00000040: c5d2 0d3d d782 b2bc 7aec 4c3d 6909 3e3c
00000050: c747 c43d d83a 4abc a109 07be 0899 54bd
00000060: 177e 66bb 3bae 053e c911 0c3e c7aa 213e
00000070: 3393 503d ab2b a03c 3d33 38be d493 14be

conv_skip.weight f4 [16, 16, 1, 1]
-0.03606283 -0.15110902 0.039945655 0.21434623 -0.0020324176 0.27239722 -0.2757499 0.15641594
-0.23053114 0.1058808 0.026375035 -0.07894195 0.07547373 0.17154738 0.22146328 0.034632076
0.25044078 -0.11237166 -0.20868182 0.041073952 -0.1563344 -0.25468767 0.024975244 0.10551842
0.13130346 -0.007574607 0.14241913 -0.06875847 -0.26364195 -0.022128053 -0.09815224 -0.2565669
-0.1820528 -0.20349513 -0.16118698 0.1212863 0.19498992 -0.14007358 0.2002242 0.09433655
-0.21297985 -0.09196925 0.24159738 -0.05840631 0.18111405 0.18211743 -0.22703904 0.26933765
0.10873354 0.07198194 0.21409684 -0.026577927 -0.05775614 0.16831435 0.012860589 0.16066352
0.018505352 -0.18205296 -0.039504193 -0.26447117 0.16797565 0.1391424 -0.24372305 0.18285346
-0.13267237 0.12892167 0.15959872 0.25001907 0.034473635 0.041952256 -0.2299191 -0.061895166
-0.018155921 -0.04376622 0.08284554 -0.066655636 0.17406623 0.17796253 0.13092215 0.027127832
0.05399271 -0.35246852 0.045539014 0.14951403 0.23352233 -0.009626917 0.19157846 0.10576523
0.16177754 0.108026706 0.006523066 -0.006865466 0.053400498 -0.19772075 -0.18531238 -0.32542613
-0.0760786 -0.03849681 0.16746357 0.14472143 -0.049873434 0.18530948 0.04462974 0.14038049
-0.24409127 0.018143313 0.25471744 0.07349271 -0.077402584 -0.08665792 0.26253596 0.1772597
0.22927095 -0.22732797 -0.25746068 -0.079955675 -0.20127453 -0.15267618 0.07186657 -0.25526997
0.23258218 0.048405293 -0.045273654 0.05180112 -0.016027847 -0.08514562 0.06490345 0.0127238715
0.13621059 -0.058328133 -0.14551495 -0.26292387 -0.19023184 -0.025114184 0.06108915 -0.169679
-0.121275425 -0.24927142 0.14824323 -0.1907798 -0.23111248 0.10010427 -0.047141835 0.060000643
0.021456262 -0.019006979 -0.076060794 -0.003601301 -0.018285733 0.06604793 -0.033348065 0.1702924
0.01666116 -0.32783362 -0.16300666 -0.12635636 0.19271766 0.024483506 0.050256744 -0.120284945
-0.06162328 -0.2054767 -0.08454923 0.016591005 0.114249684 0.00055012543 -0.21559244 -0.07550675
-0.15945907 -0.25506863 0.07715273 -0.23693025 0.1637776 -0.15900049 0.12293823 -0.10737338
-0.16524045 0.107374735 0.10238115 0.0039482107 0.09811187 0.13267884 -0.27989444 0.21361573
-0.106729835 -0.15060948 0.2896145 0.09780091 0.10791924 0.18997742 0.17840981 0.061449688
-0.068863146 0.25974345 0.09068731 -0.119913176 0.07696122 0.25738138 -0.21538287 0.13378844
0.09196899 -0.0018369308 -0.18270746 -0.25180143 0.15987362 0.21799934 0.053433847 0.1280641
0.06906942 -0.15727627 -0.03246465 -0.06706899 -0.21493632 0.057699602 0.10050341 0.06818237
0.21862036 0.2012369 -0.23968978 -0.16499902 0.04527282 -0.019475562 -0.018885577 0.09820048
0.10751854 0.19510326 -0.022734128 -0.09972672 0.19104832 0.22473635 0.14584197 -0.16940859
-0.2526056 -0.19687608 0.047360886 0.06494264 -0.11493259 -0.23556004 -0.27697584 -0.08238118
-0.087712325 -0.01443668 0.058882236 0.18966237 0.019898102 0.32911238 -0.04350024 0.051036112
0.14760469 0.31159046 -0.18440057 -0.27822655 0.28436765 -0.18442498 -0.19237061 -0.0922614
00000000: 9eb6 13bd 53bc 1abe 0e9e 233d 947d 5b3e
00000010: 4f32 05bb a677 8b3e 172f 8dbe 802b 203e
00000020: 5b10 6cbe 08d8 d83d 7510 d83c 51ac a1bd
00000030: f991 9a3d 1eaa 2f3e 45c7 623e 5dda 0d3d
00000040: c639 803e 1d23 e6bd b0b0 55be 293d 283d
00000050: 2016 20be 6c66 82be e298 cc3c 0b1a d83d
00000060: 6a74 063e 6934 f8bb 52d6 113e 3ed1 8cbd
00000070: 14fc 86be e445 b5bc 0b04 c9bd bd5c 83be
00000080: 0d6c 3abe 0761 50be 330e 25be f464 f83d
00000090: 70ab 473e 736f 0fbe 9307 4d3e 8533 c13d
000000a0: 6417 5abe 605a bcbd 4e65 773e 743b 6fbd
000000b0: f675 393e fe7c 3a3e ec7c 68be a0e6 893e
000000c0: b1af de3d 446b 933d 343c 5b3e f4b9 d9bc
000000d0: b491 6cbd 995a 2c3e 38b5 523c fa84 243e
000000e0: 8998 973c 176c 3abe 26cf 21bd c468 87be
000000f0: cf01 2c3e 587b 0e3e 8992 79be f03d 3b3e
00000100: 44db 07be 0b04 043e d96d 233e 8002 803e
00000110: 3a34 0d3d 21d6 2b3d ea6f 6bbe c985 7dbd
00000120: babb 94bc 3544 33bd ecaa a93d c082 88bd
00000130: 6b3e 323e cf3b 363e 7510 063e 303b de3c
00000140: 7627 5d3d c176 b4be 1e87 3a3d 351a 193e
00000150: 7a20 6f3e 37ba 1dbc 252d 443e 719b d83d
00000160: 03a9 253e 1b3d dd3d 72bf d53b b4f7 e0bb
00000170: 7bba 5a3d 4f77 4abe 87c2 3dbe 419e a6be
00000180: 19cf 9bbd d5ae 1dbd 927b 2b3e db31 143e
00000190: 1648 4cbd c5c1 3d3e adcd 363d e7bf 0f3e
000001a0: 10f3 79be 49a1 943c 536a 823e 5983 963d
000001b0: 3f85 9ebd b579 b1bd 1d6b 863e 9183 353e
000001c0: 01c6 6a3e aac8 68be e3d1 83be cdbf a3bd
000001d0: e91a 4ebe 2557 1cbe c82e 933d bfb2 82be
000001e0: 062a 6e3e a144 463d de70 39bd 692d 543d
000001f0: d54c 83bc d460 aebd 1aec 843d c977 503c
00000200: ca7a 0b3e 7be9 6ebd df01 15be f59d 86be
00000210: 23cc 42be 43bc cdbc 9e38 7a3d 55c0 2dbe
00000220: 405f f8bd 0241 7fbe 13cd 173e c85b 43be
00000230: c0a8 6cbe 7803 cd3d cc17 41bd 3cc3 753d
00000240: 0bc5 af3c 86b4 9bbc c3c5 9bbd ce03 6cbb
00000250: f6cb 95bc 2344 873d fb97 08bd 2261 2e3e
00000260: fc7c 883c cfd9 a7be 38eb 26be 9063 01be
00000270: c757 453e a291 c83c 04da 4d3d f457 f6bd
00000280: b168 7cbd 7c68 52be 2628 adbd dce9 873c
00000290: bdfb e93d 4b36 103a 44c4 5cbe 48a3 9abd
000002a0: 3d49 23be 5b98 82be 4002 9e3d d89d 72be
000002b0: 51b5 273e 06d1 22be 0ac7 fb3d 93e6 dbbd
000002c0: cb34 29be 49e7 db3d 35ad d13d fe5f 813b
000002d0: e0ee c83d f6dc 073e 534e 8fbe 15be 5a3e
000002e0: 2c95 dabd 5f39 1abe 5a48 943e d84b c83d
000002f0: c304 dd3d 7189 423e 10b1 363e abb2 7b3d
00000300: 1f08 8dbd 18fd 843e 45ba b93d 0a95 f5bd
00000310: d89d 9d3d 7ec7 833e 548d 5cbe d6ff 083e
00000320: 3d5a bc3d 2bc5 f0ba aa17 3bbe 1eec 80be
00000330: e9b5 233e 383b 5f3e 73dd 5a3d 3c23 033e
00000340: 4574 8d3d 080d 21be a7f9 04bd 775b 89bd
00000350: 4418 5cbe 6b56 6c3d bbd4 cd3d 33a3 8b3d
00000360: 04de 5f3e 0c11 4e3e 3d71 75be 81f5 28be
00000370: fe6f 393d 378b 9fbc edb5 9abc 551d c93d
00000380: ae32 dc3d 26c9 473e ec3c babc 863d ccbd
00000390: 2ca2 433e 4921 663e 9957 153e 7279 2dbe
000003a0: 8555 81be e299 49be 7dfd 413d a600 853d
000003b0: c761 ebbd a736 71be c7cf 8dbe 77b7 a8bd
000003c0: 85a2 b3bd d387 6cbc 802e 713d da36 423e
000003d0: 5801 a33c 6b81 a83e 4f2d 32bd 3e0b 513d
000003e0: af25 173e c988 9f3e 81d3 3cbe b673 8ebe
000003f0: a398 913e e7d9 3cbe cdfc 44be 8bf3 bcbd

conv_skip.bias f4 [16]
0.20178157 0.017153675 0.00038058846 -0.12903604 0.1493215 -0.23848657 0.2238934 0.17679372
0.111628234 -0.11135465 -0.10044888 -0.21227926 -0.16869985 0.2160671 -0.009353658 -0.08684818
00000000: d49f 4e3e dd85 8c3c b889 c739 0622 04be
00000010: bce7 183e d335 74be 5044 653e 6a09 353e
00000020: 589d e43d e80d e4bd 24b8 cdbd bc5f 59be
00000030: a7bf 2cbe b240 5d3e 1640 19bc 75dd b1bd

attention.query_conv.weight f4 [32, 32, 1, 1]
-0.14518605 0.06301826 0.015698196 -0.109771386 -0.20332442 0.17305115 -0.031843275 0.07868011
-0.08565784 0.08549916 0.067701094 0.07701597 -0.106880344 0.00015071339 -0.16070572 -0.007392843
-0.16022755 0.10839854 -0.13836849 -0.0153488 -0.12715387 0.031292483 0.011007632 -0.16547668
-0.102106355 -0.10306714 -0.020097492 -0.057361092 -0.169289 -0.102555975 0.03458993 0.16210188
-0.07245054 0.0786917 -0.029091949 -0.040967837 -0.16039836 0.24934919 0.0061715893 0.09839141
0.048449006 0.16989267 -0.10871489 -0.014959591 0.008071507 -3.9183593e-05 0.027371336 -0.0030803275
-0.037823115 -0.048991393 -0.0028368414 -0.061818834 -0.008418416 0.026603494 -0.03408707 -0.021067686
-0.11063766 0.14320353 0.15515849 0.10020807 0.015077059 0.04521552 -0.119102985 -0.06876231
0.1973858 0.030063722 0.17408128 -0.16216919 0.3096663 -0.19168143 0.06130361 -0.124176405
0.10456311 -0.04329533 0.113503255 -0.09851344 0.106021896 -0.00040248802 0.15385066 0.01514996
-0.033408996 -0.08633409 0.09279411 -0.0505188 -0.0327025 -0.016100643 0.1467844 0.24826056
0.16094792 -0.0066072284 -0.11592888 0.06301534 0.0668836 0.014897619 0.07532892 -0.038947724
0.11136375 -0.16599885 0.080760196 0.059569433 0.0017342462 -0.06775174 0.027324276 0.0067225336
-0.08718592 -0.100756 0.111504264 -0.13749528 -0.049774222 7.301438e-05 -0.072073676 -0.03659074
-0.11558054 0.09895149 -0.1415589 0.037183136 -0.0073943 0.025493737 0.08476862 -0.03041919
0.06315781 -0.066036336 -0.13202767 -0.2362178 0.1559441 -0.12705147 0.10487519 0.14193308
-0.07605018 0.002125503 0.016842164 0.06758908 -0.053059354 0.14860964 0.01180145 0.05629764
0.051802654 0.014675016 0.023185855 0.07815292 0.10899865 -2.498105e-06 -0.0051411 -0.0063372348
0.122070216 -0.069475785 -0.091140494 -0.12451835 0.08309022 -0.116371796 0.102251664 0.059165455
-0.118304335 0.06800892 0.09442794 0.13881412 0.13663039 -0.049310084 -0.058464006 -0.082201876
0.111184366 0.012254334 0.19621505 -0.14112282 0.2741969 -0.22695036 0.053539988 -0.031207407
0.1704002 -0.1677235 0.15916143 -0.152802 0.04843329 -0.0003440499 0.06650366 0.0123353405
-0.15555209 -0.08279697 0.16089588 -0.102080956 0.0027634408 0.082805336 0.15792812 0.082915485
0.08935753 -0.1932247 -0.10240667 0.07203182 -0.0404458 0.037248354 0.04142471 0.014896378
0.16929 -0.09832068 0.027753737 -0.035513345 0.2381908 -0.314278 0.0147765195 -0.043217283
0.18132477 0.10225601 0.096876584 -0.15322205 -0.006214884 -0.0003396834 0.08663843 -0.035369933
-0.19817857 -0.042482615 -0.09154501 -0.102863185 -0.08185368 -0.06766148 -0.051255304 0.117776774
0.2372218 -0.0813558 -0.089096904 -0.12541403 0.13323729 0.032495074 0.14599472 0.078201845
0.11109912 0.09163662 0.07269139 -0.15499075 0.24145396 -0.2374266 0.004371429 -0.05913242
0.04329626 -0.19456019 0.079561405 0.042534452 0.033574004 0.0002490899 -0.05111117 0.0040938137
-0.04366109 -0.018233187 -0.05359977 0.020814417 0.07923523 -0.029271685 -0.13502088 0.035426278
0.073758036 -0.029086143 -0.16034651 -0.079009145 0.031824406 -0.14650501 0.114673175 0.017187605
00000000: a7ab 14be b80f 813d 8199 803c d2cf e0bd
00000010: 4734 50be 5234 313e 186e 02bd 0a23 a13d
00000020: 616d afbd 2f1a af3d dfa6 8a3d 8dba 9d3d
00000030: 15e4 dabd d108 1e39 0a90 24be a93f f2bb
00000040: b112 24be 0e00 de3d 78b0 0dbe 8979 7bbc
00000050: a034 02be 8c2c 003d 5b59 343c b872 29be
00000060: 231d d1bd dd14 d3bd 7fa3 a4bc 77f3 6abd
00000070: 185a 2dbe de08 d2bd 2cae 0d3d 09fe 253e
00000080: f360 94bd 1d29 a13d 3d52 eebc e4cd 27bd
00000090: 783f 24be 6555 7f3e 0b3b ca3b 7081 c93d
000000a0: 7772 463d 58f8 2d3e eaa5 debd 1319 75bc
000000b0: 5b3e 043c 1059 24b8 da39 e03c 52df 49bb
000000c0: 69ec 1abd 33ab 48bd 4dea 39bb bf35 7dbd
000000d0: 65ed 09bc 92ef d93c e29e 0bbd 2496 acbc
000000e0: ff95 e2bd f2a3 123e dee1 1e3e e339 cd3d
000000f0: c505 773c e933 393d 44ec f3bd 41d3 8cbd
00000100: 811f 4a3e 3248 f63c 5d42 323e ae0f 26be
00000110: 958c 9e3e 2348 44be 7f19 7b3d 3350 febd
00000120: 2f25 d63d 7256 31bd 6574 e83d 6ac1 c9bd
00000130: 0222 d93d 0705 d3b9 078b 1d3e 8a37 783c
00000140: dfd7 08bd edcf b0bd d70a be3d cdec 4ebd
00000150: 0ef3 05bd 7fe5 83bc a64e 163e 0438 7e3e
00000160: 88cf 243e 7381 d8bb 1f6c edbd 300e 813d
00000170: 45fa 883d 2515 743c 0c46 9a3d a687 1fbd
00000180: ae12 e43d 9afb 29be 9a65 a53d 14ff 733d
00000190: a54f e33a 6dc1 8abd 29d7 df3c b348 dc3b
000001a0: 888e b2bd 2959 cebd 595c e43d 90cb 0cbe
000001b0: 0ee0 4bbd 4c1f 9938 5d9b 93bd 2ce0 15bd
000001c0: 7db5 ecbd 14a7 ca3d d1f4 10be 584d 183d
000001d0: e24b f2bb 3ed8 d03c 2c9b ad3d aa31 f9bc
000001e0: e258 813d 0f3e 87bd 4332 07be 14e3 71be
000001f0: cfaf 1f3e c819 02be cec8 d63d e856 113e
00000200: 32c0 9bbd 064c 0b3b 94f8 893c 256c 8a3d
00000210: c454 59bd 202d 183e de5a 413c 5b98 663d
00000220: 052f 543d 7a6f 703c 43f0 bd3c a30e a03d
00000230: af3a df3d 1ea5 27b6 ac76 a8bb 94a8 cfbb
00000240: f3ff f93d 5249 8ebd dea7 babd 7a03 ffbd
00000250: 352b aa3d 5654 eebd 5269 d13d 7a57 723d
00000260: 8b49 f2bd 4348 8b3d 7063 c13d 4a25 0e3e
00000270: d6e8 0b3e 5ff9 49bd f477 6fbd 7559 a8bd
00000280: a1b4 e33d 67c6 483c 99ec 483e 8082 10be
00000290: 8963 8c3e ad65 68be bf4c 5b3d ada6 ffbc
000002a0: 647d 2e3e b6bf 2bbe 37fb 223e 2178 1cbe
000002b0: fc61 463d 9961 b4b9 1233 883d 2b1a 4a3c
000002c0: 0c49 1fbe 7591 a9bd e4c1 243e d20f d1bd
000002d0: d81a 353b d895 a93d e9b7 213e 98cf a93d
000002e0: 1501 b73d b2dc 45be 97ba d1bd 6b85 933d
000002f0: 7faa 25bd bb91 183d f5ac 293d f00f 743c
00000300: 5c5a 2d3e 5a5c c9bd ce5b e33c 7176 11bd
00000310: 4ae8 733e 0ce9 a0be 3719 723c 9b04 31bd
00000320: 33ad 393e 996b d13d 3b67 c63d 3ee6 1cbe
00000330: 3aa6 cbbb 8917 b2b9 7d6f b13d 10e0 10bd
00000340: 53ef 4abe 4002 2ebd f37b bbbd efa9 d2bd
00000350: e7a2 a7bd 1a92 8abd 15f1 51bd f334 f13d
00000360: 46ea 723e df9d a6bd 7078 b6bd 896c 00be
00000370: 5b6f 083e 8e19 053d a47f 153e 4a28 a03d
00000380: ef87 e33d fbab bb3d 39df 943d e5b5 1ebe
00000390: b53f 773e f51f 73be 343e 8f3b d634 72bd
000003a0: 6b57 313d c93a 47be 17f1 a23d 9b38 2e3d
000003b0: e584 093d 4898 8239 f259 51bd 6625 863b
000003c0: f9d5 32bd c45d 95bc 6f8b 5bbd ff82 aa3c
000003d0: 1546 a23d 2ccb efbc ea42 0abe 251b 113d
000003e0: 740e 973d 1046 eebc e031 24be 8ccf a1bd
000003f0: 4f5a 023d 6905 16be c5d9 ea3d 05cd 8c3c

attention.query_conv.bias f4 [32]
-0.17821147 0.25627837 -0.05269344 -0.05349942 0.30710906 -0.2576428 -0.17983237 -0.29581103
0.051387955 -0.025005598 -0.2705282 0.015771467 -0.06569077 0.022858156 0.08763996 -0.096931554
0.0046669054 0.05964044 -0.047516987 0.17808412 -0.0439068 0.1261628 0.28701818 0.20712864
0.1430811 0.056896772 -0.016734783 0.10537259 -0.06298832 0.11813962 -0.0018570403 -0.11952416
00000000: 117d 36be eb36 833e 14d5 57bd 3522 5bbd
00000010: 663d 9d3e c2e9 83be fa25 38be 8b74 97be
00000020: 2d7c 523d 8ad8 ccbc ac82 8abe 2a33 813c
00000030: e288 86bd 0741 bb3c 947c b33d 0d84 c6bd
00000040: d7ec 983b 8949 743d 2ca1 42bd af5b 363e
00000050: 9ed7 33bd d230 013e 0cf4 923e 8819 543e
00000060: da83 123e 970c 693d 6217 89bc 96cd d73d
00000070: 0500 81bd 2ff3 f13d ef67 f3ba 15c9 f4bd

attention.key_conv.weight f4 [32, 32, 1, 1]
-0.098530084 -0.0002941087 0.049030006 0.13961382 0.0570553 -0.004019043 0.035796348 0.0142030995
-0.03169147 0.052218173 0.0061033354 0.05007924 0.00045514264 9.374311e-05 0.032332696 0.07413304
0.07959055 0.09380664 -0.03031648 0.11947652 -0.21601705 0.009801481 0.15953875 -0.120033115
0.030247461 0.16078857 0.15478091 0.017966943 -0.04299258 0.06605465 -0.0027631307 -0.09449367
0.011115983 0.016317682 0.026242651 0.027676642 0.071188256 0.044457726 -0.016360046 -0.041569173
-0.17702354 0.0008768106 0.07493475 -0.093073435 0.12388157 -7.6447686e-05 -0.044294357 -0.13242546
-0.10099379 0.042130034 -0.16021396 -0.099457175 0.114403486 -0.004064444 -0.21180229 -0.0066201757
-0.0077655395 0.08543227 0.024338085 0.06740292 -0.17123647 0.017910268 -0.24759495 0.030974977
0.16824766 -0.15988941 -0.016243171 -0.13568476 0.035028327 -0.0633551 0.017992172 -0.0020575104
-0.101777144 -0.13132137 0.04756379 -0.24885808 -0.011178801 3.391194e-05 0.20079154 -0.0134021565
-0.23917428 -0.10257473 0.121792085 0.09230328 0.14297208 0.057621982 0.0807489 -0.009422045
-0.071115874 -0.0044029956 -0.09284961 -0.123940095 0.052919455 0.003866249 -0.024387848 0.02010963
-0.059957273 0.040525265 0.08018833 0.059623595 0.09700809 -0.123350605 0.09429318 -0.01019099
0.1805923 0.09376507 -0.0055316817 0.03500609 -0.07427243 0.00014175703 0.085111015 0.088781096
-0.08821764 0.10741973 0.024292814 0.07837506 -0.132914 -0.061933383 0.12833913 0.052415177
0.00024160919 0.0633332 0.062134124 -0.13803285 -0.037949707 -0.018056031 0.18836354 -0.06936843
0.11596894 -0.04239143 -0.02891827 0.03286036 0.03315779 -0.04904956 -0.081112415 -0.060375996
0.07368946 -0.1027811 -0.024058629 -0.08958153 -0.012005765 -0.00010823377 -0.10861476 -0.04995719
0.033624005 -0.055281285 -0.14833508 -0.09710974 0.046658937 -0.15360582 -0.14049566 -0.027280066
-0.04551066 -0.08184671 -0.0328102 0.01262869 -0.13607034 0.071603335 -0.2415313 0.05472571
0.08866939 -0.15694377 0.14797992 0.07207202 0.14251682 -0.13820995 0.060344934 -0.014494504
0.14007501 -0.095215805 0.016170477 -0.15367351 -0.04670696 0.0001627987 0.15604055 0.0027021153
0.058109205 -0.05550593 0.18904264 -0.0838522 -0.013474554 0.06668518 0.099830925 -0.070365876
-0.08672581 -0.10978302 -0.050030436 0.06124316 -0.054501507 -0.109879345 -0.024359867 -0.061447628
0.09953797 -0.084282964 0.24509753 -0.21312413 -0.08633722 -0.014758484 0.06692728 0.11050346
0.012657747 0.048482213 -0.065882415 -0.03294516 -0.098987296 5.3573454e-05 0.218508 0.02349004
-0.028741099 -0.1146174 0.14812176 0.116969466 -0.08870141 0.2195663 0.23943618 -0.017311905
-0.02716653 0.07870153 0.06674144 -0.087314345 0.2599464 0.0014977802 0.07760101 -0.05428448
0.012916731 -0.016774356 -0.00113946 0.07055412 -0.0588874 -0.09180218 0.0855365 0.026168158
0.11563558 0.06681522 0.04406063 -0.18159257 0.03745872 4.7336613e-05 -0.05396241 0.05954854
-0.13908038 0.05583861 0.060546894 0.022737943 -0.084962636 0.27404758 0.23411193 -0.018069992
-0.018819258 0.09997072 0.00021081022 0.15112813 0.0062075704 -0.07730609 0.25692096 -0.032284424
00000000: 24ca c9bd 9a32 9ab9 b0d3 483d edf6 0e3e
00000010: d1b2 693d 2db2 83bb 319f 123d 1eb4 683c
00000020: eace 01bd b9e2 553d 7dfe c73b e41f 4d3d
00000030: 36a0 ee39 f397 c438 4a6f 043d 10d3 973d
00000040: 5f00 a33d b21d c03d 445a f8bc 1bb0 f43d
00000050: 9333 5dbe 6496 203c 205e 233e ecd3 f5bd
00000060: 86c9 f73c c2a5 243e e37e 1e3e 692f 933c
00000070: fd18 30bd a947 873d a415 35bb e685 c1bd
00000080: d01f 363c a9ac 853c d4fa d63c 20ba e23c
00000090: 26cb 913d 4e19 363d 8105 86bc 7044 2abd
000000a0: a945 35be c3d9 653a 6477 993d 499d bebd
000000b0: 9fb5 fd3d 8a52 a0b8 006e 35bd 8a9a 07be
000000c0: d5d5 cebd 8b90 2c3d 210f 24be 34b0 cbbd
000000d0: 604c ea3d 072f 85bb b3e2 58be 0fee d8bb
000000e0: 1176 febb 1df7 ae3d aa60 c73c 8b0a 8a3d
000000f0: 9d58 2fbe 8eb8 923c 8889 7dbe 3cbf fd3c
00000100: 1d49 2c3e 0dba 23be 6610 85bc f2f0 0abe
00000110: dd79 0f3d 52c0 81bd 5264 933c 4cd7 06bb
00000120: 8970 d0bd 1c79 06be 40d2 423d a7d4 7ebe
00000130: 4a27 37bc ab3c 0e38 4c9c 4d3e b894 5bbc
00000140: 1aea 74be b312 d2bd 216e f93d 8109 bd3d
00000150: 4667 123e 0705 6c3d ae5f a53d ec5e 1abc
00000160: 33a5 91bd 0147 90bb f027 bebd 4ed4 fdbd
00000170: 12c2 583d e560 7d3b 06c9 c7bc f3bc a43c
00000180: c295 75bd d2fd 253d c739 a43d df37 743d
00000190: 2dac c63d 3e9f fcbd c81c c13d 1cf8 26bc
000001a0: 30ed 383e e707 c03d 1c43 b5bb 8c62 0f3d
000001b0: 251c 98bd 9da4 1439 af4e ae3d ddd2 b53d
000001c0: 73ab b4bd e0fe db3d b901 c73c 1a83 a03d
000001d0: 9c1a 08be dcad 7dbd 556b 033e 4cb1 563d
000001e0: 7958 7d39 d6b4 813d 5a80 7e3d 7c58 0dbe
000001f0: 2771 1bbd 3eea 93bc 5fe2 403e 0911 8ebd
00000200: 2081 ed3d a3a2 2dbd 02e6 ecbc 9698 063d
00000210: 76d0 073d 31e8 48bd 441e a6bd d24c 77bd
00000220: 80ea 963d e67e d2bd 9a16 c5bc 8576 b7bd
00000230: d4b3 44bc 90fb e2b8 6a71 debd e99f 4cbd
00000240: 53b9 093d a16e 62bd 27e5 17be 79e1 c6bd
00000250: 711d 3f3d d84a 1dbe 18de 0fbe 727a dfbc
00000260: 6369 3abd 3f9f a7bd fd63 06bd 91e8 4e3c
00000270: 0656 0bbe c5a4 923d fb53 77be 1128 603d
00000280: 4c98 b53d deb5 20be 0c88 173e 7f9a 933d
00000290: eeef 113e e986 0dbe 402c 773d 5b7a 6dbc
000002a0: d36f 0f3e 8100 c3bd f377 843c 975c 1dbe
000002b0: cc4f 3fbd f1b4 2a39 18c9 1f3e f915 313b
000002c0: eb03 6e3d 305a 63bd 6594 413e b4ba abbd
000002d0: 60c4 5cbc 3d92 883d 2874 cc3d fc1b 90bd
000002e0: 4d9d b1bd ecd5 e0bd b7ec 4cbd 1cda 7a3d
000002f0: f93c 5fbd 6c08 e1bd 588e c7bc 82b0 7bbd
00000300: 90da cb3d 8c9c acbd d9fa 7a3e 363d 5abe
00000310: 92d1 b0bd 92cd 71bc 2b11 893d a34f e23d
00000320: 7062 4f3c 4995 463d 5ced 86bd 81f1 06bd
00000330: dab9 cabd 0fb4 6038 90c0 5f3e 2f6e c03c
00000340: 7472 ebbc 87bc eabd 3bad 173e b08d ef3d
00000350: 16a9 b5bd fdd5 603e c22e 753e b2d1 8dbc
00000360: 588c debc 452e a13d bcaf 883d ddd1 b2bd
00000370: b217 853e 2a51 c43a 47ed 9e3d 6759 5ebd
00000380: b2a0 533c 606a 89bc ef59 95ba ae7e 903d
00000390: ea33 71bd c802 bcbd c32d af3d 9b5e d63c
000003a0: 59d2 ec3d 6bd6 883d eb78 343d 67f3 39be
000003b0: 516e 193d 4d8b 4638 b007 5dbd 2be9 733d
000003c0: 166b 0ebe 07b7 643d 0500 783d ec44 ba3c
000003d0: e400 aebd f74f 8c3e 0abb 6f3e 8507 94bc
000003e0: d82a 9abc 73bd cc3d f00c 5d39 55c1 1a3e
000003f0: e068 cb3b a852 9ebd 258b 833e ac3c 04bd

attention.key_conv.bias f4 [32]
7.2237304e-07 1.163725e-08 2.5299852e-07 -1.1995296e-09 5.6745208e-08 2.611669e-07 3.4503042e-08 -6.603107e-09
-1.03316154e-07 -3.530187e-07 -8.593696e-08 2.2303726e-07 -1.4028478e-07 1.0674867e-07 1.1502025e-07 -2.7609403e-07
2.4308522e-09 1.1030356e-07 -2.9626227e-07 1.2338477e-08 -2.8408754e-08 1.2070178e-07 -1.3099803e-07 5.7913958e-08
-5.3361973e-09 2.767411e-10 -4.2740673e-08 9.660142e-08 -6.141585e-08 -1.3424651e-06 -2.0786613e-08 6.7782615e-09
00000000: 19e9 4135 2bed 4732 dad3 8734 b2dc a4b0
00000010: 04b8 7333 8136 8c34 7f30 1433 8be1 e2b1
00000020: a8de ddb3 8586 bdb4 588c b8b3 047c 6f34
00000030: 30a1 16b4 b43d e533 0d01 f733 133a 94b4
00000040: 010c 2731 06e0 ec33 fa0d 9fb4 32f9 5332
00000050: 8307 f4b2 419a 0134 77a8 0cb4 12bd 7833
00000060: b059 b7b1 d923 982f de91 37b3 3173 cf33
00000070: b8e3 83b3 c02e b4b5 3f8e b2b2 38e6 e831

attention.value_conv.weight f4 [32, 32, 1, 1]
0.14927441 -0.040913854 0.13745175 0.17016365 0.14275174 -0.021726271 -0.0053317524 -0.09997389
-0.050520677 0.13393563 0.040211905 0.050755545 0.007588133 -5.9362297e-05 -0.15984477 -0.0031211434
0.17967366 -0.022876652 0.15244432 -0.0067426246 0.16492006 0.12629168 -0.015111947 -0.10034685
-0.07922096 0.06920936 0.08805573 -0.042754624 -0.08911327 0.0028573018 -0.16719584 -0.0785125
0.103468105 -0.030522784 0.19141616 -0.13873194 0.09990967 0.19927579 0.06412715 0.019903563
0.09866254 0.07882372 -0.02920946 -0.16850014 -0.028923862 -0.000118546115 0.12960128 0.042432725
0.13944982 0.13909101 -0.08902826 0.047434814 -0.09184169 0.13980816 0.16837403 0.1094899
0.08618211 -0.09263109 0.04246392 -0.10460777 0.14098942 0.017045282 0.11944137 0.089411266
-0.073438495 0.123145334 0.09661891 0.104985185 -0.21174626 0.06197955 -0.07761294 -0.022782793
-0.14992955 0.14874512 0.020301085 0.1394577 0.006542175 6.951372e-05 -0.061803337 -0.02277154
0.063553214 -0.018236043 0.12727505 -0.05108623 0.07211382 -0.1555276 -0.012855157 -0.024017658
0.071304575 0.052149963 -0.011492227 0.096270084 -0.13539809 0.03177261 0.042432223 0.08058599
0.23579988 -0.044236578 0.021625834 0.10151255 -0.028659327 0.16685984 0.10979491 0.048435066
0.11129727 0.022384878 0.06937212 -0.068733655 0.013718178 -2.4067083e-05 0.020380417 -0.08076123
-0.053183146 -0.13034591 0.043276165 -0.046985533 0.16314457 0.043392606 -0.08468451 -0.056452125
0.15065365 -0.073900834 -0.08098607 0.09874343 -0.11062521 0.16399565 -0.05163899 0.081454195
0.16436194 0.045702375 0.06909559 0.02280453 -0.13232057 -0.09052872 0.03206304 0.006323563
0.12368391 0.056386605 -0.0021761192 0.1593616 0.052414745 8.906251e-05 -0.1406946 -0.16203628
0.116520144 -0.13234018 -0.0155669 -0.019050196 -0.06195859 -0.06967322 0.10435082 0.18514279
0.15387876 0.059406232 0.08705881 -0.1616113 0.057241753 -0.022809332 -0.09003203 0.045401443
0.024919972 0.06045942 -0.14348471 -0.08071988 0.0073274737 0.12861554 -0.030732073 0.10242077
0.061277483 -0.15551819 0.057131223 -0.13385727 0.13752528 -6.760036e-05 -0.08347036 0.00089164235
0.15143643 0.16662608 0.04395824 0.047325462 0.08929283 -0.083296895 0.07833706 -0.049181312
0.05762277 0.002375814 -0.00033898468 -0.0011519898 0.031581122 -0.17894158 0.016830044 -0.0319292
-0.14690463 -0.037835546 -0.14091554 0.074866496 -0.026714731 0.092082724 -0.070551105 -0.058229584
0.023530567 -0.09077891 0.04271075 -0.061175443 0.09616799 -1.37158595e-05 -0.045762107 0.10305782
-0.08020801 0.08466956 0.06543398 0.007987346 0.10083467 0.054449953 0.0060365945 -0.07131178
-0.018611334 0.059120484 0.027630625 0.079948 0.1612292 0.054290995 0.1348513 -0.13199688
-0.079927176 -0.119489215 0.040696878 0.1629561 0.11943587 -0.12848718 0.01068491 -0.047958784
0.120892406 -0.12058944 -0.027570624 -0.04766689 0.117608406 -8.96905e-05 0.13399793 -0.10803839
0.057404157 -0.07118579 0.0691677 0.10108565 0.054636244 0.1810563 0.046264347 -0.025412155
-0.07000721 0.08447385 -0.049091 0.10918713 -0.13634586 -0.01666957 -0.14935878 -0.0765866
00000000: 64db 183e 4995 27bd 27c0 0c3e 613f 2e3e
00000010: 832d 123e 4bfb b1bc fbb5 aebb 1cbf ccbd
00000020: c5ee 4ebd 6c26 093e 3db5 243d 0ce5 4f3d
00000030: e0a5 f83b c8fb 78b8 59ae 23be 198c 4cbb
00000040: 5ffc 373e d167 bbbc 5d1a 1c3e 3cf1 dcbb
00000050: cee0 283e 9b52 013e 1a98 77bc a682 cdbd
00000060: 993e a2bd a3bd 8d3d 9056 b43d 791f 2fbd
00000070: 0581 b6bd 9241 3b3b 6335 2bbe 29cb a0bd
00000080: 16e7 d33d eb0a fabc 9902 443e bf0f 0ebe
00000090: 719d cc3d f40e 4c3e 1855 833d cc0c a33c
000000a0: 960f ca3d 556e a13d ad48 efbc 4d8b 2cbe
000000b0: bcf1 ecbc f69b f8b8 33b6 043e f0cd 2d3d
000000c0: efcb 0e3e e06d 0e3e 7354 b6bd 024b 423d
000000d0: 7f17 bcbd df29 0f3e 3e6a 2c3e 3e3c e03d
000000e0: 3f80 b03d 5eb5 bdbd a6ee 2d3d 993c d6bd
000000f0: 885f 103e 8ca2 8b3c ad9d f43d 411d b73d
00000100: ec66 96bd 9f33 fc3d 23e0 c53d 7902 d73d
00000110: 03d4 58be 45de 7d3d 88f3 9ebd fba2 babc
00000120: 2287 19be a450 183e 764e a63c 00ce 0e3e
00000130: be5f d63b e5c7 9138 7f25 7dbd 618b babc
00000140: 3028 823d c163 95bc 6454 023e cb3f 51bd
00000150: 69b0 933d a142 1fbe 709e 52bc aec0 c4bc
00000160: 2208 923d 339b 553d e549 3cbc 4029 c53d
00000170: cca5 0abe ff23 023d 69cd 2d3d 440a a53d
00000180: 8675 713e 6a31 35bd a928 b13c d0e5 cf3d
00000190: f7c6 eabc 4edd 2a3e 27dc e03d d963 463d
000001a0: d3ef e33d 7e60 b73c f812 8e3d 3bc4 8cbd
000001b0: 35c2 603c abe3 c9b7 d5f4 a63c 2566 a5bd
000001c0: 92d6 59bd 6679 05be 5942 313d e773 40bd
000001d0: 5f0f 273e 72bc 313d 136f adbd 583a 67bd
000001e0: f344 1a3e 5259 97bd 06dc a5bd ff39 ca3d
000001f0: 788f e2bd 7aee 273e 6883 53bd 75d1 a63d
00000200: 7f4e 283e 6a32 3b3d fd81 8d3d 91d0 ba3c
00000210: 0b7f 07be 1f67 b9bd 8954 033d e435 cf3b
00000220: fd4d fd3d a4f5 663d 399d 0ebb b02f 233e
00000230: d8b0 563d 12c7 ba38 3f12 10be d7ec 25be
00000240: 1da2 ee3d 2f84 07be 500c 7fbc 280f 9cbc
00000250: 4ac8 7dbd d5b0 8ebd e2b5 d53d 1296 3d3e
00000260: 6592 1d3e f353 733d e44b b23d 6f7d 25be
00000270: 5476 6a3d a3da babc b762 b8bd ddf6 393d
00000280: f824 cc3c 4ca4 773d a8ed 12be 7750 a5bd
00000290: 4e1b f03b cbb3 033e d4c1 fbbc fbc1 d13d
000002a0: 19fe 7a3d 2940 1fbe 6e02 6a3d e111 09be
000002b0: 6dd3 0c3e abc4 8db8 82f2 aabd 1bbd 693a
000002c0: 2712 1b3e 07a0 2a3e 8e0d 343d 58d8 413d
000002d0: 29df b63d 9097 aabd 2e6f a03d 5872 49bd
000002e0: db05 6c3d 8bb3 1b3b c1b9 b1b9 5dfe 96ba
000002f0: 355b 013d 763c 37be 29df 893c 31c8 02bd
00000300: 2b6e 16be 72f9 1abd 2a4c 10be 9b53 993d
00000310: dad8 dabc de95 bc3d 197d 90bd 2582 6ebd
00000320: 2dc3 c03c 4bea b9bd 78f1 2e3d 1a93 7abd
00000330: b9f3 c43d 2b1d 66b7 0c71 3bbd fa0f d33d
00000340: 1944 a4bd 3c67 ad3d 4002 863d 5bdd 023c
00000350: 6882 ce3d ea06 5f3d a0ce c53b e90b 92bd
00000360: cc76 98bc 5228 723d 9f59 e23c c7bb a33d
00000370: 4419 253e 3c60 5e3d 7616 0a3e 312a 07be
00000380: dcb0 a3bd c3b6 f4bd c5b1 263d f7dd 263e
00000390: cb9a f43d 2592 03be c30f 2f3c 6e70 44bd
000003a0: 7096 f73d 99f7 f6bd cadb e1bc 5b3e 43bd
000003b0: addc f03d 3818 bcb8 c136 093e 3b43 ddbd
000003c0: 9f20 6b3d dbc9 91bd cca7 8d3d fe05 cf3d
000003d0: 41ca 5f3d d366 393e af7f 3d3d 272d d0bc
000003e0: f15f 8fbd a000 ad3d a513 49bd 819d df3d
000003f0: 409e 0bbe 9f8e 88bc 82f1 18be 6fd9 9cbd

attention.value_conv.bias f4 [32]
0.16575383 -0.001125356 -0.09119211 -0.032104578 -0.16076113 0.056104276 -0.0023248729 0.07052802
-0.08269848 0.007043121 0.0352409 0.051445603 0.12855595 0.10984849 0.12519619 -0.10082072
-0.08352755 0.025643362 -0.1254185 0.0701393 0.046159532 0.013094386 -0.11312741 -0.12257904
0.008816563 -0.023991082 -0.09063746 -0.024414526 -0.03123358 -0.09298918 -0.076582916 0.019473275
00000000: 5fbb 293e ae80 93ba eec2 babd 1780 03bd
00000010: 919e 24be 99cd 653d e55c 18bb ff70 903d
00000020: d25d a9bd fbc9 e63b c358 103d a0b8 523d
00000030: 2ca4 033e 3ff8 e03d 6e33 003e 187b cebd
00000040: 7e10 abbd 0712 d23c b56d 00be 31a5 8f3d
00000050: c711 3d3d d689 563c 58af e7bd b80a fbbd
00000060: 5873 103c f288 c4bc 22a0 b9bd f900 c8bc
00000070: 91dd ffbc 1c71 bebd 81d7 9cbd 6b86 9f3c

attention.out_conv.weight f4 [32, 32, 1, 1]
-0.115671046 -0.120449714 -0.095654204 -0.06424463 0.018791515 -0.111510396 0.07569508 0.0397971
0.0071879346 0.021366583 0.08421881 0.055443138 -0.091799304 0.12106599 0.07821 -0.021168817
-0.17135413 -0.024399424 -0.09244611 -0.082172304 -0.100915104 -0.02341704 -0.15187223 0.14683615
0.1344166 0.16105199 -0.17264257 -0.12343182 0.06428101 0.042948272 0.11722747 -0.1528003
-2.2743114e-05 -0.04010483 0.17965044 -0.16381179 0.008927438 -0.16273946 0.13081838 0.09304076
0.15772165 0.17044184 0.08276596 -0.083112456 -0.006944569 -0.15063974 -0.10176282 0.11335163
-0.117807165 -0.10742493 -0.09385148 -0.059707057 -0.15565972 -0.16029069 0.1419617 0.02481005
-0.039280076 -0.05416643 -0.17856403 -0.15382181 -0.00059711887 -0.079099365 -0.081806906 0.11136129
0.046848375 0.20451821 -0.14972569 -0.12908064 -0.01601171 0.10998724 0.15343481 0.13940588
-0.06763335 0.052638855 -0.015647395 -0.10330645 -0.089884534 -0.101973906 -0.08527853 0.14680593
0.042914454 0.15794012 -0.09951952 -0.11694956 0.085675254 -0.12520923 0.11974827 0.14148402
0.13005716 -0.14834192 0.13337924 0.033482738 0.05494216 -0.039187 0.17277461 0.08673743
-0.18894693 0.1544824 0.06567501 -0.058581848 -0.065989934 -0.0062213503 0.12733549 -0.17314833
0.11400069 0.021617904 0.063696764 0.12723988 0.0533931 -0.002476491 0.09384668 0.15911904
-0.09595638 -0.061493803 -0.1663109 -0.068624355 0.1373444 -0.09545046 -0.09505018 0.031927075
-0.0746188 0.14801048 0.13504188 0.09241686 -0.107189804 -0.1622587 0.061833672 -0.2126808
0.124334015 0.15841606 -0.19063035 -0.07286423 0.16532935 -0.14724565 0.06929549 0.038355857
-0.00038622672 0.1124031 0.058305874 0.12300486 -0.22373852 -0.05926798 0.10354652 0.061504725
-0.08752345 0.031874336 -0.14783598 0.06661892 0.0939182 -0.04741949 0.009020188 0.11077149
-0.122462235 0.12332137 0.04091888 -0.12177444 0.055131838 -0.16095702 0.0680492 -0.14793243
-0.05301829 0.06517496 -0.16512232 -0.06271621 -0.038113423 -0.11558451 0.0108828675 0.06333834
-0.039144896 0.15214363 -0.103901714 -0.01565119 -0.030723529 -0.08692189 0.044449646 -0.14603664
-0.0009523259 -0.05794441 -0.11320453 0.1265526 -0.01505154 -0.11268512 -0.06489845 -0.15890606
-0.19370578 0.06538085 0.029675642 -0.08729601 -0.039931335 -0.21715549 0.1770204 -0.05751509
0.0330118 0.02148473 -0.0057400046 -0.08757764 0.18120755 -0.20101106 0.08147259 -0.12154744
-0.10874241 0.17615871 -0.007169338 0.03182335 -0.018081686 -0.14884897 0.13891089 -0.028347824
0.08972725 0.17649284 -0.06396561 -0.07453327 -0.16176657 -0.07409628 0.045813676 -0.042751167
-0.088099726 0.031012023 -0.026616689 -0.09069734 0.10036844 -0.013740578 -0.12577078 0.12792218
-0.064773284 0.074387126 -0.09996248 -0.084954314 0.1677215 -0.16331425 -0.09251486 -0.16185917
-0.2177639 -0.16116074 0.07903447 0.047840167 0.12651922 0.07329555 0.11149762 -0.079774626
0.037131913 0.033946816 0.12549788 0.082409136 -0.15931056 0.15202157 -0.038816676 0.10064362
-0.010858323 -0.006971842 0.023705728 0.06959361 -0.08768973 0.149738 -0.07140241 0.027157664
00000000: f1e4 ecbd 57ae f6bd 5ae6 c3bd b092 83bd
00000010: aaf0 993c 905f e4bd 0606 9b3d 4902 233d
00000020: c488 eb3b f908 af3c e97a ac3d 5818 633d
00000030: 4601 bcbd 72f1 f73d 912c a03d 3a6a adbc
00000040: 7577 2fbe 4de1 c7bc 6354 bdbd f449 a8bd
00000050: 94ac cebd 18d5 bfbc 6584 1bbe 375c 163e
00000060: 81a4 093e d0ea 243e 37c9 30be d2c9 fcbd
00000070: c3a5 833d 87ea 2f3d f514 f03d af77 1cbe
00000080: 77c8 beb7 f644 24bd 49f6 373e 47be 27be
00000090: 6444 123c 2ca5 26be 41f5 053e 278c be3d
000000a0: c981 213e 4e88 2e3e 3381 a93d dd36 aabd
000000b0: 448f e3bb 4e41 1abe 0669 d0bd e624 e83d
000000c0: e244 f1bd 9a01 dcbd 3435 c0bd 638f 74bd
000000d0: 4365 1fbe 3e23 24be 685e 113e 723e cb3c
000000e0: 25e4 20bd 9edd 5dbd 7dd9 36be 7783 1dbe
000000f0: f887 1cba d9fe a1bd 618a a7bd 6311 e43d
00000100: 15e4 3f3d 396d 513e b151 19be b72d 04be
00000110: fd2a 83bc fd40 e13d 041e 1d3e 6ac0 0e3e
00000120: 5b83 8abd d79b 573d f72e 80bc 5592 d3bd
00000130: 6215 b8bd b2d7 d0bd 83a6 aebd 4b54 163e
00000140: 11c7 2f3d 0ebb 213e e4d0 cbbd 4083 efbd
00000150: 8276 af3d d936 00be 953e f53d 30e1 103e
00000160: b42d 053e f2e6 17be 9194 083e 3225 093d
00000170: 080b 613d 8c82 20bd d4eb 303e 65a3 b13d
00000180: 4e7b 41be a230 1e3e 9f80 863d 85f3 6fbd
00000190: bb25 87bd 78dc cbbb 3c64 023e cc4d 31be
000001a0: 3279 e93d 0818 b13c 7373 823d 2c4b 023e
000001b0: b9b2 5a3d a04c 22bb b032 c03d 1af0 223e
000001c0: c784 c4bd ede0 7bbd 684d 2abe ed8a 8cbd
000001d0: 03a4 0c3e 887b c3bd aba9 c2bd f7c5 023d
000001e0: bed1 98bd 0f90 173e 6b48 0a3e 0d45 bd3d
000001f0: 5486 dbbd 2527 26be 4e45 7d3d ffc8 59be
00000200: d5a2 fe3d d237 223e 9a34 43be d739 95bd
00000210: 194c 293e 90c7 16be cbea 8d3d 081b 1d3d
00000220: 797e cab9 9933 e63d 24d2 6e3d f9e9 fb3d
00000230: b61b 65be fbc2 72bd 3310 d43d 61ec 7b3d
00000240: 7f3f b3bd aa8e 023d 5162 17be 806f 883d
00000250: 2f58 c03d f03a 42bd 69c9 133c 2adc e23d
00000260: 7bcd fabd ea8f fc3d 8e9a 273d e164 f9bd
00000270: ecd1 613d ebd1 24be 615d 8b3d 997b 17be
00000280: b529 59bd 737a 853d d315 29be 5b71 80bd
00000290: d21c 1cbd 92b7 ecbd 0e4e 323c 88b7 813d
000002a0: 6656 20bd 8acb 1b3e 6cca d4bd ed36 80bc
000002b0: e9af fbbc 1b04 b2bd d510 363d a18a 15be
000002c0: 82a5 79ba 1e57 6dbd c7d7 e7bd 0197 013e
000002d0: bc9a 76bc 75c7 e6bd 7be9 84bd 45b8 22be
000002e0: cf5a 46be 65e6 853d 551a f33c 40c8 b2bd
000002f0: 0a8f 23bd 025e 5ebe d644 353e f194 6bbd
00000300: 6237 073d bf00 b03c a616 bcbb e85b b3bd
00000310: 798e 393e d8d5 4dbe 1adb a63d dded f8bd
00000320: 57b4 debd f362 343e c4ec eabb 3359 023d
00000330: 0b20 94bc dd6b 18be a83e 0e3e b239 e8bc
00000340: ecc2 b73d 8aba 343e 6700 83bd e6a4 98bd
00000350: 23a6 25be cabf 97bd 1fa7 3b3d d91b 2fbd
00000360: a16d b4bd ed0c fe3c 3e0b dabc 87bf b9bd
00000370: f88d cd3d 2920 61bc 0eca 00be 08fe 023e
00000380: dba7 84bd 4758 983d 21b9 ccbd 87fc adbd
00000390: 2fbf 2b3e da3b 27be 6e78 bdbd 69be 25be
000003a0: 80fd 5ebe 5207 25be d3dc a13d 0df4 433d
000003b0: 418e 013e fa1b 963d dd58 e43d e160 a3bd
000003c0: a217 183d d10b 0b3d 8482 003e 1fc6 a83d
000003d0: 4f22 23be 8bab 1b3e 3cfe 1ebd 3e1e ce3d
000003e0: 1ce7 31bc 0d74 e4bb 8432 c23c 1887 8e3d
000003f0: ac96 b3bd eb54 193e 6d3b 92bd c079 de3c

attention.out_conv.bias f4 [32]
-0.027790159 0.03453467 0.10472328 0.064926505 -0.0010390437 -0.06928278 0.032629676 -0.06464979
0.02987556 0.15611097 -0.0074161044 -0.045605313 0.039515726 0.06378056 0.047347754 0.047114752
-0.02236241 0.04875997 -0.13793902 0.07300112 0.025842361 -0.03214532 -0.00458309 0.03340624
-0.028747408 0.18296516 0.079441726 0.089996345 -0.15057305 0.035549637 -0.0487086 -0.09049748
00000000: 30a8 e3bc 3a74 0d3d 2979 d63d 30f8 843d
00000010: 8530 88ba 21e4 8dbd b2a6 053d 1c67 84bd
00000020: 97bd f43c 8edb 1f3e cb02 f3bb a3cc 3abd
00000030: 3edb 213d 629f 823d b8ef 413d 66fb 403d
00000040: 5f31 b7bc 89b8 473d e33f 0dbe 9c81 953d
00000050: 5cb3 d33c d0aa 03bd bf2d 96bb fbd4 083d
00000060: af7f ebbc 385b 3b3e 58b2 a23d 0150 b83d
00000070: d22f 1abe 7f9c 113d ab82 47bd be56 b9bd
