model_components/traffic_light_FGSM_E21.pth (torch, 68234 bytes, 26 tensors)

encoder.0.weight f4 [16, 3, 3, 3]
0.08629618 -0.043872103 -0.031606205 0.13468799 -0.0556621 0.06798558 0.0550522 -0.08962692
0.08508404 -0.018990695 0.23339544 0.017538354 0.21840033 0.16566624 0.11723098 -0.15369952
0.18869478 -0.13595733 0.12543865 0.1743143 0.04688343 0.2589494 0.030776752 -0.038723536
0.074595 -0.0070959446 -0.12367038 -0.07393225 -0.20834233 0.033447236 -0.06346223 0.03562625
0.10538781 -0.048594836 0.063892856 -0.023302443 0.15775399 -0.194025 -0.08996529 0.16048339
-0.21409115 0.06494857 0.12412402 -0.15504326 -0.17117636 0.14746599 -0.29148093 -0.06912855
0.10144147 -0.0884357 0.1978734 -0.009704589 0.0039260937 -0.05129753 0.09333097 -0.16500622
-0.014218287 -0.14623821 0.02627908 0.02100964 0.24268869 0.035146967 0.27679378 -0.0870725
0.056910757 0.040477604 0.092322744 0.052288588 0.012147284 -0.07824059 -0.10447631 -0.014422585
-0.012039413 -0.15605748 -0.05450218 -0.34772182 0.07332464 0.10446587 -0.21635628 -0.09542276
-0.07025161 0.026823346 -0.21919732 -0.07069612 -0.1797332 -0.35761192 -0.02599249 -0.13328627
-0.25751683 -0.016234746 0.0018358561 0.041320242 0.19810903 -0.18146211 -0.19710274 -0.045281086
-0.0974802 -0.18021755 0.20188284 0.01804281 -0.15112676 0.21190369 -0.2789217 -0.058339808
-0.21973205 -0.077891946 0.0019504656 0.043346133 -0.11539639 -0.23592846 -0.007396377 0.089527495
-0.07507511 0.06299759 -0.2269134 -0.2500337 -0.16192792 -0.011372872 0.044999473 0.0441567
0.046146322 -0.079126105 -0.03938601 0.031839352 0.114904955 -0.051182333 0.16429788 0.012311708
0.07378252 0.25786772 0.17023134 0.058408935 -0.026181 -0.07388346 0.099826686 0.22588845
0.03202143 0.039526507 0.1608004 -0.22709297 -0.1740223 -0.0799441 -0.19950394 -0.039070208
-0.068190195 0.068023436 -0.12402291 -0.07697097 -0.042982284 -0.049135476 -0.07615712 -0.2494742
0.11186688 0.16825151 -0.08085055 -0.04201125 -0.08727444 -0.29342264 -0.023958666 0.027060378
-0.19552062 -0.14271262 0.048130404 -0.023277959 -0.065120645 0.073868096 0.19298293 -0.111172095
-0.21741118 0.07148875 -0.117170766 -0.10777104 0.22083734 -0.13397376 0.25792912 0.3104429
0.1592116 0.060217284 0.33118615 -0.05666726 -0.13700554 0.054959636 -0.1072282 0.11598686
0.05356759 0.004162049 -0.17910092 -0.10688757 0.024382992 -0.06839428 0.17851125 0.16167198
-0.18900757 -0.11431764 -0.12057367 0.21813509 -0.08371858 0.21646579 0.15741478 -0.010436782
-0.05268836 0.08182 -0.114285104 -0.056224722 0.016828801 -0.25592744 0.012377684 0.08334246
-0.009528013 -0.019787243 -0.11800322 -0.0444004 0.07886257 0.014422667 -0.12424669 0.0710782
-0.19012924 0.09521758 -0.027813395 0.054551955 -0.12066451 0.16502729 -0.14209929 0.0276589
-0.12406773 -0.17215653 -0.039391417 -0.005145388 0.07802713 0.16178568 -0.08316147 -0.15071717
-0.0023145752 -0.06569759 0.019447278 0.05240798 -0.16471127 0.049063805 0.43878943 0.25011304
0.22433554 0.19618033 0.24439435 -0.07921152 0.025009036 0.10034155 -0.018035611 0.26294306
0.08100761 0.0243766 0.20318659 0.16075797 -0.08823556 -0.030966027 0.06270943 -0.0016019449
00000000: 0dbc b03d 3cb3 33bd 8275 01bd a6eb 093e
00000010: f1fd 63bd 063c 8b3d 6a7e 613d 528e b7bd
00000020: 8b40 ae3d 6092 9bbc 37ff 6e3e 98ac 8f3c
00000030: 56a4 5f3e 69a4 293e cc16 f03d 6863 1dbe
00000040: 3439 413e 6638 0bbe fd72 003e 737f 323e
00000050: d708 403d 0495 843e 871f fc3c 929c 1ebd
00000060: 43c5 983d 1985 e8bb e546 fdbd cb69 97bd
00000070: b157 55be f8ff 083d 7cf8 81bd d5ec 113d
00000080: 90d5 d73d 610b 47bd 42da 823d c4e4 bebc
00000090: 438a 213e 7dae 46be b93f b8bd c255 243e
000000a0: b63a 5bbe c203 853d bc34 fe3d a9c3 1ebe
000000b0: db48 2fbe 5301 173e fd3c 95be 4593 8dbd
000000c0: 8cc0 cf3d c71d b5bd 539f 4a3e ffff 1ebc
000000d0: 76a6 803b 5c1d 52bd 4f24 bf3d 64f7 28be
000000e0: d1f3 68bc 78bf 15be 3a47 d73c 691c ac3c
000000f0: 6283 783e 44f6 0f3d eab7 8d3e 1153 b2bd
00000100: 411b 693d d8cb 253d b513 bd3d 8f2c 563d
00000110: 6705 473c 9a3c a0bd adf7 d5bd b54c 6cbc
00000120: f540 45bc 88cd 1fbe ae3d 5fbd 9808 b2be
00000130: 3b2b 963d 34f2 d53d 808c 5dbe 026d c3bd
00000140: 13e0 8fbd a2bc db3c 4375 60be 21c9 90bd
00000150: fb0b 38be e918 b7be 34ee d4bc 327c 08be
00000160: 3fd9 83be bbfe 84bc 1ca1 f03a 6a3f 293d
00000170: 18dd 4a3e 34d1 39be 4dd5 49be a978 39bd
00000180: b3a3 c7bd f38a 38be 60ba 4e3e 84ce 933c
00000190: f9c0 1abe 48fd 583e d3ce 8ebe b9f5 6ebd
000001a0: 7001 61be d085 9fbd c4a6 ff3a b78b 313d
000001b0: f154 ecbd 3b97 71be 4f5d f2bb 315a b73d
000001c0: fbc0 99bd e104 813d fd5b 68be 6b04 80be
000001d0: 6fd0 25be 4855 3abc 5e51 383d a8dd 343d
000001e0: ed03 3d3d de0c a2bd 3a53 21bd fb69 023d
000001f0: 4a53 eb3d 91a4 51bd b43d 283e 0cb7 493c
00000200: 4a1b 973d 3d07 843e 2051 2e3e 353e 6f3d
00000210: 8979 d6bc 3650 97bd ef71 cc3d 4d4f 673e
00000220: e728 033d 8ce6 213d dca8 243e 0f8b 68be
00000230: e732 32be bbb9 a3bd c34a 4cbe 1508 20bd
00000240: 4da7 8bbd df4f 8b3d b9ff fdbd f5a2 9dbd
00000250: 310e 30bd 4842 49bd 44f8 9bbd 2a76 7fbe
00000260: 761a e53d 204a 2c3e f994 a5bd fd13 2cbd
00000270: f1bc b2bd 7e3b 96be f744 c4bc baad dd3c
00000280: 8f36 48be 4223 12be 6324 453d 6bb1 bebc
00000290: f95d 85bd 2848 973d 519d 453e 32ae e3bd
000002a0: 09a1 5ebe b268 923d 3af7 efbd 10b7 dcbd
000002b0: 2f23 623e 6b30 09be 490f 843e 5ff2 9e3e
000002c0: 5e08 233e 66a6 763d 3b91 a93e ee1b 68bd
000002d0: 2e4b 0cbe 5b1d 613d 759a dbbd 858a ed3d
000002e0: b069 5b3d cc61 883b 3b66 37be dfe7 dabd
000002f0: d7be c73c 4d12 8cbd a7cb 363e 578d 253e
00000300: 338b 41be 5e1f eabd 54ef f6bd ce5e 5f3e
00000310: a674 abbd 35a9 5d3e 5731 213e 09ff 2abc
00000320: c0cf 57bd 3f91 a73d 4f0e eabd e54b 66bd
00000330: 8edc 893c ec08 83be c5cb 4a3c 74af aa3d
00000340: 621b 1cbc db18 a2bc acab f1bd 32dd 35bd
00000350: b382 a13d 0d4d 6c3c 0c75 febd 7391 913d
00000360: 3db1 42be 6f01 c33d ebd8 e3bc df71 5f3d
00000370: f41e f7bd eafc 283e 7a82 11be eb94 e23c
00000380: 3917 febd cd49 30be e558 21bd a59a a8bb
00000390: b0cc 9f3d 25ab 253e 9050 aabd 9a55 1abe
000003a0: 21b0 17bb 758c 86bd e64f 9f3c c0a9 563d
000003b0: 12aa 28be 21f7 483d 02a9 e03e d10e 803e
000003c0: 37b8 653e 7fe3 483e 8342 7a3e a639 a2bd
000003d0: c0df cc3c df7f cd3d 6bbf 93bc 79a0 863e
000003e0: 51e7 a53d 6fb1 c73c 2510 503e bd9d 243e
000003f0: d8b4 b4bd 77ac fdbc cd6d 803d 5af8 d1ba

encoder.0.bias f4 [16]
0.16033344 -0.25093377 0.011653411 0.07637814 -0.15716246 0.042784803 0.11737661 0.033329315
-0.0036326256 -0.04914368 0.08733798 0.31360033 0.14871292 0.17930102 0.012824097 0.090980075
00000000: 732e 243e 647a 80be f3ed 3e3c 246c 9c3d
00000010: 32ef 20be 1e3f 2f3d 2663 f03d 5284 083d
00000020: 5811 6ebb e24a 49bd 41de b23d 3990 a03e
00000030: 3348 183e b09a 373e 291c 523c c353 ba3d

encoder.2.weight f4 [32, 16, 3, 3]
-0.10576869 -0.054036226 0.0036042493 -0.04061584 0.04321619 -0.00173758 -0.008491215 0.03272515
0.01909753 0.034273036 0.107875325 0.007370463 0.047166266 -0.012649535 -0.0004374647 -0.010556046
0.13682334 -0.027155833 0.0022431284 0.022132145 -0.007459351 -0.021524126 0.09100588 -0.0012486343
-0.034588877 0.004066615 0.045235705 0.06348096 0.06301348 0.04155239 -0.03707621 0.124782644
0.09373699 0.05987002 -0.0056784423 0.08232433 -0.045413014 -0.029204218 -0.027730936 0.07855894
0.060858734 0.037454024 0.05854903 0.11046961 0.011365801 0.046017595 0.072909705 0.0010078261
-0.018507035 -0.013068274 0.058562264 0.04762444 0.060170006 -0.01786658 -0.00022087569 -0.025196819
0.0024455541 0.039691377 0.011531362 -0.0077755703 -0.049300388 -0.020662062 -0.0044723903 -0.0362662
0.05906318 0.0025491496 -0.060613208 0.0042834627 0.08878762 0.06756821 0.07374784 0.036349062
-0.008569018 -0.012657775 -0.050697107 -0.0709218 0.011146653 -0.00043748107 0.00986513 -0.03541065
0.0534907 0.012819292 -0.02363992 0.03189801 0.059958152 -0.009110749 -0.0016610029 -0.012517144
0.016930098 -0.038390137 0.052877646 0.07218713 0.090988465 0.080212705 0.10757935 0.08971086
0.047715258 0.048939288 0.05193733 -0.027665231 -0.029298263 -0.04026411 -0.030262463 0.0290488
0.0062714396 -0.017583039 -0.00437729 0.025405921 -0.0117442105 -0.0030227944 0.07070609 0.00085347367
0.105800144 0.009803055 -0.01582841 0.1060228 -0.036880378 -0.06902786 -0.023319235 -0.09509728
0.04159073 0.04723351 -0.06714057 0.043746926 -0.038128544 -0.032304917 0.008031825 -0.018586278
-0.0024169406 0.0041372865 -0.006865873 0.075477034 0.032118 0.03541954 0.027999265 0.065080464
-0.0026757696 0.008314714 0.07081546 0.05376033 0.07848157 -0.0007491256 0.0075186957 -0.035379093
-0.11844461 -0.041537467 -0.062329 -0.023850042 0.043169193 0.076240115 -0.0055215782 -0.012540217
-0.01594195 -0.044352397 0.071113795 -0.04242928 0.038910136 -0.054801263 -0.061965723 0.030702753
-0.03532192 -0.06714493 0.081357695 0.09773741 0.016218415 0.009534266 0.063817255 0.069333345
0.028189002 -0.0060282787 -0.031585548 -0.02481848 -0.09070076 -0.059747607 0.04123364 0.040086545
-0.064944565 -0.055790618 0.04351374 -0.056472003 0.01735873 0.13086683 0.100815795 0.104606666
0.040556192 0.07070112 0.077275 -0.00951719 0.08203026 -0.01141385 -0.07525653 -0.083779685
0.027411021 -0.025945975 -0.03294864 -0.021811826 0.026801806 0.035220288 0.012759161 0.00060429523
0.09348507 -0.015101132 -0.03829698 0.14198832 0.007940788 -0.022333968 0.055744775 0.012156201
0.05883822 -0.0010683998 -0.027895613 0.01491523 0.009882939 0.077628404 0.051149722 0.024067763
0.090805806 0.026475886 0.0901963 -0.0435338 -0.0848548 -0.01712057 -0.119578704 -0.09081366
-0.030906478 -0.018633975 0.02433792 -0.042304255 -0.005416214 0.055302244 0.02559591 -0.100074634
0.0111834025 -0.07754153 -0.044435024 -0.050934788 0.03342972 -0.067050025 -0.07405608 0.053089418
0.034103643 -0.020366412 0.038517788 -0.011124024 -0.0075498284 -0.026957424 0.018883133 0.086153656
-0.018677177 -0.008403543 -0.01628002 -0.07846123 -0.046024438 -0.00056662795 -0.061984405 0.03325684
00000000: 419d d8bd 1755 5dbd 4535 6c3b cc5c 26bd
00000010: 7603 313d 83bf e3ba bd1e 0bbc cf0a 063d
00000020: 6c72 9c3c e261 0c3d bded dc3d ed83 f13b
00000030: 6a31 413d ff3f 4fbc 855b e5b9 44f3 2cbc
00000040: 6b1b 0c3e e975 debc 7301 133b 794e b53c
00000050: 926d f4bb 5d53 b0bc 4a61 ba3d 37a9 a3ba
00000060: 11ad 0dbd 3d41 853b 1349 393d 4e02 823d
00000070: 360d 813d d732 2a3d 39dd 17bd 0b8e ff3d
00000080: 2ef9 bf3d 443a 753d 3a12 babb a999 a83d
00000090: ff02 3abd af3d efbc fd2b e3bc 82e3 a03d
000000a0: 0247 793d 6469 193d 1cd1 6f3d e43d e23d
000000b0: a037 3a3c f27c 3c3d af51 953d 0819 843a
000000c0: 119c 97bc 501c 56bc fcde 6f3d d811 433d
000000d0: d374 763d ef5c 92bc de9a 67b9 8f69 cebc
000000e0: 9745 203b 6d93 223d 0aee 3c3c 36ca febb
000000f0: 34ef 49bd 7c43 a9bc 218d 92bb de8b 14bd
00000100: 3cec 713d a20f 273b 8e45 78bd 4a5c 8c3b
00000110: 49d6 b53d 3461 8a3d 1c09 973d c1e2 143d
00000120: 1165 0cbc 8e62 4fbc c5a7 4fbd 733f 91bd
00000130: 74a0 363c b75d e5b9 5ba1 213c c20a 11bd
00000140: 1019 5b3d 0208 523c 81a8 c1bc 7da7 023d
00000150: ae96 753d 4045 15bc 02b6 d9ba b514 4dbc
00000160: fdb0 8a3c fa3e 1dbd 3b96 583d d9d6 933d
00000170: 2958 ba3d 8f46 a43d 9052 dc3d 54ba b73d
00000180: 1371 433d 9074 483d 3dbc 543d 32a2 e2bc
00000190: e902 f0bc fbeb 24bd fce8 f7bc c0f7 ed3c
000001a0: a680 cd3b 4e0a 90bc 5f6f 8fbb 1420 d03c
000001b0: ca6a 40bc 131a 46bb 5bce 903d a6bb 5f3a
000001c0: bfad d83d fe9c 203c 95aa 81bc 7b22 d93d
000001d0: e10f 17bd 7b5e 8dbd fb07 bfbc 5dc2 c2bd
000001e0: 0b5b 2a3d ed77 413d ff80 89bd fa2f 333d
000001f0: ad2c 1cbd 2952 04bd ea97 033c 4042 98bc
00000200: 8965 1ebb 1392 873b 1efb e0bb b493 9a3d
00000210: 2a8e 033d 1414 113d b75e e53c e848 853d
00000220: f75b 2fbb 703a 083c b207 913d cb33 5c3d
00000230: f2ba a03d f860 44ba 645f f63b abe9 10bd
00000240: 1693 f2bd 3123 2abd b24c 7fbd 2a61 c3bc
00000250: 2ed2 303d c723 9c3d 5bee b4bb 7b75 4dbc
00000260: b198 82bc dcaa 35bd 1ca4 913d 53ca 2dbd
00000270: 3c60 1f3d 4a77 60bd c5cf 7dbd 5784 fb3c
00000280: b8ad 10bd 4883 89bd dd9e a63d 8d2a c83d
00000290: 7bdc 843c 9c35 1c3c 9fb2 823d a4fe 8d3d
000002a0: 9fec e63c de88 c5bb d95f 01bd 2050 cbbc
000002b0: 52c1 b9bd e8b9 74bd 9be4 283d ca31 243d
000002c0: a801 85bd b484 64bd 773b 323d 304f 67bd
000002d0: e533 8e3c f401 063e 8378 ce3d 053c d63d
000002e0: 401e 263d c0cb 903d 5b42 9e3d fded 1bbc
000002f0: 7bff a73d 2801 3bbc 1820 9abd af94 abbd
00000300: 148d e03c a78c d4bc 27f5 06bd b7ae b2bc
00000310: 768f db3c 2643 103d cd0b 513c 9169 1e3a
00000320: 1a75 bf3d bd6a 77bc 4bdd 1cbd 6365 113e
00000330: 141a 023c baf5 b6bc a254 643d cd2a 473c
00000340: 5800 713d 8c09 8cba 5785 e4bc 025f 743c
00000350: 0dec 213c a4fb 9e3d 5f82 513d c229 c53c
00000360: 65f8 b93d f5e3 d83c d6b8 b83d 7f50 32bd
00000370: 5ac8 adbd 7040 8cbc aee5 f4bd 83fc b9bd
00000380: 952f fdbc 47a6 98bc 5160 c73c 3a47 2dbd
00000390: 7f7a b1bb 9b84 623d 84ae d13c eef3 ccbd
000003a0: 973a 373c 18ce 9ebd 8001 36bd ffa0 50bd
000003b0: 9aed 083d 8651 89bd b7aa 97bd 4a74 593d
000003c0: 43b0 0b3d 76d7 a6bc d4c4 1d3d 8a41 36bc
000003d0: 8d64 f7bb d1d5 dcbc cdb0 9a3c 5471 b03d
000003e0: e100 99bc 04af 09bc ad5d 85bc 48b0 a0bd
000003f0: 1f84 3cbd c289 14ba 5ce3 7dbd 5338 083d

encoder.2.bias f4 [32]
-0.046933886 -0.057766277 0.018495616 0.045731418 0.004306228 -0.04036068 0.13277604 -0.09211281
0.039748352 -0.02977953 -0.07496786 0.07296748 0.11523902 0.12395904 -0.015716638 -0.026338715
0.0015675363 -0.13317943 0.030771248 0.045446426 0.17600808 0.042233165 -0.06824063 0.00705071
0.07184891 0.04933261 0.2609221 0.05713893 0.06329738 -0.004811779 -0.1706534 -0.13047536
00000000: bf3d 40bd 559c 6cbd 1e84 973c de50 3b3d
00000010: 421b 8d3b 3e51 25bd 71f6 073e a4a5 bcbd
00000020: 2bcf 223d 33f4 f3bc c088 99bd f96f 953d
00000030: 6f02 ec3d 3dde fd3d 2ec0 80bc 4ac4 d7bc
00000040: ca75 cd3a 3060 08be fc13 fc3c 0826 3a3d
00000050: 763b 343e affc 2c3d bec1 8bbd a409 e73b
00000060: 8525 933d fe10 4a3d 9597 853e 830a 6a3d
00000070: 0fa2 813d 21ac 9dbb c4bf 2ebe 559b 05be

conv_skip.weight f4 [16, 16, 1, 1]
-0.06702636 -0.15309443 0.042076413 0.21841294 -0.06930122 0.29078844 -0.26031458 0.18472074
-0.26645315 0.06519855 0.031219691 -0.09297485 0.0792081 0.1426197 0.23451763 0.07351992
0.22548565 -0.111869596 -0.21810652 0.02900286 -0.10377231 -0.27164552 -0.01031629 0.045323696
0.13695136 -0.031057062 0.150988 -0.09860342 -0.27031976 0.0039491146 -0.1442118 -0.25969854
-0.17294502 -0.20877804 -0.13869838 0.12306587 0.23025568 -0.13316394 0.18471843 0.076872624
-0.24636309 -0.117704324 0.25676638 -0.08829661 0.16920704 0.17808898 -0.19448036 0.26529828
0.098970376 0.009898551 0.2512346 -0.040853817 -0.2563311 0.17461456 -0.029430456 0.13048902
-0.006334956 -0.1421404 -0.041897207 -0.13559848 0.15561485 0.062017474 -0.10899454 0.15050034
-0.16099098 0.12393816 0.15127935 0.24689747 -0.017373608 0.02567599 -0.2105802 -0.10190552
-0.05082411 -0.064781666 0.055522706 -0.08165635 0.16762352 0.12770717 0.15412393 0.026588883
0.06641076 -0.38054478 0.077772856 0.168435 0.26653412 -0.027631156 0.24244003 0.061017066
0.06288681 0.1365716 0.03850177 -0.108897515 0.014709042 -0.13191368 -0.13507853 -0.24956292
-0.04697148 -0.014639774 0.18330735 0.17630391 -0.15531316 0.2376667 0.080808036 0.20631757
-0.25986713 0.040062413 0.25855538 0.058909774 -0.04934758 -0.13793638 0.24497326 0.1610482
0.21489455 -0.20060469 -0.24942575 -0.07509498 -0.17423862 -0.14789167 0.06544147 -0.22545959
0.23877944 0.06304706 -0.033055574 0.048695564 -0.009152317 -0.057380036 0.057200734 0.023386061
0.13713452 -0.033721995 -0.1499551 -0.25537038 -0.17616305 -0.021823911 0.11604371 -0.14003067
-0.07914046 -0.2908434 0.13494678 -0.28244177 -0.24269374 0.09695855 -0.069621764 0.027222838
0.031775568 -0.017029563 -0.06968936 0.005062244 0.08296891 0.06981397 -0.021238772 0.12247876
-0.027656991 -0.34723574 -0.16951579 -0.20721857 0.18424246 0.06293972 0.051439624 -0.12205302
-0.067177355 -0.17149289 -0.046898518 0.044499055 0.01406765 0.03455826 -0.2117708 -0.07565799
-0.16365384 -0.26682878 0.10233325 -0.20455378 0.17726535 -0.1880315 0.18208097 -0.07992869
-0.15735929 0.088479854 0.099117264 0.006426502 0.0591476 0.1322005 -0.28814712 0.15406995
-0.15263905 -0.17444569 0.28589964 0.106174365 0.092962444 0.15675007 0.19382524 0.038689073
-0.07809502 0.249174 0.10521009 -0.11468106 0.0786801 0.24765486 -0.22449848 0.09792405
0.07354366 0.022674713 -0.17848481 -0.2537445 0.14963731 0.2129463 0.06332786 0.19602005
0.04287033 -0.17196353 -0.047095243 -0.07858589 -0.11691645 0.03087828 0.03048064 0.10121784
0.27731404 0.14212842 -0.2457843 -0.1054671 0.031867668 0.013625923 0.024111638 0.07041399
0.10873569 0.26160187 -0.049724687 -0.11255792 0.1816143 0.26992103 0.061961997 0.04157198
-0.37997591 -0.32197657 -0.034041863 0.16386236 -0.12030836 -0.16875757 -0.13166305 0.04559232
-0.05325867 -0.029820677 0.020681957 0.16755965 -0.083922535 0.33936584 -0.08773063 0.19656348
0.13817163 0.3634695 -0.16320278 -0.0313284 0.3106146 -0.2006907 -0.1817525 -0.043901347
00000000: 1e45 89bd c9c4 1cbe 5158 2c3d a4a7 5f3e
00000010: cced 8dbd 39e2 943e f447 85be 6f27 3d3e
00000020: 8c6c 88be d186 853d 70c0 ff3c 9969 bebd
00000030: db37 a23d e60a 123e 6425 703e 9d91 963d
00000040: b6e5 663e e31b e5bd 5157 5fbe 6897 ed3c
00000050: 9486 d4bd 1f15 8bbe a805 29bc 57a5 393d
00000060: fa3c 0c3e 616b febc 999c 1a3e 97f0 c9bd
00000070: 5a67 8abe 9367 813b 42ac 13be 35f7 84be
00000080: 8018 31be e9c9 55be f306 0ebe f509 fc3d
00000090: 25c8 6b3e 215c 08be d426 3d3e 656f 9d3d
000000a0: 9b46 7cbe f70e f1bd e276 833e dad4 b4bd
000000b0: 9c44 2d3e f55c 363e dc25 47be 2dd5 873e
000000c0: fbb0 ca3d 882d 223c d2a1 803e 5556 27bd
000000d0: d43d 83be 29ce 323e 2418 f1bc ea9e 053e
000000e0: 7695 cfbb 418d 11be 689c 2bbd 54da 0abe
000000f0: 8059 1f3e 0906 7e3d 8838 dfbd c31c 1a3e
00000100: d2da 24be 4ad3 fd3d f9e8 1a3e b1d2 7c3e
00000110: 1953 8ebc 7456 d23c 56a2 57be d7b3 d0bd
00000120: f12c 50bd 40ac 84bd c76b 633d 723b a7bd
00000130: 80a5 2b3e abc5 023e aad2 1d3e eed0 d93c
00000140: 5d02 883d c4d6 c2be 6047 9f3d 3a7a 2c3e
00000150: 2977 883e bc5a e2bc 3342 783e 08ed 793d
00000160: cdca 803d 6dd9 0b3e 08b4 1d3d a905 dfbd
00000170: 32fe 703c 6114 07be 0752 0abe 6c8d 7fbe
00000180: 2b65 40bd aadb 6fbc ecb4 3b3e 0389 343e
00000190: 6a0a 1fbe e65e 733e af7e a53d ea44 533e
000001a0: 4e0d 85be 7c18 243d 5f61 843e 604b 713d
000001b0: b020 4abd 323f 0dbe 45da 7a3e d2e9 243e
000001c0: 510d 5c3e 516b 4dbe 7769 7fbe 66cb 99bd
000001d0: 9c6b 32be ea70 17be 2d06 863d e1de 66be
000001e0: 9982 743e d11e 813d 4865 07bd 0075 473d
000001f0: 9af3 15bc 5407 6bbd 514b 6a3d 2094 bf3c
00000200: fe6c 0c3e 1320 0abd d48d 19be e8bf 82be
00000210: 1664 34be 0fc8 b2bc 53a8 ed3d 3364 0fbe
00000220: 6514 a2bd 6de9 94be 7d2f 0a3e 359c 90be
00000230: b584 78be 3492 c63d db95 8ebd 6e02 df3c
00000240: 1927 023d 9581 8bbc 4cb9 8ebd 2ee1 a53b
00000250: 9beb a93d a0fa 8e3d effc adbc 25d6 fa3d
00000260: ea90 e2bc e2c8 b1be 8c95 2dbe 1b31 54be
00000270: 0eaa 3c3e 8ae6 803d 5bb2 523d eff6 f9bd
00000280: 4894 89bd d59b 2fbe a918 40bd a444 363d
00000290: 007c 663c f68c 0d3d 72da 58be 94f2 9abd
000002a0: df94 27be c89d 88be 1894 d13d 8c76 51be
000002b0: 0c85 353e 548b 40be 6f73 3a3e a7b1 a3bd
000002c0: cb22 21be ed34 b53d fefd ca3d 6895 d23b
000002d0: c144 723d 915f 073e 0588 93be 83c4 1d3e
000002e0: 694d 1cbe e4a1 32be 7061 923e f271 d93d
000002f0: 1863 be3d 1783 203e 207a 463e 6f78 1e3d
00000300: 48f0 9fbd 7827 7f3e 6378 d73d e7dd eabd
00000310: 0823 a13d 3c99 7d3e eee2 65be 688c c83d
00000320: 0f9e 963d 52c0 b93c b9c4 36be cdea 81be
00000330: 863a 193e 980e 5a3e 09b2 813d 7bb9 483e
00000340: cd98 2f3d 3517 30be f1e6 40bd a4f1 a0bd
00000350: e471 efbd 72f4 fc3c 89b2 f93c 4d4b cf3d
00000360: 1bfc 8d3e 1d8a 113e e1ae 7bbe 23ff d7bd
00000370: ac87 023d 433f 5f3c c585 c53c 3635 903d
00000380: d1b0 de3d aef0 853e 1dac 4bbd c484 e6bd
00000390: 19f9 393e 1733 8a3e ddcb 7d3d 6147 2a3d
000003a0: 348c c2be 1dda a4be 7b6f 0bbd 89cb 273e
000003b0: 3b64 f6bd c9ce 2cbe aed2 06be 03bf 3a3d
000003c0: c325 5abd 7e4a f4bc 356d a93c c294 2b3e
000003d0: 94df abbd 5cc1 ad3e 1eac b3bd f047 493e
000003e0: dd7c 0d3e ad18 ba3e a11e 27be 3552 00bd
000003f0: e008 9f3e dd81 4dbe 541d 3abe e6d1 33bd

conv_skip.bias f4 [16]
0.21154603 0.017185975 0.031196166 -0.23300329 0.14989513 -0.21986817 0.22067527 0.17381833
0.09021962 -0.05828342 -0.10805632 -0.18447573 -0.15197094 0.20074113 0.02856075 -0.07275059
00000000: 869f 583e 9ac9 8c3c 1a8f ff3c 6a98 6ebe
00000010: 1c7e 193e 1f25 61be b3f8 613e 6ffd 313e
00000020: 10c5 b83d 98ba 6ebd a24c ddbd 35e7 3cbe
00000030: 459e 1bbe 158f 4d3e 3cf8 e93c 43fe 94bd

attention.query_conv.weight f4 [32, 32, 1, 1]
-0.011044354 0.059538867 0.07911621 -0.17322057 0.0022397188 0.012260308 -0.06354799 -0.14533868
-0.035579395 0.124891296 0.0078340825 0.028412325 -0.2346811 -0.07779484 -0.10289932 -0.15206145
-0.20200972 -0.007075911 -0.05092706 -0.03888698 -0.0042091487 0.04749539 0.042414956 0.09812001
-0.12784255 -0.16898231 0.024595397 -0.069900446 -0.14584865 -0.08959896 0.041137308 0.21011013
-0.0973427 0.007336788 -0.013816038 -0.02487826 -0.0035243176 0.009941275 -0.0014163383 0.14418708
0.06987537 0.10940567 -0.1923026 -0.03707029 0.187833 0.20966607 0.024782062 0.029250843
-0.033581354 -0.14869602 -0.025981499 -0.05766804 0.0007194428 0.028771041 -0.036600187 -0.18348311
0.10129485 0.17345342 -0.031926174 0.10337888 0.032418307 0.08386037 -0.13011967 -0.3506089
0.124376535 0.035999976 0.17412326 -0.14370096 -0.0076084044 -0.08303231 -0.02757017 -0.09762997
0.07721497 0.03390586 0.26715142 -0.095549695 -0.09197203 -0.05811752 0.17617282 -0.06952106
-0.015541381 0.0050722556 0.09642102 -0.004241195 -0.13498887 0.023295987 0.19181508 0.19574498
0.02168013 0.015532679 -0.029738694 0.028378673 0.057473425 -0.010330664 0.13274865 0.40060726
0.14225191 -0.014329343 0.058094714 0.027409004 0.004848114 -0.055650923 -0.07952401 -0.0825134
-0.12043243 -0.033004016 0.09152325 -0.065507196 -0.20272243 -0.15162195 -0.07417164 -0.19934595
-0.114472136 0.039895575 -0.105010435 0.009709459 -0.009038955 -0.0010969728 0.07493708 0.12024091
-0.11559916 -0.06274779 0.012528129 -0.22567898 0.11663866 -0.090528555 0.09159936 0.2663601
-0.121357575 -0.04959619 0.006294851 0.040526982 -0.0051033283 0.005642756 0.053643163 0.08773518
0.05388015 -0.037627496 -0.1860963 0.011650031 0.2275276 0.22764502 -0.030383693 0.101232186
0.117018364 -0.09030429 -0.13583161 -0.13080376 0.07692126 -0.124269836 0.09844383 -0.18739343
0.116375 0.07945658 -0.06506367 0.11910063 0.13698961 -0.000520465 -0.079682216 -0.3487142
0.034809154 0.030315159 0.15501745 -0.11624708 -0.0014173306 -0.06975569 0.022474153 -0.052521117
0.107556954 -0.082893066 0.21557581 -0.09033953 -0.23241156 -0.14509076 0.057740454 0.032392662
-0.13474935 -0.14779094 0.12517829 -0.09174853 -0.071391635 0.06742942 0.15484343 0.17822707
-0.059931334 -0.15851165 0.03819137 0.029793952 -0.06817687 -0.02185944 0.05322288 0.35353586
0.14919044 0.009435729 0.017151946 -0.017039703 0.0045327055 -0.0640326 -0.060352724 -0.024657778
0.1426848 0.081337616 0.2081814 -0.082298115 -0.18813124 -0.17217223 0.09449901 -0.16565076
-0.17267075 -0.07907956 -0.051104378 -0.104752116 -0.09312149 -0.069124125 -0.055654265 0.19282441
-0.09804818 -0.043852262 0.038650822 -0.09209688 0.10824143 -0.011464664 0.14577724 0.37504834
0.056159407 0.044037152 0.053296812 -0.087022625 0.0073428457 0.026648061 -0.04703535 -0.08563605
0.025136359 -0.062000304 0.107443966 0.090665475 -0.17353457 -0.13779433 -0.030147795 -0.041466955
-0.042609252 -0.041794404 -0.012256403 0.018350126 0.047989395 -0.018153008 -0.12879294 0.14520873
-0.088634826 0.017536953 0.04460683 -0.100443624 0.01808203 -0.05753083 0.13417956 0.2462999
00000000: 61f3 34bc 07df 733d ae07 a23d bc60 31be
00000010: 3fc8 123b 75df 483c 7325 82bd aad3 14be
00000020: b3bb 11bd 02c7 ff3d 865a 003c f7c0 e83c
00000030: 3e50 70be e752 9fbd e1bc d2bd ffb5 1bbe
00000040: a3db 4ebe 0bdd e7bb e598 50bd f447 1fbd
00000050: e6ec 89bb 878a 423d 4ebb 2d3d 25f3 c83d
00000060: 28e9 02be b309 2dbe 497c c93c f727 8fbd
00000070: 5959 15be a97f b7bd 987f 283d 1c27 573e
00000080: 9c5b c7bd 7069 f03b aa5c 62bc 7ecd cbbc
00000090: 3df8 66bb bbe0 223c 6da4 b9ba c7a5 133e
000000a0: d11a 8f3d 1410 e03d f9ea 44be 04d7 17bd
000000b0: 4b57 403e b4b2 563e c003 cb3c 779f ef3c
000000c0: 9a8c 09bd c543 18be 27d7 d4bc 5335 6cbd
000000d0: fd98 3c3a 3fb1 eb3c 14ea 15bd ffe2 3bbe
000000e0: ad73 cf3d c69d 313e 05c5 02bd 4eb8 d33d
000000f0: 0fc9 043d fcbe ab3d 173e 05be 0283 b3be
00000100: 20b9 fe3d b674 133d 5e4d 323e 5826 13be
00000110: ec4f f9bb d80c aabd d6da e1bc 39f2 c7bd
00000120: e222 9e3d dfe0 0a3d 12c8 883e 8faf c3bd
00000130: d55b bcbd a30c 6ebd a666 343e 0f61 8ebd
00000140: 47a1 7ebc 2a35 a63b 6278 c53d b9f9 8abb
00000150: 863a 0abe 3ad7 be3c 2c6b 443e 5f71 483e
00000160: 879a b13c c77c 7e3c 909e f3bc 647a e83c
00000170: 4169 6b3d f241 29bc 43ef 073e 651c cd3e
00000180: 7caa 113e 9fc5 6abc b9f4 6d3d d988 e03c
00000190: eedc 9e3b 39f2 63bd 7cdd a2bd c9fc a8bd
000001a0: 47a5 f6bd 382f 07bd 8b70 bb3d a328 86bd
000001b0: 7896 4fbe c942 1bbe 4de7 97bd 5821 4cbe
000001c0: 5e70 eabd 8b69 233d b60f d7bd 6c14 1f3c
000001d0: 2018 14bc 4dc8 8fba 9d78 993d de40 f63d
000001e0: 41bf ecbd ea81 80bd c842 4d3c 6418 67be
000001f0: 40e0 ee3d 0967 b9bd 7298 bb3d 5a60 883e
00000200: 528a f8bd 6025 4bbd 0a45 ce3b 9fff 253d
00000210: d239 a7bb dee6 b83b efb8 5b3d 81ae b33d
00000220: 6fb1 5c3d 4a1f 1abd 0790 3ebe c6df 3e3c
00000230: fffc 683e c71b 693e 39e7 f8bc d252 cf3d
00000240: 53a7 ef3d 75f1 b8bd 7117 0bbe 6cf1 05be
00000250: e588 9d3d 2f81 febd eb9c c93d 10e4 3fbe
00000260: 0456 ee3d 22ba a23d 1a40 85bd 08eb f33d
00000270: 0147 0c3e d16f 08ba 6e30 a3bd ab8a b2be
00000280: 0b94 0e3d 7f57 f83c e5bc 1e3e f312 eebd
00000290: b9c5 b9ba 12dc 8ebd b71b b83c 6220 57bd
000002a0: d246 dc3d d7c3 a9bd e8bf 5c3e ee03 b9bd
000002b0: 4cfd 6dbe ac92 14be 4181 6c3d 2bae 043d
000002c0: bcfb 09be 8256 17be bd2e 003e a7e6 bbbd
000002d0: c735 92bd 7018 8a3d 478f 1e3e 2881 363e
000002e0: 8f7a 75bd e150 22be 8e6e 1c3d 7212 f43c
000002f0: 51a0 8bbd 9112 b3bc 3c00 5a3d a702 b53e
00000300: 61c5 183e 5198 1a3c 3d82 8c3c d996 8bbc
00000310: 1787 943b 8623 83bd 6b34 77bd 1cff c9bc
00000320: f71b 123e 5694 a63d 812d 553e ea8b a8bd
00000330: 7aa5 40be eb4d 30be b288 c13d 5aa0 29be
00000340: 9ad0 30be 77f4 a1bd d352 51bd 4788 d6bd
00000350: 7bb6 bebd f390 8dbd baf5 63bd c373 453e
00000360: 7ccd c8bd 6e9e 33bd 5350 1e3d 4a9d bcbd
00000370: afad dd3d 49d6 3bbc a146 153e 5606 c03e
00000380: 6807 663d 4d60 343d c24d 5a3d eb38 b2bd
00000390: 419c f03b 094d da3c 24a8 40bd f461 afbd
000003a0: c4ea cd3c 08f4 7dbd 950b dc3d d2ae b93d
000003b0: 0cb3 31be f519 0dbe 82f8 f6bc 41d9 29bd
000003c0: 0a87 2ebd 9c30 2bbd 15cf 48bc 0153 963c
000003d0: 8790 443d 9eb5 94bc 4ce2 03be 99b1 143e
000003e0: 2d86 b5bd a8a9 8f3c a7b5 363d 63b5 cdbd
000003f0: c420 943c 73a5 6bbd 5e66 093e 0a36 7c3e

attention.query_conv.bias f4 [32]
-0.26608536 0.28618369 -0.09793813 -0.036498103 0.3167338 -0.32958207 -0.19323313 -0.32703236
-0.029627606 -0.05178291 -0.1433609 -0.010233796 -0.11363833 0.046505533 0.18319939 -0.015309958
-0.10091588 0.058488935 0.01972596 0.20132002 0.0027755846 -0.105515845 0.19594914 0.08152878
0.20058668 0.10739554 -0.02277995 0.17477268 -0.18305862 0.22709624 0.033613894 -0.20065182
00000000: 573c 88be ab86 923e c993 c8bd 097f 15bd
00000010: ef2a a23e fbbe a8be e8de 45be c970 a7be
00000020: 98b5 f2bc 511a 54bd 33cd 12be a7ab 27bc
00000030: 36bb e8bd 967c 3e3d 9f98 3b3e 9ed6 7abc
00000040: fcac cebd 1892 6f3d 5698 a13c d626 4e3e
00000050: 95e6 353b b118 d8bd e4a6 483e 90f8 a63d
00000060: 9866 4d3e 31f2 db3d 059d babc 9cf7 323e
00000070: b873 3bbe eb8b 683e b9ae 093d ac77 4dbe

attention.key_conv.weight f4 [32, 32, 1, 1]
0.113636084 -0.08614244 0.12800133 0.09391825 -0.026970107 -0.13636142 -0.09016891 -0.060469758
0.013701141 0.039552573 -0.10193958 -0.029235177 -0.09812895 -0.039461542 0.1332002 0.11600975
0.07233122 0.18012646 0.08849117 0.170136 -0.11818811 0.06852549 0.22887114 -0.112383
-0.0045771776 0.08838736 -0.074203484 -0.047547743 0.041954327 -0.04040305 0.06535295 -0.06416758
-0.181423 0.052386023 -0.13874964 0.062193558 0.013990325 0.082932025 0.10216157 0.037639067
-0.22280037 -0.1180725 0.0055007366 -0.0108183 0.062068675 0.048731696 -0.19238326 -0.05867559
-0.08564798 -0.255539 -0.2224898 -0.18499297 0.0066295154 -0.1363811 -0.30802357 0.09578095
0.0507218 0.11367187 0.11173764 0.08888369 -0.25536522 0.060728095 -0.265259 -0.05802582
0.15475602 0.008578186 -0.022554778 -0.13218796 0.017961673 -0.10151615 -0.1054325 -0.104043916
-0.08570104 0.018503034 0.12255048 -0.23213975 -0.10472413 0.02069349 0.1937293 -0.07986676
-0.188881 -0.010469935 0.07124344 0.0866723 0.14961633 0.063862614 0.09131745 0.07734316
-0.047218893 0.006446748 0.03051502 -0.13598531 0.05124775 -0.014169279 -0.021993367 0.25701296
0.031982176 -0.053232327 0.11735145 0.01984599 -0.012883746 -0.15918984 -0.11988831 -0.10389835
0.10320363 0.12758659 0.038792014 -0.0072106365 -0.0895635 0.015557489 0.13459772 0.113316394
-0.05487285 0.124564275 0.026282156 0.087664954 -0.07536388 -0.007145029 0.14108948 -0.07857423
-0.026633373 0.06416999 -0.04863025 -0.116804674 0.026737655 -0.035651185 0.10897422 0.19883485
-0.115475096 0.05703714 -0.22585256 0.047240365 0.017999528 0.071400665 0.1131577 0.0395953
-0.08675633 -0.22400658 0.007875942 -0.024919506 0.079309 0.07397464 -0.29760164 -0.03727092
0.019336391 -0.25012097 -0.25184023 -0.22714503 -0.031508792 -0.28845704 -0.31925207 0.11827314
0.030220775 -0.03170686 0.108837485 0.08527528 -0.27557096 0.13966398 -0.3231264 -0.05054256
0.092168175 -0.03832349 0.19475777 0.051960282 0.0077690035 -0.117703825 -0.06824258 -0.060328197
0.19690883 0.10778152 0.05828587 -0.12749225 -0.08462869 -0.040978834 0.2204843 -0.13089915
0.079783775 0.08857383 0.1647599 0.0249072 -0.010247882 0.14015421 0.1793873 0.00199764
-0.042533148 -0.09149508 -0.11617402 0.049156573 0.032711722 -0.11102227 0.04838461 0.18791507
0.08611143 -0.047697447 0.29706258 -0.11599839 -0.00248182 -0.10225407 -0.09585375 -0.06575064
0.082006335 0.17916323 0.06390002 -0.006292685 -0.041203406 -0.041813467 0.27039084 -0.13285242
0.03866525 0.04490612 0.13734157 0.1434602 0.008812349 0.2534104 0.28381845 -0.057620216
-0.023069212 0.09816166 -0.05498817 -0.039462324 0.26246548 -0.038571663 0.11543848 0.18987475
0.22154833 -0.06227514 0.024747467 0.11032186 -0.022765614 -0.0839339 -0.048365604 -0.038407892
0.08400178 0.1698707 -0.08607766 -0.12750183 -0.00604081 -0.05899666 -0.024617387 -0.06062307
-0.049422417 0.056024484 0.089821726 0.053957157 -0.02105686 0.23099686 0.230848 -0.111324415
-0.027968565 0.10279386 -0.13375245 0.078290954 0.0150579605 -0.112014174 0.22506548 -0.111675896
00000000: 09ba e83d 736b b0bd c812 033e 3658 c03d
00000010: 6af0 dcbc 54a2 0bbe 7aaa b8bd 23af 77bd
00000020: c07a 603c e101 223d b3c5 d0bd 9c7e efbc
00000030: d5f7 c8bd 6da2 21bd a265 083e 8596 ed3d
00000040: 6422 943d 1273 383e dc3a b53d 2238 2e3e
00000050: 9c0c f2bd 1857 8c3d 325d 6a3e 0f29 e6bd
00000060: 26fc 95bb 6f04 b53d fff7 97bd 6cc1 42bd
00000070: 4dd8 2b3d ab7d 25bd c4d7 853d 4b6a 83bd
00000080: f3c6 39be ba92 563d 6314 0ebe acbe 7e3d
00000090: ad37 653c 44d8 a93d 163a d13d 6c2b 1a3d
000000a0: c825 64be ffcf f1bd 863f b43b 3d3f 31bc
000000b0: b93b 7e3d e39a 473d 1e00 45be d155 70bd
000000c0: 3568 afbd 02d6 82be 5ed4 63be cc6e 3dbe
000000d0: 683c d93b 7da7 0bbe 44b5 9dbe cd28 c43d
000000e0: aac1 4f3d cccc e83d b4d6 e43d a708 b63d
000000f0: 3bbf 82be 06be 783d 07d0 87be 7bac 6dbd
00000100: 5d78 1e3e 858b 0c3c ccc4 b8bc 485c 07be
00000110: 5c24 933c b3e7 cfbd ffec d7bd fa14 d5bd
00000120: 0784 afbd ad93 973c bffb fa3d 0bb6 6dbe
00000130: 9b79 d6bd 6585 a93c f960 463e 2f91 a3bd
00000140: 056a 41be 178a 2bbc 15e8 913d 3f81 b13d
00000150: 0635 193e 67ca 823d a504 bb3d 1766 9e3d
00000160: 9968 41bd 3e3f d33b a3fa f93c bc3f 0bbe
00000170: 29e9 513d 4326 68bc 6f2b b4bc 3497 833e
00000180: beff 023d 240a 5abd f555 f03d 0f94 a23c
00000190: 5916 53bc a902 23be 0188 f5bd a8c8 d4bd
000001a0: 6d5c d33d 0fa6 023e 60e4 1e3d 3447 ecbb
000001b0: 116d b7bd d7e4 7e3c fcd3 093e 6d12 e83d
000001c0: 5bc2 60bd 8e1b ff3d ad4d d73c af89 b33d
000001d0: 6158 9abd d920 eabb c379 103e 87eb a0bd
000001e0: 3b2e dabc 8e6b 833d 8330 47bd 4a37 efbd
000001f0: ed08 db3c fa06 12bd e02d df3d 5d9b 4b3e
00000200: 357e ecbd c79f 693d e545 67be 1d7f 413d
00000210: bf73 933c 833a 923d 39bf e73d ae2e 223d
00000220: 4ead b1bd fb61 65be 180a 013c fe23 ccbc
00000230: c26c a23d 0480 973d 3e5f 98be 64a9 18bd
00000240: 5a67 9e3c db0f 80be 34f1 80be b598 68be
00000250: 5d0f 01bd a4b0 93be 0275 a3be 3039 f23d
00000260: 8f91 f73c 0ddf 01bd 30e6 de3d cea4 ae3d
00000270: a317 8dbe 1304 0f3e d370 a5be b705 4fbd
00000280: abc2 bc3d 18f9 1cbd 956e 473e 4ed4 543d
00000290: 2093 fe3b b40e f1bd c4c2 8bbd b31a 77bd
000002a0: 78a2 493e 8fbc dc3d 2abd 6e3d 548d 02be
000002b0: ce51 adbd 6cd9 27bd a3c6 613e 6d0a 06be
000002c0: ad65 a33d 3266 b53d d2b6 283e 2f0a cc3c
000002d0: bce6 27bc 9684 0f3e 4eb1 373e d6ea 023b
000002e0: 3d37 2ebd c661 bbbd a5ec edbd 6758 493d
000002f0: bafc 053d a55f e3bd f12e 463d cf6c 403e
00000300: 305b b03d 665e 43bd 9618 983e 9090 edbd
00000310: 08a6 22bb 956a d1bd f94e c4bd 46a8 86bd
00000320: f0f2 a73d 9176 373e 04de 823d de32 cebb
00000330: e7c4 28bd 9944 2bbd ab70 8a3e 770a 08be
00000340: 745f 1e3d 7bef 373d 45a3 0c3e 3be7 123e
00000350: ac61 103c 02bf 813e a750 913e 2d03 6cbd
00000360: a5fb bcbc fb08 c93d 463b 61bd 3fa3 21bd
00000370: e061 863e 52fd 1dbd 036b ec3d 876e 423e
00000380: 91dd 623e 3814 7fbd 33bb ca3c 6df0 e13d
00000390: f47e babc 89e5 abbd 031b 46bd 9851 1dbd
000003a0: 2009 ac3d 96f2 2d3e 7c49 b0bd d78f 02be
000003b0: fdf1 c5bb 7ba6 71bd 67aa c9bc e54f 78bd
000003c0: 296f 4abd ee79 653d 74f4 b73d 2e02 5d3d
000003d0: 707f acbc 718a 6c3e 6b63 6c3e 0efe e3bd
000003e0: 551e e5bc 9685 d23d 67f6 08be 0257 a03d
000003f0: aab5 763c b067 e5bd 9177 663e 55b6 e4bd

attention.key_conv.bias f4 [32]
4.422839e-07 1.3289753e-07 -3.3512083e-07 -1.4422837e-07 1.4305056e-07 -1.858542e-07 -1.5183103e-07 -3.656924e-08
1.413716e-08 2.5899135e-07 2.2177122e-07 -4.0368104e-08 -7.533811e-08 1.0240039e-08 -3.834058e-08 5.9134674e-08
-1.9878202e-07 -8.8756785e-08 8.681703e-08 -2.0552069e-07 2.2890279e-07 9.839624e-08 -1.3983978e-07 -9.0834156e-08
7.778234e-08 -7.162492e-08 -8.029272e-08 3.8311445e-08 2.7845195e-08 9.809472e-08 1.7525785e-09 3.4923126e-08
00000000: 0973 ed34 98b2 0e34 a8ea b3b4 31dd 1ab4
00000010: 7099 1934 378f 47b4 ff06 23b4 4e10 1db3
00000020: e3df 7232 800b 8b34 0220 6e34 3361 2db3
00000030: 90c9 a1b3 2bec 2f32 eaab 24b3 43fb 7d33
00000040: c970 55b4 8f9a beb3 2b70 ba33 19ad 5cb4
00000050: 52c8 7534 e84d d333 de26 16b4 9b10 c3b3
00000060: 4b09 a733 37d0 99b3 646d acb3 e18b 2433
00000070: 3b30 ef32 25a8 d233 60df f030 62fe 1533

attention.value_conv.weight f4 [32, 32, 1, 1]
0.04466377 -0.039571125 0.10585983 0.092071176 -0.025768267 -0.099555105 0.106503345 -0.16006525
-0.04077095 0.10609525 -0.05021053 -0.010325568 0.05324333 -0.057113405 -0.1602818 0.14606923
0.14668214 -0.07345575 0.12590535 -0.029052041 0.10797426 0.11973944 -0.0039340565 -0.15690602
-0.13838705 0.013097025 0.0349265 -0.05312149 -0.068389855 -0.04836695 -0.14482498 -0.1381967
-0.01889004 -0.05501861 0.18579882 -0.16272351 -0.021773253 0.10019562 -0.034679897 0.01600591
0.069403864 0.092862785 0.034287993 -0.16951977 -0.06727009 0.073240444 0.11624078 0.11192158
0.12606245 0.1240065 -0.08095401 0.070488624 -0.16201292 0.12990032 0.17851417 0.03835078
0.03514618 -0.08380979 -0.11075479 -0.06367746 0.12028889 0.01716042 0.1353027 0.17339954
0.025584437 0.14967574 0.09123965 0.121768184 0.010941226 0.107567176 -0.032319866 -0.0202829
-0.13822687 0.118392035 0.0049380437 0.10862887 0.018791232 -0.09236542 -0.04123425 -0.11276616
0.055937972 0.07104093 0.11445475 -0.09060225 0.14471161 -0.1507278 -0.028484464 0.064367555
0.078680046 0.0067025945 0.085358396 0.041719224 -0.12718987 0.02071204 0.012521775 0.05505399
0.16787922 -0.0081495 0.030337183 0.08075229 0.0056355447 0.18018888 0.038446896 0.024660163
0.112170935 0.10102917 0.014501398 -0.07496985 -0.05864943 -0.012357973 0.021524768 -0.04842695
-0.065472245 -0.11427941 0.06647139 0.04758848 0.098829284 0.06787958 -0.05399152 -0.044734105
0.081697814 -0.076911114 -0.010672864 0.059312332 -0.084873274 0.128299 0.014288537 -0.18168351
0.10651324 0.043191355 0.08615137 -0.018556148 0.019650329 -0.13264069 0.022077532 -0.012477562
0.13337569 0.009321796 -0.00084815285 0.096829645 0.074370764 -0.009479678 -0.12804313 -0.18427747
0.11904076 -0.09957276 -0.0008134899 -0.0729121 -0.072509624 -0.05207797 0.12896298 0.0885566
0.041363344 0.023990905 0.08254387 -0.15249217 0.07343171 -0.049802605 -0.09576396 0.0622045
0.09815427 0.0625016 -0.1354831 -0.10244157 0.03572847 0.13216554 0.022869196 0.14463367
0.058847412 -0.12771235 -0.032961447 -0.12596479 0.15976763 0.012862467 -0.08450042 -0.06585977
0.14152324 0.11512493 0.03930071 0.020777425 0.13765855 -0.09904329 0.07688893 0.020805383
0.04780833 0.0045759007 -0.04358678 -0.03533515 0.014173886 -0.17399056 0.025966067 0.032330886
-0.09321818 -0.003158302 -0.14808132 0.058159716 0.0048180767 0.116079934 0.10403687 -0.033851404
0.012751156 -0.08402459 0.020360328 -0.08332826 0.07937877 -0.06448885 -0.033922113 0.087601975
-0.101930074 0.030190041 0.03451188 -0.007376002 0.1129274 0.03730411 0.00832002 0.009249708
-0.05734381 0.040190246 -0.06811617 0.07094923 0.15426815 0.047832135 0.12705554 0.20100221
-0.091821775 -0.17426051 0.00822234 0.15645316 -0.029286124 -0.052471075 -0.04606683 -0.059957433
0.11330474 -0.078415714 -0.17300132 0.009130085 0.05205021 -0.08476209 0.1154528 -0.09839139
0.055386975 -0.14280193 0.060450003 0.15620494 -0.03891862 0.16149794 0.03981463 -0.17592214
-0.08388604 0.10599826 -0.07994882 0.12202679 -0.13244873 -0.010276166 -0.09973653 -0.2820548
00000000: 5bf1 363d 5515 22bd 0acd d83d d08f bc3d
00000010: f917 d3bc 8ce3 cbbd 6d1e da3d 25e8 23be
00000020: 71ff 26bd 7748 d93d 8fa9 4dbd 922c 29bc
00000030: ae15 5a3d bfef 69bd ea20 24be 2c93 153e
00000040: d833 163e f86f 96bd 55ed 003e 8cfe edbc
00000050: 9c21 dd3d f439 f53d 42e9 80bb f9ab 20be
00000060: 56b5 0dbe e894 563c 170f 0f3d eb95 59bd
00000070: fb0f 8cbd 6c1c 46bd 004d 14be 7083 0dbe
00000080: 49bf 9abc 325b 61bd 0c42 3e3e fea0 26be
00000090: d25d b2bc 5c33 cd3d 820c 0ebd d31e 833c
000000a0: 9d23 8e3d d82e be3d 9171 0c3d 9796 2dbe
000000b0: e7c4 89bd 16ff 953d a50f ee3d 2437 e53d
000000c0: 8416 013e 1ff7 fd3d 37cb a5bd 575c 903d
000000d0: b7e6 25be 9704 053e 6bcc 363e b515 1d3d
000000e0: 71f5 0f3d 78a4 abbd 68d3 e2bd 5469 82bd
000000f0: 065a f63d 0294 8c3c ca8c 0a3e a68f 313e
00000100: 7496 d13c 9944 193e dbdb ba3d 9961 f93d
00000110: d442 333c 2e4c dc3d d661 04bd 5328 a6bc
00000120: 588b 0dbe 8677 f23d 50cf a13b d078 de3d
00000130: 12f0 993c 152a bdbd 3fe5 28bd f2f1 e6bd
00000140: 371f 653d e87d 913d 4167 ea3d ac8d b9bd
00000150: 482f 143e 6358 1abe 4058 e9bc 23d3 833d
00000160: 0123 a13d 70a1 db3b 62d0 ae3d c7e1 2a3d
00000170: 103e 02be 4cac a93c 2228 4d3c 4b80 613d
00000180: 88e8 2b3e 7b85 05bc af85 f83c 7561 a53d
00000190: 60aa b83b 6f83 383e 7e7a 1d3d 1c04 ca3c
000001a0: e0b9 e53d 62e8 ce3d 4697 6d3c cb89 99bd
000001b0: 623a 70bd 1879 4abc b654 b03c 565b 46bd
000001c0: 5016 86bd 530b eabd 2722 883d 23ec 423d
000001d0: 0267 ca3d 7304 8b3d 3626 5dbd 1c3b 37bd
000001e0: 2f51 a73d 9383 9dbd 3cdd 2ebc 7df1 723d
000001f0: 0ad2 adbd d060 033e 781a 6a3c 3e0b 3abe
00000200: 9d23 da3d 6be9 303d 2170 b03d 1003 98bc
00000210: baf9 a03c f6d2 07be f1db b43c b06e 4cbc
00000220: a393 083e 72ba 183c 9356 5eba 9f4e c63d
00000230: b34f 983d a750 1bbc bd1d 03be 3cb3 3cbe
00000240: a4cb f33d ceec cbbd 6240 55ba f052 95bd
00000250: ed7f 94bd b64f 55bd df0e 043e 2a5d b53d
00000260: 9c6c 293d 9388 c43c c30c a93d e826 1cbe
00000270: 5d63 963d d1fd 4bbd e51f c4bd 25ca 7e3d
00000280: 1b05 c93d d700 803d 15bc 0abe e3cc d1bd
00000290: 0458 123d 6756 073e 2e58 bb3c d91a 143e
000002a0: fc09 713d 07c7 02be 9502 07bd eafc 00be
000002b0: 209a 233e 19bd 523c 8e0e adbd 7de1 86bd
000002c0: 78eb 103e 9fc6 eb3d c8f9 203d 6b35 aa3c
000002d0: 5df6 0c3e 35d7 cabd f177 9d3d 0d70 aa3c
000002e0: abd2 433d 70f1 953b 0d88 32bd 97bb 10bd
000002f0: 9639 683c 952a 32be cab6 d43c 646d 043d
00000300: 2ce9 bebd 84fb 4ebb a1a2 17be e238 6e3d
00000310: f5e0 9d3b 51bb ed3d 4811 d53d c5a7 0abd
00000320: 3aea 503c 1615 acbd b4ca a63c 02a8 aabd
00000330: 5691 a23d bb12 84bd eaf1 0abd aa68 b33d
00000340: b7c0 d0bd 1b51 f73c 545c 0d3d 64b2 f1bb
00000350: 7b46 e73d 32cc 183d b150 083c 168c 173c
00000360: 58e1 6abd 879e 243d 7e80 8bbd d44d 913d
00000370: 78f8 1d3e a1eb 433d d91a 023e 86d3 4d3e
00000380: 0e0d bcbd 5971 32be feb6 063c 4235 203e
00000390: 74e9 efbc e9eb 56bd 93b0 3cbd ed95 75bd
000003a0: 510c e83d 6b98 a0bd 4227 31be 5a96 153c
000003b0: 9a32 553d bf97 adbd 8572 ec3d 6d81 c9bd
000003c0: 74dd 623d ab3a 12be 6c9a 773d 30f4 1f3e
000003d0: 2269 1fbd b75f 253e aa14 233d ef24 34be
000003e0: 72cc abbd 9e15 d93d 35bc a3bd 2fe9 f93d
000003f0: a4a0 07be 5d5d 28bc aa42 ccbd 7d69 90be

attention.value_conv.bias f4 [32]
0.1726725 -0.046864755 -0.055610206 -0.13573381 -0.04408379 0.020642852 0.004489681 0.013651822
-0.10018827 0.053338315 0.07275053 0.028414665 0.15653297 0.17223465 0.15034854 -0.14806622
-0.09317067 0.060052037 -0.10347244 0.15834065 0.04849606 0.09304131 -0.15868583 -0.20878392
-0.076061845 0.07374882 -0.071154214 -0.013311848 -0.057820953 -0.15642327 -0.09336311 -0.048906725
00000000: 0fd1 303e 42f5 3fbd 87c7 63bd cefd 0abe
00000010: 3491 34bd 331b a93c 2d1e 933b e4ab 5f3c
00000020: 822f cdbd 4779 5a3d 3bfe 943d dfc5 e83c
00000030: 2e4a 203e 485e 303e f8f4 193e ac9e 17be
00000040: 44d0 bebd 20f9 753d 5ce9 d3bd 0d24 223e
00000050: cea3 463d 718c be3d 8a7e 22be 74cb 55be
00000060: 50c6 9bbd 9f09 973d 4db9 91bd f019 5abc
00000070: aad5 6cbd 6c2d 20be 2935 bfbd 6b52 48bd

attention.out_conv.weight f4 [32, 32, 1, 1]
-0.061679933 -0.17730613 -0.056129094 -0.07474672 0.04246202 -0.18591179 0.059578054 0.009922515
-0.038620453 -0.039326575 0.0933564 0.04346086 -0.11166166 0.12488845 0.10089613 0.042950574
-0.10594209 0.0022797587 -0.048860874 -0.01844195 -0.035924405 -0.031592213 -0.14531754 0.12932463
0.1430554 0.116479024 -0.10790056 -0.10982437 0.022274185 -0.015867688 0.19639549 -0.07039924
0.012838527 -0.009939061 0.13530084 -0.14219302 0.051463544 -0.14716382 0.124370135 0.06548879
0.14135534 0.15459208 0.08453363 -0.026835427 -0.05510011 -0.0908581 -0.1281669 0.14111465
-0.07015564 -0.09945707 -0.120628685 -0.072915226 -0.13072261 -0.18407762 0.1376857 0.04676096
-0.041107398 -0.08862635 -0.17548709 -0.16497645 0.035950597 -0.07634728 -0.024758568 0.10132422
0.04184216 0.1916487 -0.07638579 -0.109528966 -0.05559922 0.074613616 0.20036472 0.13719529
-0.090093225 0.038866498 -0.019415079 -0.14098746 0.0052572917 -0.053327203 -0.04125328 0.0731812
-0.041071873 0.17648803 -0.046205126 -0.08989018 0.057539675 -0.104417965 0.1568526 0.11009223
0.12986723 -0.14420891 0.1604156 0.046702642 0.034394957 -0.011895992 0.15034549 0.09800816
-0.15574507 0.120389834 0.09842658 -0.044583093 -0.06732574 -0.02078804 0.14869057 -0.09169066
0.1320701 0.060262583 -0.020917445 0.10805987 0.08292069 -0.07133424 0.08906928 0.09994175
-0.053863652 -0.16804251 -0.03770301 -0.13000108 0.051060073 -0.12166478 -0.107432805 0.067148976
-0.09605186 0.20142323 0.10448306 0.04240499 -0.09729774 -0.14226209 0.005962531 -0.19432473
0.14963932 0.13926707 -0.1636241 -0.12568411 0.14308496 -0.13271329 0.060782164 0.042917944
0.04017912 0.13383372 0.018860877 0.0767355 -0.09971234 -0.000795808 0.11967947 -0.03654025
-0.11353919 0.014492991 -0.12622309 0.030664247 0.06251891 -0.049316935 0.0040431903 0.119808085
-0.11384256 0.15561238 0.026815923 -0.16034825 0.07791782 -0.08283588 -0.0031673203 -0.12561665
-0.03737742 0.059195466 -0.12191381 -0.08364225 -0.06287071 -0.13336141 0.038681306 0.06467247
0.048177384 0.19754077 -0.15195186 -0.09347018 0.063119076 -0.05282638 0.0637721 -0.2174041
-0.088780105 -0.11446076 -0.073417574 0.1349342 -0.0042151683 -0.12381403 -0.1497001 -0.13937232
-0.07682991 0.04841288 0.024309175 -0.091329195 -0.026218725 -0.118288055 0.1429346 -0.047794636
0.006756592 0.06503884 -0.05812215 -0.06262241 0.09266192 -0.14444543 0.1601327 -0.06484685
-0.08146763 0.22381447 0.03197852 0.06932562 0.09055133 -0.0562408 0.14721783 -0.12803562
0.07418337 0.1788747 -0.15725632 -0.05190036 -0.10217999 -0.059376456 -0.008094469 -0.0805517
-0.018936468 -0.012795387 -0.028046018 -0.07642286 0.12160967 0.05023522 -0.13140096 0.12217158
-0.05961236 0.10889955 -0.103100374 -0.07327624 0.1388881 -0.12814385 -0.042637896 -0.14496824
-0.16134958 -0.12313971 0.0805562 0.0019025678 0.17735066 0.11137694 0.12577666 -0.18236138
0.028492048 0.028854657 0.14990747 0.11541378 -0.105978385 0.14520068 -0.045796417 0.08780764
0.0110226385 -0.051626164 0.018651271 0.09221656 -0.08500124 0.14313112 -0.04521044 -0.0026547671
00000000: 19a4 7cbd bd8f 35be 9fe7 65bd cf14 99bd
00000010: a8ec 2d3d a95f 3ebe 1e08 743d 0b92 223c
00000020: 7b30 1ebd e714 21bd a431 bf3d 0404 323d
00000030: deae e4bd 84c5 ff3d a1a2 ce3d f1ec 2f3d
00000040: 2bf8 d8bd 0168 153b 5722 48bd 9313 97bc
00000050: 7825 13bd d666 01bd 1fce 14be ad6d 043e
00000060: 1d7d 123e 8e8c ee3d f8fa dcbd 99eb e0bd
00000070: 5a78 b63c f4fc 81bc e61b 493e 7a2d 90bd
00000080: af58 523c 71d7 22bc 4e8c 0a3e 0c9b 11be
00000090: 70cb 523d 1db2 16be c5b5 fe3d fd1e 863d
000000a0: 74bf 103e 634d 1e3e f81f ad3d f8d5 dbbc
000000b0: a7b0 61bd d013 babd 2f3e 03be 5c80 103e
000000c0: c3ad 8fbd 26b0 cbbd 2c0c f7bd 9454 95bd
000000d0: 26dc 05be d87e 3cbe 7bfd 0c3e 6c88 3f3d
000000e0: 3b60 28bd bb81 b5bd e3b2 33be 96ef 28be
000000f0: ef40 133d f65b 9cbd 7bd2 cabc 1383 cf3d
00000100: af62 2b3d 8f3f 443e 2770 9cbd b950 e0bd
00000110: 02bc 63bd 06cf 983d 692c 4d3e ec7c 0c3e
00000120: cc82 b8bd 7a32 1f3d 5f0c 9fbc 045f 10be
00000130: 5c45 ac3b a06d 5abd 33f9 28bd 06e0 953d
00000140: fb3a 28bd 47b9 343e 9641 3dbd 5818 b8bd
00000150: b9ae 6b3d 16d9 d5bd f89d 203e 0978 e13d
00000160: eafb 043e 80ab 13be fd43 243e 454b 3f3d
00000170: bae1 0c3d 68e7 42bc 2bf4 193e 81b8 c83d
00000180: a37b 1fbe f28e f63d e093 c93d c39c 36bd
00000190: 14e2 89bd ae4b aabc 5742 183e 50c8 bbbd
000001a0: 623d 073e e6d5 763d 105b abbc 7e4e dd3d
000001b0: 53d2 a93d b017 92bd f469 b63d 43ae cc3d
000001c0: 22a0 5cbd 5613 2cbe 796e 1abd 011f 05be
000001d0: 5e24 513d 622b f9bd bb05 dcbd 6785 893d
000001e0: d6b6 c4bd e441 4e3e 37fb d53d dbb0 2d3d
000001f0: 0a44 c7bd 27ad 11be 5661 c33b 10fd 46be
00000200: 0d3b 193e 079c 0e3e 138d 27be 56b3 00be
00000210: dd84 123e fee5 07be b8f6 783d baca 2f3d
00000220: dc92 243d b50b 093e 2082 9a3c 8027 9d3d
00000230: fc35 ccbd c59d 50ba 831a f53d 3bab 15bd
00000240: 3c87 e8bd 0374 6d3c a040 01be 9633 fb3c
00000250: ea09 803d 8e00 4abd bd7c 843b f15d f53d
00000260: 4a26 e9bd da58 1f3e 11ad db3c 5532 24be
00000270: 6193 9f3d dca5 a9bd d192 4fbb a7a1 00be
00000280: 1119 19bd f276 723d f3ad f9bd a14c abbd
00000290: 5cc2 80bd e58f 08be 4a70 1e3d 0073 843d
000002a0: a655 453d 2148 4a3e 4599 1bbe 4b6d bfbd
000002b0: 9344 813d 7960 58bd f29a 823d 2e9f 5ebe
000002c0: 58d2 b5bd 676a eabd f45b 96bd 312c 0a3e
000002d0: 651f 8abb 3692 fdbd fc4a 19be 9eb7 0ebe
000002e0: 0059 9dbd 964c 463d 0924 c73c cd0a bbbd
000002f0: a7c8 d6bc 0241 f2bd 735d 123e 4fc4 43bd
00000300: 6766 dd3b 1533 853d 7e11 6ebd 2e40 80bd
00000310: 88c5 bd3d 81e9 13be d4f9 233e 6dce 84bd
00000320: 80d8 a6bd 9f2f 653e e9fb 023d 97fa 8d3d
00000330: fa72 b93d c15c 66bd 45c0 163e c51b 03be
00000340: 73ed 973d ee2a 373e cd07 21be 7995 54bd
00000350: be43 d1bd ba34 73bd aa9e 04bc 4af8 a4bd
00000360: a720 9bbc bea3 51bc c3c0 e5bc 9783 9cbd
00000370: 7e0e f93d 72c3 4d3d f98d 06be 1835 fa3d
00000380: 172c 74bd ba06 df3d 4a26 d3bd da11 96bd
00000390: af38 0e3e 2438 03be 13a5 2ebd 8e72 14be
000003a0: d338 25be ac30 fcbd a6fa a43d 955f f93a
000003b0: 699b 353e 9819 e43d 99cb 003e f1bc 3abe
000003c0: 2868 e93c 9a60 ec3c 5881 193e 0f5e ec3d
000003d0: 320b d9bd 7daf 143e 0695 3bbd 7ed4 b33d
000003e0: 4c98 343c f575 53bd 8dca 983c 09dc bc3d
000003f0: 2115 aebd f790 123e 952e 39bd 9afb 2dbb

attention.out_conv.bias f4 [32]
-0.007275533 0.053372454 0.07452922 0.073343575 0.02258087 -0.009095744 0.11744105 0.016977804
0.00076772 0.15017854 -0.039757106 -0.029616756 -0.05930113 -0.108432755 0.048489224 0.10405265
-0.031478316 0.08883988 -0.117366076 0.023392195 0.04548643 -0.022396417 0.060112238 -0.00803831
-0.056449465 0.15620631 -0.010469287 0.18869093 -0.15328863 -0.0025361076 -0.10608305 -0.031537108
00000000: 9867 eebb 139d 5a3d c7a2 983d 2835 963d
00000010: 84fb b83c 5106 15bc ef84 f03d 0915 8b3c
00000020: d140 493a 67c8 193e 59d8 22bd d79e f2bc
00000030: bee5 72bd fe11 debd a39c 463d 8e19 d53d
00000040: 68ef 00bd aff1 b53d a05d f0bd fda0 bf3c
00000050: fb4f 3a3d b178 b7bc 4038 763d 1eb3 03bc
00000060: 8e37 67bd 8cf4 1f3e 5f87 2bbc 3238 413e
00000070: b2f7 1cbe d334 26bb 1242 d9bd 0e2d 01bd
